result/FairOD_weights/variance_shift/scatter/seed_125/biasRate_2.pt (torch, 3432 bytes, 4 tensors)

encoder_layer_list.0.weight f4 [10, 15]
000000 36 94 03 3e 69 56 1c 3e 02 e7 a7 3d 92 b4 69 3d
       0.12849507 0.15267338 0.08198358 0.05705697
000010 93 c2 f4 3d 1f 31 0a 3e d4 c2 94 3e cf 08 07 3e
       0.119511746 0.134953 0.29054892 0.13186954
000020 a1 e0 46 3e 42 0e d0 3d 1c 52 b3 be 23 c6 b8 be
       0.19421627 0.101589695 -0.35023582 -0.36088666
000030 a9 59 c6 be e3 3c 1e be c8 49 9b 3d 72 e3 16 bd
       -0.3874028 -0.15452914 0.07582432 -0.036838003
000040 82 45 dd bd 43 6a a4 3d f1 00 da 3d fa b7 2c bb
       -0.10804273 0.0802808 0.10644711 -0.0026354776
000050 a5 db 0e bd 72 63 86 bd 19 6c 24 bc d7 07 2a be
       -0.034877438 -0.065619364 -0.010035538 -0.16604553
000060 bd 7f 35 3d 3f 74 37 bd a5 11 00 3e a0 32 00 3e
       0.044311274 -0.044788595 0.12506731 0.12519312
000070 9a 5d 32 be fe ad ea 3d 19 c4 ff be ab d0 bf be
       -0.17418519 0.114589676 -0.49954298 -0.3746389
000080 6d c8 3c 3f fd d7 15 3f a5 ed dc 3e b7 80 3f 3f
       0.73743325 0.58532697 0.43150058 0.7480578
000090 1d 95 cc 3e aa aa ea 3e 8d 7c 07 3f e3 d8 08 3f
       0.39957514 0.4583333 0.52924424 0.5345594
0000a0 92 ef 40 3f 5b 5b 64 3f 3f aa d5 3e 60 3f 28 3f
       0.75365555 0.892019 0.4173145 0.657217
0000b0 92 12 6b 3f 3d 52 56 19 0d 51 c7 a7 90 81 9b 96
       0.9182521 1.10801486e-23 -5.532147e-15 -2.5123366e-25
0000c0 b9 c3 fd 19 27 a7 35 8f 91 be 6f 13 8d 66 d5 0e
       2.6238639e-23 -8.956181e-30 3.0259998e-27 5.2607307e-30
0000d0 47 94 32 8f a1 4f 9a 8f f3 0c 1d 26 4b cd d2 18
       -8.804635e-30 -1.5216244e-29 5.4487867e-16 5.449102e-24
0000e0 f3 84 d1 28 39 69 be 27 a5 1c 13 9c 11 8b 2d 90
       2.3261319e-14 5.2849676e-15 -4.867524e-22 -3.4225367e-29
0000f0 d7 86 9c 3e 8c 2f a3 3e d2 02 a7 be 68 09 d2 be
       0.30571625 0.31872213 -0.3261934 -0.410228
000100 9a 05 dd be 27 84 09 3f df 35 61 3f 47 b2 30 3d
       -0.43168336 0.53717273 0.87972826 0.04313877
000110 bc 0f 09 bf ae 25 12 be 4b 2e d0 be 6f 5c b8 bd
       -0.53539634 -0.14272186 -0.4066032 -0.09002005
000120 c1 51 6b 3f a9 cc e9 3e c2 0a 84 3f f9 84 af 3e
       0.9192162 0.45663956 1.0315783 0.34281138
000130 e4 62 b2 3e ed f1 12 bf 4a 26 cd be eb ff c3 be
       0.34841073 -0.574004 -0.40068275 -0.38281187
000140 bc a6 57 3e c0 bb 53 3f 37 51 87 be 18 37 ba 3e
       0.21059698 0.8270836 -0.2642915 0.36370158
000150 e4 85 28 3e af 4a f6 3e b3 89 bc 3f a8 c9 58 bf
       0.16457325 0.48103854 1.4729522 -0.84682703
000160 da a1 68 3f b1 f9 ae be 0b 33 3f 3f 49 d2 16 3f
       0.90871966 -0.34174874 0.7468726 0.5891462
000170 0c e1 7e be fb 02 9f bd 7b 18 56 3c fc a0 86 3e
       -0.24890536 -0.0776424 0.01306736 0.26294696
000180 4b cf 01 be 21 8a fc 3e 25 d3 22 3e 7f 13 18 3e
       -0.12676732 0.49324134 0.15900858 0.14851187
000190 60 19 1f bf 88 be 04 3f 27 3b 0d 3f c9 d1 07 bf
       -0.62148094 0.5185323 0.55168384 -0.5305448
0001a0 56 dd 60 bf 1a 38 18 3d 72 b4 36 be 65 ba f3 3d
       -0.8783773 0.037162878 -0.17842272 0.11900786
0001b0 2b 25 01 3e e4 a4 09 3e ea 23 59 be 4d a7 28 3e
       0.12611835 0.13441807 -0.21205106 0.1647007
0001c0 b7 66 89 be 8c a4 ab 3d 32 6c 2f 3d a1 68 6c be
       -0.26836178 0.08380994 0.042827792 -0.23086788
0001d0 54 7d 86 bd c5 c5 2f be 22 38 47 be 3c 2a ea bd
       -0.06566873 -0.17165287 -0.19455007 -0.11433837
0001e0 47 4a 9c 3e 69 7e 0b 3f b5 57 ce be 99 0b 93 be
       0.3052542 0.5448976 -0.4030129 -0.28719786
0001f0 23 21 d5 be 33 f7 0a 3e cb 37 62 bd dd 59 d9 3e
       -0.41626844 0.13570862 -0.05522899 0.42451373
000200 68 19 ed 3e 6e 3e 75 3e df 9b 9a 3f 40 87 9d bc
       0.46308446 0.23949596 1.2078818 -0.019229531
000210 76 56 9b be 37 5c 6e bf 82 2d 79 3f 6b fc 17 3f
       -0.30339402 -0.9310946 0.97335064 0.59369534
000220 b5 2f 0a 3f c8 ac e2 bd cc 18 8e be a6 21 74 be
       0.53979045 -0.11068112 -0.27753294 -0.23840961
000230 19 05 23 bd 41 c1 5d bf 7b 30 cd 3e 23 10 95 3e
       -0.039799783 -0.8662301 0.4007605 0.29113874
000240 fb a3 1b 3e 78 3a 7b 3e 98 2a 1a bf 7f 3a 9b 3c
       0.15199272 0.24534023 -0.6022124 0.018948792
000250 fd cc ad 3f 10 b6 07 3e
       1.3578182 0.13253045

encoder_layer_list.0.bias f4 [10]
000000 d7 a3 f2 3d a6 36 73 be 1f 36 2d 3f 1e b7 7d a9
       0.11847656 -0.23751315 0.6766071 -5.6336114e-14
000010 b6 5a 9e 3c 58 45 94 3e 65 8b f5 3e f8 6d 32 3d
       0.019330364 0.28959155 0.47957912 0.043561906
000020 50 97 92 3e 5e 4b c1 3e
       0.28631067 0.37752813

decoder_layer_list.0.weight f4 [15, 10]
000000 4e af 99 bd 6c 5d 37 bd 7f a2 09 bf 82 a6 59 0a
       -0.0750414 -0.04476683 -0.53763574 1.04794866e-32
000010 0d 58 a8 3e 96 a4 45 3e 97 18 09 3f 2c 79 81 3e
       0.32879677 0.19301066 0.53553146 0.2528776
000020 e1 97 c6 3e 05 8e 05 3f ee 2e 20 3c ad 41 87 3d
       0.3878775 0.5216983 0.009776814 0.066043235
000030 6e dd 11 bf c6 27 9c 24 63 08 b1 3e ad e1 c7 3e
       -0.569785 6.7721594e-17 0.3457671 0.39039364
000040 6b ae 3c 3e bb b9 05 3e e6 02 b5 3e d5 8e dd 3e
       0.1842591 0.13059132 0.35353774 0.43273035
000050 72 b1 b8 3d 97 9d ef 3d ce 6d 0b 3f 59 04 1f 2b
       0.0901822 0.1169998 0.54464424 5.649418e-13
000060 28 1d 9e be 8e 02 13 bf e4 9d 6a be 79 8e 15 3d
       -0.3088162 -0.57425773 -0.22911793 0.036512826
000070 30 9b 18 bf 92 48 ef bd 93 b2 bf 3d 61 4e 47 3e
       -0.596118 -0.116837636 0.09360232 0.19463493
000080 c6 2f 01 3f d0 8e a7 99 63 2d 07 bf da dc 96 be
       0.5046352 -1.7325077e-23 -0.5280363 -0.2946537
000090 72 8d b8 be 2b 88 77 be cd 4a df be 7b 92 8e be
       -0.36045414 -0.24173038 -0.43611756 -0.2784613
0000a0 ee 3b 53 3e 02 e7 f9 bd 09 d6 ef 3e 2f 30 68 2a
       0.2062833 -0.12202264 0.46842983 2.0622456e-13
0000b0 2f 95 04 bf ab 27 71 be a8 49 db be e2 4b a0 3e
       -0.51790136 -0.23550288 -0.42829633 0.31307894
0000c0 a5 c8 f3 be 26 23 b9 be 3d a2 d7 3d 01 5a 14 be
       -0.47614017 -0.3615963 0.10528991 -0.14487459
0000d0 1e 86 8a 3d 0c a1 1a 91 87 40 ab 3e bc d7 50 3d
       0.06763862 -1.2198084e-28 0.33447668 0.05098699
0000e0 57 8b c3 bb dd 78 63 3e 7a 21 6c bd 35 e7 63 be
       -0.0059675383 0.22214074 -0.057649113 -0.22256167
0000f0 11 f1 a5 3e 39 38 50 3d 13 e7 47 bc fa 4a c5 1b
       0.32410482 0.050834868 -0.0122010885 3.2639369e-22
000100 0a d6 40 3f 06 fb f7 3e 28 97 ae be 12 f6 7d 3a
       0.753266 0.48433703 -0.34099698 0.00096878514
000110 c7 93 24 be e4 0f 5a bf 4c 4d ac 3d b9 7e fd 3d
       -0.16071998 -0.851805 0.08413181 0.12377686
000120 14 be e5 3d e7 80 59 0a 98 9f 8d bd 06 df 53 be
       0.11217895 1.0472414e-32 -0.06915206 -0.20690545
000130 bf 02 84 3e c3 6c b2 3d 72 c3 b4 3d d0 3d 28 3e
       0.25783345 0.08712151 0.08826341 0.1642983
000140 fc a4 f2 3d 19 e2 05 3c 88 86 69 3b 47 c4 51 09
       0.118478745 0.008171582 0.0035633165 2.5249749e-33
000150 da 11 d7 be c2 ee af 3d 8e 17 57 bd 59 3a da bd
       -0.42005807 0.08590461 -0.052512698 -0.1065566
000160 5d 07 4c 3e 75 50 11 3e 8f db 51 3d e9 82 58 3b
       0.19924684 0.14190848 0.051234778 0.0033037013
000170 bb f4 30 3d 02 e6 c0 89 c5 af e0 bd ec 0e a7 bb
       0.043202143 -4.6438617e-33 -0.109710254 -0.0050982144
000180 50 ac 45 3d 20 f0 2f 3b d3 65 85 3d 56 76 0c 3d
       0.048260033 0.0026846007 0.06513562 0.03429254
000190 37 17 bb be 44 f0 1e 3d 09 34 ad 3d 19 81 ea 87
       -0.3654115 0.038803354 0.084571905 -3.5284284e-34
0001a0 29 7d ff be 31 fb 94 3e 43 3b 49 bf 42 2b 8f bb
       -0.49900177 0.29097894 -0.7860605 -0.0043691704
0001b0 33 60 5e 3f 47 06 a1 3d 9e 81 be be 86 df 90 bd
       0.8686554 0.078625254 -0.37208265 -0.07073884
0001c0 ce 45 df 3d 95 4f 27 a8 a3 09 46 be 5f 1e 80 3f
       0.10901986 -9.287619e-15 -0.19339614 1.0009269
0001d0 df cd 5f 3e 0e 01 22 be 48 08 5f be 02 26 4c bf
       0.21855877 -0.15820715 -0.21780503 -0.79745495
0001e0 cf 1f c6 be 54 7e 1b 3e c6 d9 ac 3c b0 ee 8d 8b
       -0.38696143 0.15184909 0.021099936 -5.467036e-32
0001f0 3b 91 51 3f 63 d7 35 bf c3 13 ff 3e 2d 7a 6d bd
       0.8186223 -0.7103178 0.49819764 -0.057977844
000200 bf f7 b1 be 7e d3 9a bd 63 5a ab be 10 c5 b2 3c
       -0.34759328 -0.0755987 -0.33467397 0.021822482
000210 4e 17 8f 3d ff 88 e4 90 ae 6f 95 3e 6c 9f 29 3f
       0.06986867 -9.014122e-29 0.29186767 0.66258883
000220 74 7a 7d bf cb bd 66 bd 69 20 98 bf d4 e6 a3 3f
       -0.99014974 -0.056333344 -1.1884891 1.2804818
000230 5d 33 e1 3c 6c 94 7a bd 8e 51 cd 3d 58 22 93 8a
       0.027490312 -0.061176702 0.10025321 -1.4168504e-32
000240 9d df 66 3f c0 7c b8 be f4 e0 90 bf 90 9c 0c 3e
       0.90184957 -0.36032677 -1.131865 0.13731599
000250 cf e8 2c 3f 08 ae 83 bd
       0.6754274 -0.06429678

decoder_layer_list.0.bias f4 [15]
000000 44 eb f1 bd ec d7 e3 3d f6 8a 05 be c6 3c 23 3e
       -0.118124515 0.11125168 -0.1304129 0.15941152
000010 d4 7c bf 3e dc 89 c4 bd f7 00 6d 3d e7 fe 8b bd
       0.37399924 -0.09596607 0.05786225 -0.06835728
000020 59 36 1e be 90 7e 0d bd e5 ef 0d bf c6 1e 18 bf
       -0.1545042 -0.034544528 -0.55444175 -0.59421957
000030 43 83 e1 3c 0d 2c ed be 9a fa 0e bf
       0.02752841 -0.4632267 -0.5585114
