result/FairOD_weights/variance_shift/scatter/seed_125/biasRate_2.5.pt (torch, 3128 bytes, 4 tensors)

encoder_layer_list.0.weight f4 [7, 15]
00000000: 1de1 30bf 05ef a8be 62a6 503e 9b4c b23e
00000010: 0b04 243f c05c f0bd 7c0b 873e a979 5cbe
00000020: 5e3d d03c 9da1 623d 1e02 5b3f 1ff9 5a3f
00000030: 0353 96be a85c 293f 1add 9b3f 2f8c d4bd
00000040: cdd7 263e 58d4 ebbc 23ff e1bd 6be8 a13e
00000050: 2445 853d f72a 763e 5e5f 00bd 17bd 01bd
00000060: aa66 053e 299c 6dbf 9dc9 43be 68c5 14be
00000070: 1383 8bbe 7314 f83f 2627 db3e a6a2 f83e
00000080: a131 2fbf d97c 3abf f327 07bf 7b57 18bd
00000090: 8cd3 153f 0830 20be 12c5 ef3c 1682 323e
000000a0: cf30 8b3f 7dd5 3a3c 48f8 7a3f 8306 1e3f
000000b0: 0957 d53f 1378 bbbe 9626 05bf e6bd 143f
000000c0: 111d c73e 00b6 b23e de45 13bc 9ea1 be3e
000000d0: d1d1 14bd 6875 c5bd 9df6 8a3d 23fe 87be
000000e0: 314d 78bf c69a be3f 0109 5b3f 36ce 433f
000000f0: 97e2 023e 0cea 943c b58d abbd c8a8 ab3d
00000100: 1458 4e3e 328b 113e 821f e23e 1ed6 52bc
00000110: 68e3 26bd 23cc 123e 59a9 973e e727 95bf
00000120: 7366 67bf ace0 473f e5b7 283f d276 ecbd
00000130: 3906 afbe fe85 873e e47d 8ebc 5d46 a73e
00000140: 8028 9c3d 9fa2 d43e 4809 8a3d 44e9 633d
00000150: 212c 503e fc0b a23f df0c 46bf e7b1 9b3e
00000160: d23d 9fbf 06b7 6f3f e586 23bd 43b7 dabc
00000170: 7e74 80bd 0369 ef3d 9c1a b8bd 70fa 4d3c
00000180: 2090 09be 1c80 873b b4eb d73d 3ae8 dabd
00000190: aabc ffbd 5ace 8b3d 721c 9abd 4cd9 a7bd
000001a0: bd55 87bb
-0.69093496 -0.32994857 0.2037597 0.3482407 0.6406867 -0.11736441 0.2637595 -0.21530785
0.025419887 0.055329908 0.85550106 0.8553638 -0.29360208 0.6615701 1.217685 -0.103783004
0.16293259 -0.028787777 -0.110349916 0.31622633 0.06507328 0.24039827 -0.03134095 -0.03167447
0.13027444 -0.92816406 -0.19119878 -0.1452843 -0.2724844 1.9381241 0.42803305 0.4856159
-0.684351 -0.7284675 -0.5279533 -0.037192803 0.5852592 -0.15643322 0.029268775 0.17432436
1.087427 0.011403439 0.980351 0.61728686 1.6667186 -0.36615047 -0.52012 0.5810226
0.38889363 0.3490448 -0.008988826 0.3723268 -0.03633291 -0.09641534 0.06785319 -0.26561078
-0.96992785 1.4890983 0.85560614 0.7648653 0.1278175 0.018178008 -0.08376638 0.08381802
0.20150787 0.14213255 0.44164664 -0.012868432 -0.040744215 0.14335684 0.2962139 -1.1652802
-0.903907 0.780772 0.659056 -0.11546101 -0.34184435 0.26469415 -0.017394014 0.3267087
0.07624912 0.4153032 0.067400515 0.05564238 0.20329334 1.2659907 -0.7736339 0.30409166
-1.2440741 0.93638647 -0.039923567 -0.026698714 -0.06272219 0.11689951 -0.0898945 0.012571916
-0.13433886 0.004135145 0.10543004 -0.10688825 -0.12487157 0.06826468 -0.07524957 -0.08195743
-0.004130094

encoder_layer_list.0.bias f4 [7]
00000000: 8ccb 18bf 706e 873e ee7c 9ebe 1a78 18bc
00000010: bc9c 873e b957 8a3e 4514 bc3d
-0.5968559 0.26451445 -0.3095469 -0.009305978 0.26486766 0.27020052 0.091835536

decoder_layer_list.0.weight f4 [15, 7]
00000000: 2bd5 27bf 3e5d 08be 6a02 473f 1695 00bf
00000010: c3d0 6b3e 0428 22be 49b7 baba faf6 c5be
00000020: 9cde 6e3e 3588 453f 545f 19bf 59bf d9bd
00000030: 1477 febe deb1 d23d b990 043f 9a36 fbbd
00000040: 0926 24bf baf3 283f ef7c b3be 5d49 a93e
00000050: daf3 2c3d ffce 3a3f cf53 54be 8d50 3abf
00000060: cbbf 083f 97d3 603d 98a2 223d b102 ffbd
00000070: af8b 543f 4db6 2e3e fed3 30bf e003 b03e
00000080: 3abc aebc dc4f 8a3e 2255 8d3d f3ad ca3b
00000090: d345 1cbc 0662 243d 0955 f53c c0e2 813d
000000a0: 26b6 3a3d de8d b3bb 592e f83c e761 99bd
000000b0: 8c3c 073e abfc ae3d 5cf4 9c3e 6f13 ed3d
000000c0: 8d2f 47bb 3896 c2bd 3b22 1d3c 93b4 a1bc
000000d0: 2f66 d23c b67a a5bc 0b38 d13d 0c91 3bbb
000000e0: bbb6 923d f3ec c0bc dc60 353d e789 ddbc
000000f0: 80e9 81bd b125 093d a928 3e3b 7d16 713c
00000100: 1750 a83c 6388 493d 87ac eb3b a06c 3a3d
00000110: 273f b83d 4b52 58bb 361c 2a3f 34f6 b5bf
00000120: 49d0 f83e dce3 d4be a763 a93e bbdb 6f3f
00000130: c92e fb3a 7351 aa3f e9c0 ed3d c761 893e
00000140: 91a7 26bf 46fe c5bf 0106 28bf 6d47 b9ba
00000150: 0d20 f8be 70e7 95be ff05 183f 2d5b a23f
00000160: 8c7c bcbf 2909 a93d 19b4 dbb9 3437 1f3f
00000170: 7c87 39bf 703d dd3e bf2b 2a3f 040d 823f
00000180: c587 c4bf 7a59 a7bb 4f96 aa3e a994 a93f
00000190: 1542 6f3e cef4 18be 01c2 a3bb 6508 be3d
000001a0: 6a66 62bc
-0.65559644 -0.13316819 0.7773806 -0.5022749 0.23028855 -0.15835577 -0.0014245297 -0.3866499
0.23327106 0.7716096 -0.59911084 -0.106322 -0.49700224 0.10287832 0.5178333 -0.12266274
-0.6412054 0.659969 -0.35056254 0.33063784 0.042224742 0.729721 -0.20735095 -0.7277916
0.5341765 0.054889288 0.039705843 -0.12451685 0.8302564 0.1706173 -0.69073474 0.34377956
-0.021329988 0.27014053 0.069010034 0.006185287 -0.009538132 0.040132545 0.029947774 0.06342077
0.045583867 -0.0054795584 0.030295538 -0.074893765 0.1320669 0.08544286 0.3065518 0.11575972
-0.0030393333 -0.09501308 0.009590681 -0.019739425 0.02568349 -0.020200115 0.102157675 -0.002862039
0.07163759 -0.023550486 0.044281825 -0.027043296 -0.06343365 0.03348321 0.0029015935 0.014714834
0.020546002 0.049202334 0.0071921977 0.04551375 0.0899642 -0.0033008035 0.66449296 -1.421576
0.4859641 -0.41580093 0.3308384 0.9369466 0.0019163723 1.3306106 0.1160906 0.2683241
-0.65099436 -1.5468223 -0.6563416 -0.0014135666 -0.48461953 -0.29278135 0.5938415 1.2684075
-1.4725509 0.082537 -0.00041905118 0.6219361 -0.7247236 0.43210936 0.66473 1.0160222
-1.5353934 -0.005107102 0.333178 1.3248492 0.23365052 -0.14937136 -0.0049974923 0.09278945
-0.013818363

decoder_layer_list.0.bias f4 [15]
00000000: d8ec 043d b29e a83e b413 97be 52cb 55bd
00000010: fba2 0cbf 1442 153f b6b6 31bf 7ae0 a73d
00000020: 4a9a cebd ad0f 8abd 88f0 83bf 1dcc e03e
00000030: 75a2 7ebf c6db 4fbf ddd1 d8bf
0.032452434 0.32933575 -0.2950722 -0.052195854 -0.5493619 0.5830395 -0.6941942 0.081971124
-0.10088022 -0.06741271 -1.0307779 0.43905726 -0.9946664 -0.8119472 -1.6939045
