result/FairOD_weights/under_representation_bias/cluster/seed_124/biasRate_0.01.pt (torch, 5778 bytes, 11 tensors)

encoder_layer_list.0.weight f4 [7, 15]
000000 cc 72 bf 3d 9f c3 20 3e 18 79 0a 3d 28 45 0e be
       0.09348068 0.15699624 0.03380689 -0.13893569
000010 68 2d 15 3e 41 01 82 3e b1 aa b6 3d d7 56 58 3e
       0.14568102 0.25391582 0.089192756 0.21126877
000020 8e 49 81 3e a4 90 26 be 94 30 2e 3e 0b 09 8c 3c
       0.2525143 -0.16266114 0.17010719 0.017094156
000030 54 5f 36 3e 89 52 59 be d6 14 fb 3d f5 2a fe bc
       0.17809802 -0.21222891 0.122598335 -0.031026343
000040 bd 1a 12 3e 3c 47 83 be 88 e5 74 bd 11 c9 2f 3e
       0.14268012 -0.25640285 -0.05978921 0.17166544
000050 0d f7 69 3e 09 78 36 be 51 06 b6 3c c8 1d 3c be
       0.22848149 -0.17819227 0.022219809 -0.18370736
000060 eb 8c 49 3d 89 57 e0 3d f1 b2 8d 3c 8d 87 ee 3d
       0.049206655 0.10954196 0.01729724 0.11646948
000070 2c 20 81 bd 86 54 91 bd c7 86 80 3e c8 cc 7d be
       -0.063049644 -0.070962 0.25102827 -0.24785149
000080 81 c4 0c 3e ea 55 02 be 0f 19 3c bb 1b 42 9b 3c
       0.13746835 -0.12728086 -0.002870146 0.01895242
000090 4c de 2e 3d 59 b0 7d be c4 c0 a2 bd 52 90 e0 bd
       0.042692468 -0.24774303 -0.079469234 -0.10965027
0000a0 b9 0b 14 bc 36 26 19 be 33 38 d2 3c eb 5d e6 bd
       -0.009035998 -0.14955983 0.025661564 -0.11248382
0000b0 79 99 f0 3c d3 12 55 3e 5f 2f 85 3d ce 51 bd bd
       0.029370056 0.20807962 0.06503176 -0.09244119
0000c0 3c 32 48 be 71 d9 1b be d7 61 53 be 89 e5 06 be
       -0.19550413 -0.15219666 -0.20642792 -0.13173498
0000d0 92 5a 7a be 2e 60 12 3e e2 45 f0 3c 04 6e 74 be
       -0.24448612 0.14294502 0.029330198 -0.23870093
0000e0 be 74 7d 3e 55 61 51 3e f3 07 84 3e 27 7c e1 3d
       0.24751565 0.20447285 0.25787315 0.11010008
0000f0 05 5f 13 bd 9b 3e 46 3e 91 32 81 3c 0f 0f 39 3e
       -0.03597929 0.1935982 0.015771182 0.1807215
000100 e6 34 18 3e bc 57 82 bd 60 b6 4f 3e 35 b1 3d be
       0.14863929 -0.0636439 0.20284414 -0.1852463
000110 bf 55 23 be d8 09 5f bd 7e c0 06 3e 2b 91 89 bc
       -0.15950678 -0.054452747 0.13159367 -0.016792854
000120 7e 30 f6 bd 1c c7 2e be 12 6f 95 3c 86 da 10 3e
       -0.12020968 -0.17068142 0.018241439 0.1414586
000130 b2 0e a4 bd 88 74 fb bd 36 5f c8 3c 04 23 b0 bc
       -0.080106154 -0.12278086 0.024459463 -0.021501072
000140 d2 c3 3d be 1d 34 00 be 1e 28 ee 3d 25 18 a2 3d
       -0.18531731 -0.1251988 0.116287455 0.079147615
000150 de eb 0f 3e d0 02 ff 3c 29 2e 1a be 3d f1 2b 3e
       0.1405482 0.03112927 -0.15056671 0.16791244
000160 ce a1 03 3e 0e eb 23 be 83 ff 2d be 55 1e ed bd
       0.12854692 -0.16007635 -0.16992001 -0.11578051
000170 80 b4 17 bd a2 8e 4a 3e d9 b0 55 3e 44 91 91 3d
       -0.037037373 0.19780973 0.20868243 0.07107785
000180 17 e4 52 3e 1c 73 d4 3d 36 64 1b 3e 9f 0f 05 3e
       0.20594822 0.10373518 0.15174946 0.1299424
000190 4d 91 1a 3d f1 7e 21 3e 96 27 cc 39 db 54 ec 3d
       0.037736226 0.1577108 0.00038939406 0.115396224
0001a0 dd 06 06 be
       -0.13088556

encoder_layer_list.0.bias f4 [7]
000000 43 7a 6e be 17 86 26 bd 4b 3c dc 3d 74 b7 71 3e
       -0.23288827 -0.04065522 0.107536875 0.23605138
000010 d1 b8 2c bd 11 8e b7 bc ed 97 d2 bb
       -0.042168442 -0.02240661 -0.0064268024

encoder_layer_list.1.weight f4 [3, 7]
000000 af ad 21 3e 80 c6 a9 3e ac b1 9b be 66 92 ab 3c
       0.15788911 0.33159256 -0.3040899 0.020943832
000010 5f 60 7e be 83 33 7a be e3 d6 66 bd 3f 86 a0 be
       -0.2484145 -0.24433713 -0.056357276 -0.31352422
000020 f5 4e 20 3e 22 d9 f7 3d 3e 2e cd 3d e8 db 8d be
       0.1565512 0.12101962 0.100185856 -0.27706838
000030 bc 7d de 3d 3b 54 7c 3e 1d 4d 87 3d 8e 59 80 3e
       0.10863826 0.24641506 0.06606505 0.25068325
000040 3d 84 20 be 9a ae bf 3e 58 66 22 bd f6 a4 63 3e
       -0.15675445 0.37437898 -0.039648384 0.22230896
000050 d7 95 87 be
       -0.26481506

encoder_layer_list.1.bias f4 [3]
000000 a8 31 5f be 4d d7 5b 3e 46 e9 ac 3e
       -0.21796286 0.2146885 0.33771724

encoder_layer_list.2.weight f4 [1, 3]
000000 36 a6 6a be 9f f8 11 bf d3 6b 4e be
       -0.22914967 -0.5701999 -0.20158319

decoder_layer_list.0.weight f4 [3, 1]
000000 a0 e5 ad be 12 fd 0a bf 9c 1c 24 bf
       -0.33964252 -0.54292405 -0.64106154

decoder_layer_list.0.bias f4 [3]
000000 04 2f 77 bf 60 a9 8f bd ee cc 10 bf
       -0.96556115 -0.070147276 -0.565627

decoder_layer_list.1.weight f4 [7, 3]
000000 6e 67 2a 3d 3b 0e cf 3e 73 78 d4 3e aa b8 84 3e
       0.041602544 0.40440544 0.41498145 0.25922137
000010 83 56 cc be 67 50 b9 bd 8b 3d 4e be 55 a7 d8 bd
       -0.39909753 -0.09048539 -0.20140664 -0.10578791
000020 69 6f b0 3d d0 8e 8a 3d 6e 07 9d be 2d ea 38 bd
       0.08615 0.067655206 -0.3066973 -0.045145202
000030 38 32 e2 be d8 c4 38 3e 05 9e a2 3e ed 5a 27 be
       -0.4417894 0.1804384 0.31761184 -0.16343279
000040 6f 7f fd bd 85 d4 d6 be df 15 37 3c 4d 19 c8 3e
       -0.12377822 -0.41959015 0.011174648 0.39081803
000050 ce fc 60 3e
       0.21971437

decoder_layer_list.1.bias f4 [7]
000000 97 d8 ee 3e 55 ed c7 3e 8a d6 cc be 94 e6 30 be
       0.4664962 0.39048257 -0.4000743 -0.17275459
000010 72 7b 34 be a4 fb 53 be fc 4e 35 3f
       -0.17625216 -0.20701462 0.70823646

decoder_layer_list.2.weight f4 [15, 7]
000000 64 b9 3c 3e ee 1c c8 bd 97 ba a9 3e 20 43 7b 3d
       0.18430096 -0.09771143 0.3315017 0.061343312
000010 6b a2 c3 bd 37 65 a0 3e 1c 14 44 3e c2 b2 96 bc
       -0.09552463 0.3132722 0.19148296 -0.018395785
000020 2d 3a 4d bd 11 8f 95 3d 4a c1 22 3d 84 86 81 3d
       -0.05010431 0.073026784 0.039735116 0.06324485
000030 e4 aa 82 3e 10 2f 57 3e ba 85 ff bd 29 6c 09 3e
       0.25521004 0.21014047 -0.12476678 0.13420166
000040 cd 20 e7 bd 0b 54 ab be e6 49 8c 3d f8 b6 2b 3d
       -0.11285553 -0.33462557 0.068500325 0.04192254
000050 49 c0 29 be 01 43 0d 3e c0 63 07 bf 52 21 b5 be
       -0.16577257 0.13795091 -0.5288658 -0.35376984
000060 8f fd 81 3e 4f 70 b4 be 90 5f 80 be 60 13 91 3d
       0.25388762 -0.35241935 -0.25072908 0.070837736
000070 26 08 14 3d a2 eb 9a 3e 3b 50 9e be 42 a8 aa 3e
       0.036140583 0.302579 -0.30920586 0.33331496
000080 47 33 76 3d 70 a9 78 3d f6 db 40 3e 34 5a 56 be
       0.060107496 0.060708463 0.18833908 -0.20932847
000090 3a dd f0 bd 7d c4 bf 3e 98 fb b6 3c 04 24 f9 3d
       -0.117609456 0.37454596 0.022336766 0.121650726
0000a0 b2 92 2c be 60 5b 16 bf ce d5 06 bc 55 b9 d4 3d
       -0.16852835 -0.5873318 -0.008229686 0.10386912
0000b0 76 51 8c 3e 36 52 79 3e bf fe ab be 0c 91 73 be
       0.274059 0.24347767 -0.33592793 -0.237858
0000c0 25 b1 ac 3c c8 38 0c bf 32 83 e0 3d 8e cd d7 3d
       0.021080563 -0.5477414 0.109625235 0.10537253
0000d0 eb 08 f3 bd 7e 8d 9f 3e 71 de 98 3e b1 4f 7d be
       -0.11866935 0.31162637 0.2985721 -0.24737431
0000e0 a8 09 75 3c cc 26 99 bd ed 1f 5f be b8 ca a8 3d
       0.0149559155 -0.07478103 -0.21789522 0.082417905
0000f0 0a 6c b3 bc 0b 75 ee 3b aa 57 18 bd 5c 38 11 3e
       -0.021902103 0.007277136 -0.037192978 0.14181656
000100 d9 b0 1c bf bd e7 b7 be f2 d9 82 be 80 61 03 3d
       -0.6120735 -0.3591899 -0.25556904 0.032075405
000110 ce 92 5a bc 53 74 cf bd 48 c7 84 3e 20 b2 be 3e
       -0.013340665 -0.10129609 0.2593329 0.37245274
000120 07 18 ac be 3b 93 d8 3c e0 23 74 be ab cc 6a be
       -0.3361208 0.026437392 -0.2384181 -0.22929637
000130 37 e0 88 be 17 90 50 3e ab f6 0f 3e 52 84 99 3d
       -0.26733562 0.20367466 0.1405894 0.07495941
000140 90 65 96 3d 8d 9d ba bd 64 6b 85 be bc 63 b7 bd
       0.0734359 -0.09112082 -0.26058495 -0.0895457
000150 54 c7 60 be 39 f2 ce be 89 9b a1 be 63 cd 22 3b
       -0.21951038 -0.40419176 -0.31563976 0.0024841658
000160 c8 ba 96 3e ee 6b 37 3e bb 46 fd 3c 27 bc bf 3d
       0.29439378 0.17912266 0.030917516 0.09362059
000170 73 11 2b 3e 9c 64 69 be 86 a4 a4 3e c2 dc 7f be
       0.16705875 -0.22792286 0.3215677 -0.24986556
000180 83 72 8b 3e c5 ee 8e 3d 88 24 10 3e d0 45 65 be
       0.27235803 0.069791354 0.14076436 -0.22389913
000190 dd b7 92 3d e0 32 6c be e9 8e 95 3e d1 c6 88 3d
       0.071639754 -0.23066282 0.29210594 0.06678546
0001a0 69 85 8c be
       -0.27445534

decoder_layer_list.2.bias f4 [15]
000000 d2 75 5d be 7b 97 e5 bd f8 5b c8 3d b8 8c 96 3b
       -0.21626976 -0.11210533 0.09783167 0.0045944117
000010 d5 53 71 be b1 b8 98 3d 29 71 c4 be 1e 53 8b 3d
       -0.23567136 0.07457102 -0.38367584 0.06802963
000020 3a 60 91 be ee a0 53 be a8 0c 29 bd c8 6a 95 be
       -0.28393728 -0.20666859 -0.041271836 -0.2918303
000030 1a 66 8c 3e e6 e7 a6 bb 9a a6 20 be
       0.27421647 -0.0050935624 -0.15688553
