result/FairOD_weights/variance_shift/cluster/seed_123/biasRate_0.pt (torch, 5410 bytes, 11 tensors)

encoder_layer_list.0.weight f4 [6, 15]
0.19943637 -0.29092875 -0.2251429 0.16929474 -0.009658707 -0.25143546 0.020292256 0.078795284
-0.1930885 0.014700941 -0.060604777 -0.076344974 -0.025461873 -0.2434763 0.0016877955 -0.09519898
-0.13610989 0.16956343 -0.010384919 -0.22558047 0.0010613151 -0.040682584 -0.108312555 -0.064217485
0.037166156 -0.06312862 0.10591642 -0.088584915 -0.056549583 0.24466859 0.006650948 0.14040954
-0.110063955 -0.20077805 -0.24469782 -0.025865419 0.0110721085 -0.16298674 -0.2395626 0.048959415
0.20315768 -0.13372731 -0.0004867379 0.07619712 0.11122392 0.052734595 -0.13091987 0.25680462
-0.22751063 0.002552992 0.13557734 -0.078561015 -0.08903575 -0.23286036 0.07297071 -0.21288085
-0.0960204 -0.1882159 -0.07236567 -0.11764247 -0.5915629 -0.22695783 0.6936786 0.55270284
0.3888144 0.24670272 0.18325399 0.12629433 0.12424209 0.2347836 0.053201787 0.029456347
-0.0035425357 -0.01591489 0.012824066 -0.19952586 -0.08937317 -0.20227589 0.04222275 -0.053908248
-0.06958159 0.051222622 0.10703294 -0.03820619 0.019214433 0.13421147 0.1536161 -0.08910261
-0.003572415 0.1954912
00000000: 0c39 4c3e 9df4 94be dc8b 66be 9a5b 2d3e
00000010: 8e3f 1ebc 26bc 80be f23b a63c 6c5f a13d
00000020: feb8 45be 37dc 703c b73c 78bd c15a 9cbd
00000030: 6b95 d0bc da51 79be 0539 dd3a aff7 c2bd
00000040: 6460 0bbe 09a2 2d3e 8225 2abc 91fe 66be
00000050: d31b 8b3a c8a2 26bd f9d2 ddbd 7584 83bd
00000060: 8a3b 183d 9449 81bd b5ea d83d 026c b5bd
00000070: 89a0 67bd 678a 7a3e 32f0 d93b 85c7 0f3e
00000080: 3669 e1bd c398 4dbe 1192 7abe b7e3 d3bc
00000090: ca67 353c ffe5 26be e64f 75be ab89 483d
000000a0: 9108 503e d0ef 08be db30 ffb9 3c0d 9c3d
000000b0: 5ec9 e33d 3b00 583d dc0f 06be e57b 833e
000000c0: 8cf8 68be 1950 273b c9d4 0a3e 99e4 a0bd
000000d0: 6058 b6bd f272 6ebe ab71 953d 70fd 59be
000000e0: 58a6 c4bd abbb 40be 7434 94bd 89ee f0bd
000000f0: ab70 17bf a267 68be ec94 313f ef7d 0d3f
00000100: ae12 c73e a39f 7c3e efa6 3b3e 4d53 013e
00000110: a372 fe3d 1d6b 703e 1eea 593d 704e f13c
00000120: e329 68bb f25f 82bc 081c 523c 8250 4cbe
00000130: 4809 b7bd 6921 4fbe c3f1 2c3d e5ce 5cbd
00000140: cb80 8ebd d0ce 513d 1634 db3d 187e 1cbd
00000150: 9667 9d3c bb6e 093e 8a4d 1d3e 6e7b b6bd
00000160: 2e1f 6abb d82e 483e

encoder_layer_list.0.bias f4 [6]
0.20235108 -0.12620409 -0.22249116 -0.08511552 0.13165534 -0.19712178
00000000: 1f35 4f3e a53b 01be b9d4 63be 0c51 aebd
00000010: a8d0 063e 4bda 49be

encoder_layer_list.1.weight f4 [2, 6]
-0.15798216 0.24353035 -0.33565974 0.37258142 0.18741503 -0.2599905 0.038950346 0.12649155
-0.13399468 -0.36410272 -0.6311396 -0.07508318
00000000: 13c6 21be 0560 793e 98db abbe fec2 be3e
00000010: bae9 3f3e 7a1d 85be 668a 1f3d 0087 013e
00000020: e735 09be ac6b babe 5d92 21bf 36c5 99bd

encoder_layer_list.1.bias f4 [2]
-0.440891 0.9226686
00000000: 77bc e1be 0234 6c3f

encoder_layer_list.2.weight f4 [1, 2]
0.14477296 1.5342447
00000000: 5d3f 143e 2162 c43f

decoder_layer_list.0.weight f4 [2, 1]
-0.518455 1.3932315
00000000: 78b9 04bf 6955 b23f

decoder_layer_list.0.bias f4 [2]
-0.8558842 -0.05912385
00000000: 3a1b 5bbf da2b 72bd

decoder_layer_list.1.weight f4 [6, 2]
-0.67380416 -0.26014823 0.33092836 0.27288842 -0.1297414 -0.5282391 0.17993316 -0.89965516
-0.5903906 1.0495274 0.09332231 -0.582638
00000000: 6e7e 2cbf 2632 85be 716f a93e 08b8 8b3e
00000010: eeda 04be ad3a 07bf 6640 383e cd4f 66bf
00000020: d723 17bf ea56 863f c41f bf3d c427 15bf

decoder_layer_list.1.bias f4 [6]
-0.40498132 0.5128388 -0.120979406 1.0371765 -0.00011306251 -0.58177483
00000000: b659 cfbe 6749 033f 0dc4 f7bd 33c2 843f
00000010: f91b edb8 32ef 14bf

decoder_layer_list.2.weight f4 [15, 6]
0.10362419 -0.23437761 -0.18134937 -0.614192 1.0443765 -0.39790675 -0.03764343 -0.19700152
-0.33131328 -0.75711733 0.8275838 -0.23311684 -0.27941218 -0.22286974 0.35319027 1.2112073
-0.80909467 0.2774684 0.32953247 0.36401227 -0.078019515 0.7979592 -1.111444 -0.1605673
0.16097234 -0.066865034 -0.13045864 1.2592207 -0.8359576 0.3932644 -0.36421952 -0.9055334
0.28261042 -0.54113686 -0.00083483936 0.20360331 -0.02474843 -0.266196 0.0013693918 -0.26281193
-0.10029048 0.2748734 -0.20693117 -0.37663907 0.047569986 -0.40689763 -0.14553514 -0.035116933
0.013893501 -0.67252105 0.258131 -0.27161637 0.002455389 -0.29496226 -0.16779463 -0.9203858
0.22486535 -0.35908476 0.025596948 0.009764155 0.39024347 0.1955866 -0.36773634 -0.14703217
-0.1432613 0.24186078 -0.32629055 0.13801822 0.038292747 0.23036872 0.075273894 -0.3150662
-0.32650736 -0.25806585 -0.102699615 0.17195526 0.14857036 0.0837061 -0.39229968 -0.17179255
-0.31622642 0.38088146 0.22839414 0.069435045 0.24364555 0.023790335 0.3067674 -0.07364668
-0.03477918 -0.16859438
00000000: eb38 d43d af00 70be a6b3 39be b03b 1dbf
00000010: 21ae 853f 6fba cbbe ff2f 1abd c4ba 49be
00000020: e5a1 a9be 71d2 41bf 88dc 533f 2eb6 6ebe
00000030: 1d0f 8fbe f737 64be 5bd5 b43e d708 9b3f
00000040: d420 4fbf 5710 8e3e 7bb8 a83e d15f ba3e
00000050: b2c8 9fbd 0e47 4c3f cc43 8ebf c16b 24be
00000060: efd5 243e 89f0 88bd f396 05be 252e a13f
00000070: 5101 56bf f459 c93e fb7a babe 09d1 67bf
00000080: 50b2 903e f287 0abf 1fd9 5aba 637d 503e
00000090: 38bd cabc d84a 88be 2a7d b33a 498f 86be
000000a0: 1865 cdbd 35bc 8c3e c4e5 53be d6d6 c0be
000000b0: bfd8 423d e354 d0be 2a07 15be c6d6 0fbd
000000c0: 91a1 633c 572a 2cbf bf29 843e 4d11 8bbe
000000d0: 97ea 203b 4b05 97be 5bd2 2bbe 679e 6bbf
000000e0: 1a43 663e f5d9 b7be b1b0 d13c d6f9 1f3c
000000f0: fecd c73e db47 483e f047 bcbe 9a8f 16be
00000100: 17b3 12be 5aaa 773e 8e0f a7be a654 0d3e
00000110: dbd8 1c3d c7e5 6b3e 3329 9a3d 5b50 a1be
00000120: f92b a7be 3521 84be 2d54 d2bd 0a15 303e
00000130: d422 183e 1b6e ab3d 81db c8be 63ea 2fbe
00000140: 6ee8 a1be e502 c33e 27e0 693e f633 8e3d
00000150: 387e 793e f3e3 c23c 9e10 9d3e 12d4 96bd
00000160: 9d74 0ebd 01a4 2cbe

decoder_layer_list.2.bias f4 [15]
-0.3686177 -0.13400267 0.19269736 0.21129893 0.009508632 0.050775174 -0.4918779 -0.3684393
-0.27667937 -0.12620577 -0.02030494 -0.2502195 -0.2544189 -0.1481611 0.06517952
00000000: 76bb bcbe ff37 09be 7552 453e bf5e 583e
00000010: 18ca 1b3c a1f9 4f3d 6cd7 fbbe 13a4 bcbe
00000020: eba8 8dbe 163c 01be 8c56 a6bc c51c 80be
00000030: 3243 82be 8bb7 17be d77c 853d
