result/FairOD_weights/variance_shift/cluster/seed_123/biasRate_2.pt (torch, 5666 bytes, 11 tensors)

encoder_layer_list.0.weight f4 [7, 15]
000000 83 3d 15 be 0e 8b 06 3e 5a fa 56 3e 3d 08 c2 bd
       -0.14574246 0.13138983 0.20993939 -0.094742276
000010 a8 fa 14 bd 7a fa ca bd 31 42 6b be f0 3f 78 be
       -0.036371857 -0.09911056 -0.22974469 -0.2424314
000020 11 80 50 bd 35 87 42 bc 7a b6 5a be 18 9d 06 bd
       -0.050903384 -0.011873056 -0.21358672 -0.03286466
000030 f0 34 68 3d b3 21 1b bd 6d a0 7b 3d b8 14 08 be
       0.05669111 -0.037873935 0.06143229 -0.13289154
000040 3f be 7e be 7b 16 63 3e 21 ce 13 3e d6 74 6d be
       -0.2487726 0.22176544 0.144341 -0.231891
000050 03 46 21 3e de f1 78 3e 57 0f 5a 3d 0e 29 22 3e
       0.15749364 0.24311015 0.053237285 0.15835974
000060 68 88 cb 3d 56 3c 74 be 89 0c 8a bd b3 34 6d 3d
       0.09938127 -0.23851141 -0.06740672 0.057911586
000070 6c f4 ef bc a1 3a 6d 3e dc c8 a1 bd 3d 89 80 3e
       -0.029291354 0.23166896 -0.07899639 0.25104704
000080 a1 8a 05 bd 67 26 17 be 33 0d 63 be 21 99 65 be
       -0.03260291 -0.14760743 -0.22173004 -0.22421695
000090 05 f8 7d be b5 e6 e8 3c 92 6f 21 be ad a9 57 be
       -0.24801643 0.028430322 -0.15765217 -0.2106082
0000a0 66 53 e7 bd 89 10 85 bd 61 a9 4c 3e e8 ff a9 3d
       -0.11295204 -0.064972945 0.19986488 0.08300763
0000b0 7c bc 01 3e 7a 2b 39 be ee 32 31 be e2 5c 7f be
       0.12669557 -0.18082991 -0.17304584 -0.24937776
0000c0 d2 7d 79 3d ab 89 c4 bc 48 07 75 3e ab c1 17 bd
       0.060911007 -0.023991426 0.23928559 -0.03704993
0000d0 1d 23 46 3e 41 26 e5 bd 20 2a 46 3e 15 d7 a2 bd
       0.19349332 -0.11188937 0.19352007 -0.0795118
0000e0 be 4a 5a 3e b4 45 17 3c 74 fa 9a bc 42 64 9d 3c
       0.21317574 0.009232927 -0.018918253 0.019212846
0000f0 8d 46 8a bb bd f5 4b be ae 28 75 3e bb 6d 91 3d
       -0.004219836 -0.1991796 0.239413 0.071010076
000100 11 15 80 3e d4 36 5d 3e ac d8 0f be e9 1c 0e 3e
       0.25016072 0.21602947 -0.14047498 0.13878216
000110 81 0e 80 be cc c3 5a be db 0a 62 3d a7 f0 da bc
       -0.25011066 -0.21363753 0.055186134 -0.02672608
000120 d9 4e ee bd 55 42 b3 bd a9 ad 80 3c 6a 16 db 3d
       -0.11636133 -0.08752886 0.015707808 0.106976345
000130 b8 e7 a6 bd ec a1 df bd 6a f4 80 be c2 a2 ed 3d
       -0.081496656 -0.10919556 -0.25186473 0.11603309
000140 3f 17 14 3e 9f 4e 57 3c 21 9e 38 3e 25 74 00 3e
       0.14461993 0.013141303 0.18029071 0.12544306
000150 30 1e 3d 3e e7 11 36 3e b8 dc d9 3d 9e ab da bd
       0.18468547 0.17780267 0.10637802 -0.10677265
000160 51 f5 e2 3d 7c d2 26 3d 2d 9b 7d 3e c3 26 81 be
       0.11081947 0.040728077 0.24766226 -0.25224885
000170 0e 46 ef bd 90 5e 3a be bf 5b 6c 3e ad 9d 40 3e
       -0.11683284 -0.18200135 0.23081873 0.18810149
000180 0a 8f b4 3d ef ec 13 bd 97 b1 66 be 69 da ba bd
       0.08816345 -0.03611463 -0.22528683 -0.0912369
000190 8f 6c 56 be cb c8 05 3e df a7 e1 bc 66 ee 01 be
       -0.2093985 0.13064878 -0.027545867 -0.12688598
0001a0 c6 5c db 3d
       0.107110545

encoder_layer_list.0.bias f4 [7]
000000 d4 6c 08 3e 53 fd 31 3e ac 9f 25 be 70 c3 34 bc
       0.13322765 0.17381792 -0.16174191 -0.011032924
000010 35 e7 72 3e 78 b5 41 3e bb 1f b2 bd
       0.23721011 0.18916881 -0.08697458

encoder_layer_list.1.weight f4 [3, 7]
000000 a9 16 85 3c f5 f8 14 be 1d 86 82 bd 2b 2d 95 3e
       0.016246157 -0.14548095 -0.06373236 0.29136023
000010 a6 6a 94 be 7a 78 4a 3e 5a 68 2d 3d b0 58 9a 3e
       -0.28987616 0.1977252 0.042335846 0.30145788
000020 48 09 31 be f9 21 7c be b0 fb 36 be 31 55 8d bd
       -0.17288697 -0.24622335 -0.17869449 -0.069010146
000030 08 f4 9e bb 41 6e 87 3d 9e 95 eb bd aa 07 b8 be
       -0.004850868 0.06612826 -0.115031466 -0.35943347
000040 e7 5a 83 3e c8 27 ba 3e 79 8f 3a 3e 9b 3f 9a 3e
       0.2565529 0.36358476 0.18218793 0.30126652
000050 b1 bb 03 3d
       0.03216142

encoder_layer_list.1.bias f4 [3]
000000 7e 9a 3d be 3e ee 0d be e8 67 70 be
       -0.18515965 -0.13860413 -0.23477137

encoder_layer_list.2.weight f4 [1, 3]
000000 41 50 33 be cb 25 5a 3d 6f 75 fa be
       -0.17511083 0.0532587 -0.4891772

decoder_layer_list.0.weight f4 [3, 1]
000000 00 b2 85 3c 10 80 d4 3d ae a4 44 3f
       0.016320229 0.103759885 0.7681378

decoder_layer_list.0.bias f4 [3]
000000 47 b9 b8 3f 90 52 2c bf 2b 67 7a 3f
       1.4431542 -0.6731348 0.9781367

decoder_layer_list.1.weight f4 [7, 3]
000000 df fe f9 3e 79 ca cd 3e c8 d6 70 be 90 85 94 bd
       0.48827264 0.40193537 -0.23519433 -0.072520375
000010 57 d5 58 3e a5 ad cb 3d ed c2 c9 be 15 85 ce bd
       0.21175133 0.099452294 -0.3940653 -0.10083977
000020 c9 d3 ac 3e bf 75 c0 be 78 39 de 3e c0 9f cf 3e
       0.3375533 -0.37589833 0.4340322 0.40551567
000030 0a d5 d9 3e 8a 1e aa bc 53 b2 87 3f e8 8e 95 bd
       0.42545348 -0.020766515 1.0601295 -0.07302648
000040 28 ce 02 3f 5e 21 34 be d0 cc df be c2 ec 0b be
       0.5109582 -0.17590854 -0.43710947 -0.13664535
000050 02 91 b4 be
       -0.35266882

decoder_layer_list.1.bias f4 [7]
000000 12 93 13 bf ff d7 40 ba 8d 8c c0 be 55 61 c3 bd
       -0.57646286 -0.00073564047 -0.37607232 -0.09540049
000010 23 7e 1d 3f bf 02 08 3e 09 53 93 3e
       0.61520594 0.13282298 0.28774288

decoder_layer_list.2.weight f4 [15, 7]
000000 9b 4b 5e bd 30 aa ae 3e 62 fb 74 3e e8 d1 c0 be
       -0.05427132 0.34114218 0.2392402 -0.37660146
000010 0f 9d 98 3d 62 eb 90 3d b7 11 b7 be 97 09 a5 3e
       0.074518315 0.07076146 -0.35755703 0.3223388
000020 5e 43 49 3e 59 87 67 be df 11 66 be 4f 45 e7 bd
       0.19654605 -0.22610225 -0.22467755 -0.112925164
000030 2b d6 ad 3e 98 88 90 3d fa df b3 3c 02 11 b4 3e
       0.3395246 0.07057303 0.021957386 0.35169226
000040 25 0a 26 be 60 39 c1 be b0 78 56 3e b4 1e a0 be
       -0.16214807 -0.37739086 0.20944476 -0.31273425
000050 24 7a b5 3e ba 63 69 bd 73 46 c2 3e 5f 56 c0 3e
       0.35444748 -0.056979872 0.37944373 0.37565896
000060 21 4c be be 27 22 38 3d db cd 16 3c 5d be 9c be
       -0.37167457 0.044954445 0.009204353 -0.30613986
000070 e7 2b ae 3d 33 6b 90 3d 8d 0f 99 be e0 3f 34 be
       0.085044675 0.07051697 -0.29894677 -0.17602491
000080 85 92 6e 3d 2a e3 7b be ce e5 89 3e 44 a8 be 3e
       0.0582452 -0.24598375 0.2693314 0.3723775
000090 d8 37 47 be 0d 6d 85 be f1 f6 4c 3e 3a 83 06 be
       -0.19454896 -0.26059762 0.20016076 -0.13135996
0000a0 a4 3f 9b bd 98 07 21 3d e6 e8 50 be 3d e5 c8 bd
       -0.07580498 0.039313883 -0.20401344 -0.09809349
0000b0 13 0e 91 be 69 ac ce bc 08 e4 d1 be d1 c9 4a 3e
       -0.2833105 -0.025228696 -0.40994287 0.1980355
0000c0 18 df 84 be 64 95 bc 3e b9 57 52 3e b1 3a b7 3d
       -0.25951457 0.36832726 0.20541276 0.08946741
0000d0 f9 e5 bb 3e 59 c2 32 be b0 03 00 be 4e c1 3a be
       0.36698893 -0.1745695 -0.12501407 -0.18237802
0000e0 11 4f 4e be 38 82 e3 be 3a 12 75 3e 48 11 61 be
       -0.20147349 -0.44435287 0.23932734 -0.21979249
0000f0 d8 f2 31 be 19 1e af 3e ac 39 13 be 0b cf e6 3d
       -0.17377794 0.3420265 -0.14377469 0.11269959
000100 56 f7 81 3e e8 8b 40 3e 40 87 9f bd c6 23 a7 be
       0.25384015 0.1880337 -0.07789469 -0.3264448
000110 5a e3 ca be 54 dc 11 3e 79 bc a7 3e 3b e2 b3 be
       -0.3962658 0.14244205 0.3276098 -0.35133538
000120 b5 f4 a5 be 5f 9c 47 3d 5e d2 bb bd 26 34 b4 be
       -0.3241326 0.04873311 -0.09170984 -0.35196036
000130 f3 5b a4 3d f4 05 bf be 3b c8 99 3e 43 a4 e9 bd
       0.080253504 -0.3730923 0.30035576 -0.114082836
000140 48 67 8f be 8f 7b 28 3d 90 a5 88 be 6a 5c 6c be
       -0.28008485 0.04113346 -0.26688814 -0.23082128
000150 a7 3f 48 bd 55 1d 3f 3e 78 80 98 3e c2 c2 c7 3d
       -0.04888883 0.18663533 0.29785514 0.09753944
000160 b2 79 5e be 10 d3 9a 3d 94 ec 15 3e ce 90 a2 3e
       -0.2172611 0.07559788 0.14641029 0.31751102
000170 fd ef 4e bd ec 7a 3d be 51 19 b3 be cc e9 6d bd
       -0.05052184 -0.18503922 -0.34980252 -0.058084294
000180 18 36 97 be 9f f7 9b bd 53 40 3a 3e 2e 19 38 3e
       -0.29533458 -0.07615589 0.181886 0.17978355
000190 80 b6 54 3e 1f 33 8a 3e 53 41 45 bd 23 d8 0b be
       0.20772743 0.26992127 -0.048158 -0.13656668
0001a0 92 04 26 3e
       0.16212681

decoder_layer_list.2.bias f4 [15]
000000 49 6a ae be ec 5d 61 bd c9 2a af be 7f 28 ce 3d
       -0.34065464 -0.05502121 -0.3421233 0.10066318
000010 80 5e 1c bd cb 1d 41 be 26 cc f4 3c f5 ec 61 be
       -0.03817606 -0.18859021 0.029882502 -0.22063048
000020 f1 a0 aa be b0 a5 a4 3c 56 f5 f7 3d 5a 1f 33 bd
       -0.33325914 0.020098537 0.12107341 -0.04373107
000030 dd ee 8d 3e 46 b4 8c 3e 02 e1 f5 3d
       0.277213 0.27481288 0.120058075
