result/FairOD_weights/variance_shift/scatter/seed_126/biasRate_6.pt (torch, 3432 bytes, 4 tensors)

encoder_layer_list.0.weight f4 [10, 15]
0	0x3ee52e44	0.4476186
1	0x3ed5e203	0.41773996
2	0xbd69a3f1	-0.057041112
3	0xbeaa3669	-0.33244637
4	0xbea40038	-0.32031417
5	0xbf3535d9	-0.7078529
6	0x3f77b059	0.9675346
7	0x3e249904	0.16073996
8	0xbe3f4aae	-0.18680832
9	0x3e3e3f3f	0.18578814
10	0x3f2fd5b8	0.68685484
11	0xbe918bc8	-0.28426957
12	0x3f88abdb	1.0677446
13	0xbe4391d4	-0.19098598
14	0xbf77f5d9	-0.9685951
15	0xbf1e13c8	-0.61748934
16	0xbe68872b	-0.22707812
17	0x3e507a6f	0.20359205
18	0x3eb60cd9	0.35556677
19	0x3e7c3f62	0.24633554
20	0x3fb18bba	1.3870766
21	0x3efdda1d	0.4958047
22	0x3f5bcb23	0.8585684
23	0x3ee90549	0.45511845
24	0xbed7b565	-0.4213058
25	0xbdda9a49	-0.10673959
26	0xbf3c7a5a	-0.73624194
27	0x3d6b96f0	0.057516992
28	0x3f22595b	0.63417596
29	0xbef57b4b	-0.47945628
30	0x3df53732	0.11973418
31	0x3f054084	0.5205157
32	0xbedec669	-0.4351075
33	0xbf03976d	-0.5140293
34	0xbeeef50f	-0.4667134
35	0x3f2e15c9	0.6800199
36	0x3eae8b04	0.34090436
37	0x3ef80420	0.48440647
38	0xbdf27cf3	-0.118402384
39	0x3e34d60d	0.17659779
40	0x3eafe878	0.34357047
41	0x3f9d5057	1.2290143
42	0xbf07109f	-0.52759737
43	0xbe1eac0e	-0.15495321
44	0x3ef1ad04	0.47202313
45	0x3ec14756	0.37749738
46	0x3ea8e8a1	0.32989982
47	0xbece6ba0	-0.40316486
48	0xbeb6c879	-0.35699823
49	0xbe8ebd27	-0.27878687
50	0xbe57f428	-0.21089232
51	0xbe81fb3f	-0.25386998
52	0x3f895cf7	1.0731496
53	0xbdb8281e	-0.08992027
54	0x3e501172	0.20319155
55	0xbe9b4c4e	-0.30331653
56	0xbf324dfa	-0.6965023
57	0x3f1b2024	0.6059592
58	0x3f819b5a	1.0125535
59	0x3fa734c5	1.3062979
60	0x3ddc3704	0.10752681
61	0x3e4d3867	0.20041047
62	0xbdda20c7	-0.10650783
63	0x3d377156	0.04478582
64	0x3e985ec3	0.29759797
65	0xbf1b0894	-0.60559964
66	0xbebd7ec0	-0.37010765
67	0x3f660e02	0.89865124
68	0x3f64beca	0.8935362
69	0xbf8269c8	-1.0188532
70	0x3f4b8a05	0.79507476
71	0x3e8a83ec	0.27053773
72	0xbd914b34	-0.07094422
73	0x3e839052	0.25696045
74	0xbdde5358	-0.1085574
75	0xbe76eb96	-0.24113306
76	0xbeaace2b	-0.3336042
77	0x3eeab11a	0.45838243
78	0x3ec475b2	0.38371044
79	0x3edbd9bd	0.4293956
80	0xbf82da02	-1.0222781
81	0x3f3ae767	0.7300934
82	0xbd0e308c	-0.034714267
83	0xbf04a09d	-0.51807576
84	0x3ef57311	0.4793935
85	0x3f008820	0.5020771
86	0x3f0f313b	0.55934495
87	0xbea637f7	-0.32464573
88	0x3f969613	1.1764549
89	0x3f191e04	0.59811425
90	0x3e0d7b03	0.13816456
91	0xbd3e29f9	-0.046426747
92	0xbddff8be	-0.10936116
93	0xbd6202c4	-0.05517842
94	0x3e58c5e9	0.21169247
95	0xbe1a0bdc	-0.15043586
96	0x3f005b6e	0.5013951
97	0x3daf788d	0.08567915
98	0x3da321bd	0.079654194
99	0xbda8e4f3	-0.082467936
100	0x3f656e7f	0.8962173
101	0xbf898fd4	-1.0747018
102	0xbf750823	-0.9571554
103	0xbf090a56	-0.53531396
104	0x3f390012	0.7226573
105	0xbdf41ade	-0.11919187
106	0x3eb21db1	0.34788278
107	0x3c32c665	0.010911559
108	0xbe0fdca8	-0.14049017
109	0x3ec93935	0.39301458
110	0xbe977d6d	-0.2958788
111	0x3f42bb1c	0.76066756
112	0xbeb0e3f1	-0.34548905
113	0x3f13169f	0.5745639
114	0xbf64e45f	-0.89410967
115	0xbf628442	-0.8848306
116	0x3dc5391d	0.09630034
117	0x3eb60743	0.35552415
118	0xbe5eb0b5	-0.21747096
119	0x3f20b825	0.6278098
120	0xbf067166	-0.5251678
121	0xbef2cf11	-0.47423604
122	0x3f1b075b	0.605581
123	0x3e5c2ac8	0.21500695
124	0x3f0a741e	0.5408343
125	0xbd8f6c04	-0.07003024
126	0xbe68cefd	-0.2273521
127	0x3f91451b	1.1349214
128	0xbe0751e6	-0.13214836
129	0x3ec11397	0.37710258
130	0x3d7ac394	0.061221674
131	0x3d998362	0.074957624
132	0x3f6abacc	0.9169128
133	0xbf9ae004	-1.2099614
134	0x3f49ca83	0.78824633
135	0x3d28d6f1	0.04122061
136	0xbdac8d71	-0.08425415
137	0x3dce8962	0.100847974
138	0xbe42b853	-0.19015627
139	0x3dc714ae	0.09720741
140	0x3f0377d2	0.51354706
141	0x3e59f6f3	0.2128561
142	0xbf13dcf4	-0.5775902
143	0x3d9e365e	0.077252135
144	0xbe9efe83	-0.31053552
145	0x3f9a19ed	1.2039162
146	0xbcf00d34	-0.02930317
147	0x3f5e31e1	0.8679486
148	0x3e448278	0.19190395
149	0x3f41e803	0.75744647

encoder_layer_list.0.bias f4 [10]
0	0x3f196308	0.59916735
1	0x3eac42af	0.33644626
2	0x3e27d9b6	0.16391644
3	0x3e0445c6	0.12917241
4	0xbe662698	-0.2247566
5	0x3e2f20d0	0.1710236
6	0x3f66534f	0.8997087
7	0x3ec21b60	0.3791151
8	0xbb7b523d	-0.0038348578
9	0xbf3fa773	-0.7486488

decoder_layer_list.0.weight f4 [15, 10]
0	0x3ed0e432	0.407991
1	0xbef90337	-0.48635265
2	0x3e9277e0	0.28607082
3	0x3efb5d8c	0.49094808
4	0x3e413cc5	0.18870838
5	0xbed229f2	-0.41047627
6	0x3e019a8b	0.1265661
7	0xbe3fafb5	-0.1871937
8	0xbed7a24d	-0.42116013
9	0x3dc48512	0.09595694
10	0x3ea6d3c8	0.3258345
11	0xbea61cdd	-0.32443896
12	0x3f1180fe	0.5683745
13	0x3eaa4e1f	0.33262727
14	0x3e3b204e	0.18274042
15	0xbee4bce0	-0.4467535
16	0xbda32c78	-0.07967466
17	0x3eb0a842	0.3450337
18	0xbee5018c	-0.44727743
19	0xbde100e6	-0.109864995
20	0xbe6cb64f	-0.2311642
21	0x3e726985	0.23673065
22	0xbf0ea0ba	-0.55714
23	0xbef34b25	-0.47518268
24	0xbd8ee7f3	-0.069778346
25	0x3ef70f0a	0.4825366
26	0xbe97c489	-0.29642132
27	0xbce3323c	-0.027733915
28	0x3f0dfbf6	0.55462587
29	0x3e7a8b5a	0.24467221
30	0xbed3c508	-0.4136126
31	0x3ed45482	0.41470724
32	0xbf04ec9e	-0.5192355
33	0xbea3eb11	-0.3201528
34	0x3e0b8e78	0.13628566
35	0x3f0d5e51	0.5522204
36	0xbe3df81a	-0.18551674
37	0xbe59967e	-0.21248814
38	0x3e9620c2	0.29321867
39	0xbd911fb0	-0.07086122
40	0xbef3c2df	-0.47609612
41	0x3e373c00	0.17893982
42	0xbf1105ea	-0.5664965
43	0xbef00b43	-0.46883592
44	0x3eacaf62	0.33727556
45	0x3f045f93	0.51708335
46	0x3d4189b8	0.04725048
47	0x3ed7872e	0.4209532
48	0x3ee32dd7	0.4437091
49	0x3e2da8b2	0.16958883
50	0xbf1300d0	-0.57423115
51	0x3f7e61f1	0.99368197
52	0x3f2c9415	0.67413455
53	0xbe1e029f	-0.15430687
54	0xbf28d2fd	-0.6594694
55	0xbf2cb958	-0.6747031
56	0xbe733153	-0.23749284
57	0xbeb6dde9	-0.3571618
58	0xbdd992b2	-0.10623683
59	0x3f60fabb	0.87882584
60	0x3ee31321	0.44350532
61	0x3e353f20	0.17699862
62	0x3db06ad6	0.08614127
63	0xbeb57338	-0.35439467
64	0xbf0c4017	-0.54785293
65	0x3ea0b380	0.31386948
66	0x3ea000a6	0.31250495
67	0x3f3b7cba	0.7323719
68	0xbe988412	-0.29788262
69	0x3ddab2f0	0.10678661
70	0xbdc612ca	-0.096715525
71	0x3e446569	0.1917931
72	0x3e1802e9	0.1484486
73	0x3f1d2b0e	0.6139382
74	0x3f6614c1	0.8987542
75	0xbe93da0b	-0.2887729
76	0xbe1fcf73	-0.1560648
77	0xbf3c082c	-0.7344997
78	0x3f26d9c9	0.65176064
79	0xbf53d0da	-0.8274056
80	0xbe419c3f	-0.1890726
81	0x3e429120	0.19000673
82	0xbda89056	-0.08230655
83	0xbdfcf686	-0.12351708
84	0x3f5011a3	0.8127691
85	0xbea93cf2	-0.3305431
86	0xbcef7af0	-0.029233426
87	0x3ef60741	0.4805241
88	0xbe086d57	-0.1332296
89	0x3e0ed61b	0.13948862
90	0x3e405a49	0.18784441
91	0xbe5b6890	-0.21426606
92	0x3e3ad21c	0.18244213
93	0x3e77214b	0.24133794
94	0xbf7db7a3	-0.9910833
95	0x3eb1e43c	0.34744442
96	0xbd5cf72e	-0.053946666
97	0xbf78eda5	-0.97237617
98	0x3eb95c49	0.3620322
99	0xbe9cca18	-0.30622935
100	0x3e30c992	0.17264393
101	0xbe835043	-0.25647172
102	0x3d06c052	0.032898255
103	0xbed7d72f	-0.4215636
104	0x3f4a90b2	0.7912704
105	0x3dcac62c	0.099010795
106	0x3f06f3b8	0.52715635
107	0xbf9ad84f	-1.2097262
108	0xbd349c84	-0.044094577
109	0x3fa5b5d4	1.2946115
110	0xbeb83de1	-0.3598471
111	0xbef55cbe	-0.4792232
112	0x3f966748	1.1750269
113	0xbf2c4ccd	-0.6730469
114	0x3efa3fb2	0.4887672
115	0x3ef8c041	0.48584178
116	0xbf9fbc94	-1.2479424
117	0x3e0a4506	0.13502893
118	0x3e647c3a	0.22313014
119	0x3e292ada	0.16520253
120	0x3f2b0d7f	0.6681747
121	0xbdfb39e4	-0.12266901
122	0xbf1b3ab7	-0.60636467
123	0x3ed9efff	0.42565915
124	0xbe1273d0	-0.14301991
125	0xbebd38f4	-0.36957514
126	0xbf9e7301	-1.2378846
127	0x3e3b8b8a	0.18314949
128	0x3f0c6c91	0.5485316
129	0x3f8f80f8	1.1211233
130	0xbeb7e6cc	-0.35918272
131	0x3efb20dd	0.4904851
132	0xbed46c3b	-0.41488823
133	0x3f44a088	0.7680745
134	0x3e7d9290	0.2476294
135	0x3f5f2101	0.87159735
136	0xbf525a39	-0.8216892
137	0xbeca8a13	-0.39558467
138	0xbf87e5a8	-1.061696
139	0x3ebde1a5	0.37086216
140	0xbf85fd88	-1.0467997
141	0xbf223683	-0.6336443
142	0x3e344631	0.17604901
143	0x3f4d4286	0.8017963
144	0xbe908a50	-0.28230524
145	0x3e0c5dbb	0.1370763
146	0x3eeea862	0.4661284
147	0x3f0cb31c	0.549608
148	0x3eb2f6f7	0.34954044
149	0x3f4fcbe3	0.8117048

decoder_layer_list.0.bias f4 [15]
0	0x3e2ca95f	0.16861485
1	0xbe2502ae	-0.16114303
2	0x3e105262	0.14093927
3	0x3dc7a06d	0.09747396
4	0xbe55cef5	-0.20879729
5	0xbdb03af6	-0.08604996
6	0xbedbfa78	-0.4296453
7	0xbead528e	-0.33852047
8	0xbdf8b80b	-0.121444784
9	0xbe9e1dc0	-0.30882072
10	0xbec6caf3	-0.38826713
11	0xbca19019	-0.019722031
12	0xbe18acac	-0.14909619
13	0xbf2018e6	-0.6253799
14	0xbf449085	-0.7678302
