result/FairOD_weights/base_rate/cluster/seed_125/biasRate_2.pt (torch, 10146 bytes, 12 tensors)

encoder_layer_list.0.weight f4 [15, 15]
0	0xbcc03494	-0.023462571
1	0xbea909a1	-0.3301516
2	0x3d6e5653	0.058187794
3	0x3ec8a90d	0.39191476
4	0xbcdcb24e	-0.026940491
5	0x3e275e1a	0.1634449
6	0x3dcf31be	0.101169094
7	0x3ebf2c7e	0.37338632
8	0x3e18ed64	0.14934307
9	0x3e8b635f	0.27224252
10	0x3d59a8b7	0.053139415
11	0x3e0a644a	0.1351482
12	0x3e21ea62	0.15812066
13	0x3deb57c2	0.11491348
14	0x3c6ff52b	0.014645855
15	0xbe420655	-0.18947728
16	0x3b69b02a	0.003565798
17	0xbd8fe6ac	-0.07026419
18	0xbd258efe	-0.04041957
19	0xbd98909a	-0.074494556
20	0xbe4584d9	-0.19288959
21	0xbe11a0af	-0.14221452
22	0x3e60e9b7	0.21964155
23	0x3d539a84	0.05166103
24	0xba1a18a9	-0.00058783084
25	0x3d638cd5	0.05555423
26	0xbe4a29d2	-0.19742516
27	0xbe718c53	-0.23588686
28	0xbdc83349	-0.09775407
29	0xbe71d74b	-0.23617284
30	0x3a4c4481	0.00077921903
31	0xbd34493f	-0.044015165
32	0xbcb2a949	-0.021809237
33	0xbe224bb8	-0.15849197
34	0x3d19ba94	0.03753145
35	0x3da70ce2	0.08156754
36	0x3e805bef	0.2507014
37	0xbe203f11	-0.15649058
38	0xbdde39ac	-0.10850844
39	0x3dfe62cf	0.1242119
40	0xbe80b8b5	-0.2514092
41	0xbe56671f	-0.20937775
42	0xbe7f55f6	-0.24935135
43	0xbe2c2a7e	-0.16813084
44	0xbc1f125b	-0.009708966
45	0x3ec69b4e	0.38790363
46	0x3b52f100	0.0032187104
47	0xbe79f49a	-0.24409714
48	0xbe770c85	-0.2412587
49	0xbea45885	-0.32098785
50	0x3ea9feed	0.33202305
51	0xbdb57db1	-0.08861864
52	0x3e5df2f3	0.21674709
53	0x3daddd2c	0.08489451
54	0x3e79850e	0.24367163
55	0x3e1a6d33	0.15080719
56	0x3dacd17a	0.08438392
57	0xbcb2ebeb	-0.02184101
58	0xbb52ce77	-0.003216652
59	0x3ed3a298	0.41334987
60	0xbe51e5a0	-0.20497751
61	0xbdd5513a	-0.10415883
62	0xbe56936f	-0.20954679
63	0x3e008f80	0.12554741
64	0x3e43c129	0.19116654
65	0xbe547469	-0.20747532
66	0xbe78bb44	-0.24290186
67	0x3e65cc26	0.22441158
68	0x3e0c35de	0.13692424
69	0xbda80921	-0.08204866
70	0xbd96ad17	-0.07357233
71	0xbe54df5e	-0.20788333
72	0xbdcbd79c	-0.099532336
73	0xbd0626a6	-0.0327517
74	0xbe7df14f	-0.24799083
75	0x3c35483b	0.011064584
76	0xbe3fcd5c	-0.18730682
77	0x3e77ff9a	0.24218598
78	0x3e3daba0	0.18522501
79	0x3e3994d3	0.18123178
80	0x3eadb903	0.33930215
81	0x3e852b34	0.26009524
82	0x3d13fa3d	0.036127318
83	0xbdca9e22	-0.09893443
84	0x3e5fae03	0.21843724
85	0x3e1bd5e4	0.15218312
86	0x3d47d797	0.048789587
87	0xbd9b19aa	-0.075732544
88	0x3d8ae2a4	0.067815095
89	0x3e66800e	0.22509786
90	0xbe560cd9	-0.20903338
91	0x3e44b33d	0.19208999
92	0xbda665c4	-0.08124879
93	0x3da6c1e9	0.08142454
94	0xbda4138e	-0.08011542
95	0xbe0f1d45	-0.13976009
96	0xbdab292d	-0.08357463
97	0x3def9146	0.116976306
98	0xbe18001b	-0.1484379
99	0x3d2682bb	0.040652018
100	0x3dcac329	0.09900505
101	0xbe3cc7a7	-0.18435536
102	0x3e18fe92	0.14940861
103	0xbe069ec8	-0.13146508
104	0x3e403099	0.18768539
105	0x3e27b7e0	0.16378736
106	0x3dbec878	0.0931558
107	0xbd92a91c	-0.07161161
108	0xbbdb35c9	-0.0066897613
109	0x3ddacc60	0.10683513
110	0x3eb7549d	0.35806742
111	0x3ce38b49	0.027776377
112	0x3e990eaf	0.29894015
113	0xbc6212ba	-0.01379841
114	0x3eb20148	0.34766603
115	0x3e8b3784	0.27190793
116	0x3db38018	0.08764666
117	0x3e9da9ca	0.307936
118	0x3e50500a	0.20343032
119	0x3ec2459e	0.3794374
120	0x3d873e2c	0.06603655
121	0x3e9f2eb1	0.3109031
122	0xbec0e26e	-0.37672752
123	0xbe986b1d	-0.2976922
124	0xbdb865d8	-0.090038
125	0x3b87b523	0.004141466
126	0x3e648b5c	0.22318786
127	0x3d55d334	0.052203372
128	0x3d7e3f2b	0.06207196
129	0xbd83b0d8	-0.06430215
130	0x3d85f60e	0.06541072
131	0x3e3c65ad	0.18398161
132	0xbc706ad8	-0.014673911
133	0x3e0862b2	0.133189
134	0x3e7cea61	0.24698783
135	0x3e7da6c7	0.24770652
136	0x3e019932	0.12656096
137	0xbe5505a5	-0.20802934
138	0xbd6f21b1	-0.05838174
139	0xbe83e0d8	-0.2575748
140	0x3d5099e4	0.05092801
141	0x3e0a1bca	0.13487163
142	0x3d006f71	0.03135628
143	0x3e7b89ac	0.24564236
144	0xbd7941b7	-0.060853686
145	0x3eab4dcd	0.33457795
146	0x3e5164fc	0.20448679
147	0x3e439e13	0.1910327
148	0x3e735753	0.2376378
149	0x3d15c5bf	0.03656554
150	0x3cd36e83	0.025809532
151	0xbe56e2bb	-0.20984928
152	0x3ebda590	0.37040377
153	0x3ecc2a13	0.3987585
154	0xbd8eefa7	-0.06979304
155	0x3ecdb414	0.4017645
156	0x3eb7a157	0.3586528
157	0x3de2ca23	0.11073711
158	0x3e87e7f7	0.26544163
159	0xbe0c5767	-0.13705216
160	0xbc13a08a	-0.009010443
161	0xbd9fc5ea	-0.07801421
162	0x3c1d765c	0.009610739
163	0x3eab114e	0.3341164
164	0x3e55fe2a	0.20897737
165	0x3eabb320	0.335351
166	0x3e486ead	0.1957347
167	0xbcf9d9c0	-0.03049934
168	0xbea2c9d9	-0.31794623
169	0xbeb3a6f1	-0.35088304
170	0x3eaac2ec	0.3335184
171	0x3ead02de	0.3379125
172	0x3e3e3386	0.18574342
173	0x3d9b0eb4	0.07571164
174	0x3e6ef9a5	0.2333742
175	0x3d3cb790	0.046073496
176	0x3da9c170	0.082888484
177	0x3e4766c0	0.1947279
178	0x3c9d66c1	0.019214036
179	0x3d228718	0.039679617
180	0xbea0862c	-0.31352365
181	0xbebeaecc	-0.37242734
182	0x3db7c96b	0.08973964
183	0xbdbdec72	-0.09273614
184	0x3e8cd3c9	0.2750533
185	0x3e934850	0.28766108
186	0x3ebb5a11	0.36592153
187	0x3e9a688d	0.3015789
188	0x3db4fdf2	0.08837499
189	0x3e6189d1	0.22025229
190	0xbcc07496	-0.023493093
191	0x3d79de90	0.061003268
192	0x3e890701	0.26763156
193	0x3e80d7c6	0.25164622
194	0x3e924537	0.28568432
195	0xbe0163c8	-0.1263572
196	0x3da0ec0f	0.078575246
197	0xbd847d78	-0.06469244
198	0xbd98741b	-0.0744402
199	0xbe5753a5	-0.21028002
200	0xbc9243ef	-0.017854659
201	0xbd67dee3	-0.056609046
202	0x3e6959f6	0.22788224
203	0xbe4a4f55	-0.19756825
204	0xbe2a4f1f	-0.16631745
205	0xbe4c0a22	-0.1992574
206	0x3e33d33b	0.17561047
207	0x3da1996b	0.0789059
208	0x3dc6aa0c	0.097004026
209	0xbe4d6c03	-0.20060734
210	0x3e6c888a	0.2309896
211	0x3ea78493	0.32718334
212	0x3eb01b4e	0.34395832
213	0xbcfeba80	-0.03109479
214	0x3e4b5795	0.19857629
215	0x3ebb664e	0.3660149
216	0x3e8c2c0c	0.27377355
217	0x3ea7bb14	0.32759917
218	0x3db74744	0.0894914
219	0x3dad6ee9	0.0846842
220	0x3e52ecb2	0.20598105
221	0x3e58d46f	0.21174787
222	0x3ec296ed	0.38005772
223	0x3b66ca88	0.0035215933
224	0x3e82eb97	0.25570366

encoder_layer_list.0.bias f4 [15]
0	0x3dcfb5b5	0.1014208
1	0xbe1c7437	-0.15278707
2	0xbe7de677	-0.24794947
3	0x3e85dc77	0.26144764
4	0xbd1202c6	-0.035647176
5	0x3e719f50	0.23595929
6	0xbe65a212	-0.22425106
7	0x3e15380f	0.14572166
8	0x3ead6232	0.3386398
9	0x3e737ae7	0.23777352
10	0xbd95139f	-0.07279133
11	0x3da7b690	0.08189118
12	0x3e11e46d	0.14247294
13	0xbd8334b8	-0.0640654
14	0x3e3ab766	0.18234023

encoder_layer_list.1.weight f4 [15, 15]
0	0x3dd62846	0.104569
1	0xbe7149c6	-0.23563299
2	0xbe1983e3	-0.14991717
3	0xbe11973e	-0.1421785
4	0xbe059dd1	-0.13048483
5	0x3d2eca34	0.042673305
6	0x3e6dbc18	0.23216283
7	0xbdd49661	-0.10380245
8	0xbd80c94c	-0.06288394
9	0x3e3d92e5	0.18513067
10	0x3e4f8b3e	0.2026796
11	0xbe1ec5d9	-0.1550516
12	0x3ec2020a	0.3789218
13	0x3dd4e50f	0.10395252
14	0x3e7d6215	0.24744447
15	0x3cc8890a	0.024479408
16	0x3d395688	0.04524854
17	0xbe73de2b	-0.23815219
18	0x3d78b812	0.060722418
19	0xbe237fc4	-0.15966707
20	0x3abf1a7e	0.0014580039
21	0xbdf15740	-0.1178422
22	0xbe2594de	-0.1617007
23	0x3e30fc5f	0.17283772
24	0xbdb9375a	-0.090437606
25	0xbca53f80	-0.02017188
26	0xbe6407ec	-0.22268647
27	0xbe391a90	-0.18076539
28	0xbe5014d6	-0.20320448
29	0xbde9d61b	-0.114177905
30	0xbe581af9	-0.21104039
31	0xbc0ae706	-0.008477932
32	0x3e64c180	0.2233944
33	0x3e32a253	0.17444734
34	0xbddc99f4	-0.10771552
35	0xbd329f34	-0.04360886
36	0x3e59e5f1	0.21279122
37	0x3d527f4b	0.051390927
38	0xbdc8d39a	-0.09805985
39	0x3d06016b	0.032716196
40	0x3e596396	0.21229395
41	0xba2ac289	-0.00065139733
42	0xbe63d582	-0.22249416
43	0x3db63c64	0.08898237
44	0xbe1883ee	-0.14894077
45	0x3ed31c32	0.4123245
46	0x3e6838b4	0.2267788
47	0xbcd65343	-0.02616275
48	0xbe403f88	-0.18774235
49	0x3e560b46	0.20902738
50	0x3e8a4eb8	0.27013183
51	0xbe0f2a89	-0.1398107
52	0x3e6d1fcc	0.23156661
53	0xbe9f0845	-0.31060997
54	0xbecb91b3	-0.39759597
55	0x3ed72e66	0.42027587
56	0xbe9b76d7	-0.30364105
57	0x3eb3a0b5	0.35083547
58	0x3de18a42	0.11012699
59	0x3e3d06e6	0.18459663
60	0x3cf06ccc	0.029348753
61	0xbe0ec2b9	-0.13941468
62	0xbe087faf	-0.13329957
63	0xbbd499ea	-0.0064880745
64	0xbe79f361	-0.24409248
65	0x3e03886d	0.12845011
66	0x3e3eed17	0.1864513
67	0x3e589c86	0.21153459
68	0xbe7ec915	-0.24881394
69	0x3c14c3c9	0.009079882
70	0x3e32bdeb	0.1745526
71	0xbe17da59	-0.14829387
72	0xbe7cb8aa	-0.24679819
73	0x3e594e02	0.21221164
74	0xbde7c4e6	-0.11316852
75	0xbdaf1e1e	-0.08550666
76	0xbce1f63c	-0.027583234
77	0x3e828e47	0.25499174
78	0x3ebc8cb5	0.368261
79	0xbe796721	-0.24355747
80	0xbe32adac	-0.17449063
81	0xbc463bf5	-0.012099256
82	0x3e4181ec	0.18897218
83	0x3eebcd81	0.46055225
84	0x3e7a22eb	0.24427383
85	0x3ca389cb	0.019963166
86	0x3e00b0a6	0.12567386
87	0xbe6eae63	-0.23308711
88	0xbe49b1fd	-0.19696803
89	0xbd5e7168	-0.05430737
90	0x3e2f44b2	0.17116049
91	0xbe82440d	-0.25442544
92	0x3d31df37	0.043425765
93	0xbd553ced	-0.052060056
94	0x3d9f10eb	0.07766899
95	0xbe64c4e0	-0.22340727
96	0xbe401436	-0.1875771
97	0xbe83c804	-0.25738537
98	0x3dacf1c8	0.084445536
99	0xbceac291	-0.02865723
100	0x3e1b5b71	0.15171601
101	0xbe7a31a2	-0.24432996
102	0xbd99e34b	-0.07514056
103	0x3e345042	0.17608741
104	0x3da96605	0.08271412
105	0x3e70c405	0.23512276
106	0xbd9f8a31	-0.0779003
107	0xbbc961cc	-0.0061456915
108	0x3e007169	0.12543263
109	0xbcd20124	-0.02563531
110	0x3ecd2d2f	0.40073535
111	0xbe50d1bd	-0.20392509
112	0x3e811bc1	0.25216487
113	0xbd7bcdf5	-0.061475713
114	0x3e48287d	0.19546695
115	0x3e9442e1	0.28957275
116	0x3d94c0c7	0.07263332
117	0x3dc3958a	0.09550007
118	0x3e391318	0.1807369
119	0x3ed9610d	0.42456856
120	0x3d0b357c	0.033986554
121	0xbe13e9e8	-0.14444697
122	0xbe7caf1e	-0.24676177
123	0xbe6f44dc	-0.23366112
124	0x3d52b8c9	0.051445756
125	0x3c1f6a67	0.009729958
126	0xbe10c1bf	-0.14136408
127	0x3e9931f0	0.29920912
128	0xbeb9eac8	-0.36311936
129	0xbb1feef6	-0.0024403906
130	0x3e291542	0.16512015
131	0xbeae8121	-0.34082893
132	0x3e71efbc	0.23626608
133	0x3e5b6377	0.21424662
134	0x3de6d53d	0.11271141
135	0xbe800d18	-0.2500999
136	0x3d9b001a	0.07568379
137	0x3e3aec84	0.18254286
138	0xbd0ff23e	-0.03514313
139	0x3e776962	0.24161294
140	0x3ddb9b5b	0.10722991
141	0xbc9450db	-0.018104961
142	0x3e808ef2	0.2510906
143	0x3e4dc9bb	0.20096485
144	0xbd247db9	-0.04015896
145	0xbe000cc5	-0.12504871
146	0xbe10bb4e	-0.14133951
147	0xbe43f7c9	-0.19137491
148	0x3e5cb2df	0.21552609
149	0xbe2f0dc6	-0.17095098
150	0x3d2da226	0.042390965
151	0xbdddd7fa	-0.1083221
152	0xbe1c4d6e	-0.15263912
153	0xbe2dadf7	-0.16960894
154	0x3e593b39	0.21213998
155	0x3d1a7e01	0.037717823
156	0x3e5a6284	0.21326643
157	0xbe31b61a	-0.17354622
158	0xbe4c803b	-0.19970791
159	0xbe59967a	-0.21248809
160	0xbe414932	-0.18875578
161	0xbd2d3194	-0.04228361
162	0xbdd3e9c4	-0.10347322
163	0x3e7679fd	0.24069972
164	0x3dbba339	0.091619916
165	0xbd28eaa8	-0.04123941
166	0x3e318c65	0.17338713
167	0x3bef0585	0.007294359
168	0x3e5c7068	0.21527255
169	0x3e39022a	0.18067232
170	0x3cd16905	0.025562773
171	0xbdefa6b4	-0.11701718
172	0x3ed7c57a	0.4214285
173	0x3ed49cd7	0.4152591
174	0x3ebf0cef	0.37314555
175	0xbdf4dd9a	-0.1195633
176	0x3edcf7f6	0.4315793
177	0xbd4241bb	-0.047425967
178	0xbd8ac6f0	-0.067762256
179	0x3e8186ce	0.2529816
180	0x3eae8aef	0.34090373
181	0x3e54b212	0.20771053
182	0x3e54c691	0.20778872
183	0xbe7dbdd7	-0.2477945
184	0x3e0a45f2	0.13503245
185	0x3ebde386	0.3708765
186	0x3e18f44a	0.14936939
187	0xbd9d816c	-0.07690701
188	0xbed0f965	-0.40815273
189	0xbdb10b1e	-0.086446986
190	0x3e821259	0.25404623
191	0xbe4dcb58	-0.200971
192	0x3edaedc6	0.42759532
193	0xbe42d32a	-0.19025865
194	0x3e7e6429	0.24842896
195	0xbe60a61b	-0.21938364
196	0x3d4c7f78	0.04992625
197	0xbe0a3568	-0.13496935
198	0xbe2be29e	-0.16785666
199	0xbe769b50	-0.24082685
200	0xbdf1aed4	-0.11800924
201	0x3e26fff7	0.1630858
202	0x3e2455db	0.16048376
203	0xbdb9f9f0	-0.09080875
204	0xbdadd83e	-0.084885105
205	0x3e63c089	0.22241415
206	0xbe59f6ca	-0.21285549
207	0xbe05e748	-0.13076508
208	0x3e0a41dd	0.13501687
209	0x3e1a9718	0.150967
210	0xbde6ff19	-0.11279125
211	0xbc3f70fd	-0.011684653
212	0x3c42d089	0.011890539
213	0x3dab135b	0.08353301
214	0x3e1ee5a3	0.15517287
215	0x3e1f87bb	0.15579121
216	0x3e7a0061	0.24414207
217	0xbe2d7dcd	-0.1694252
218	0xbe331683	-0.17489056
219	0xbe6274ec	-0.22114915
220	0x3e2a7ade	0.16648433
221	0x3de3b3f7	0.1111831
222	0xbda3f6af	-0.080060355
223	0xbe5a874b	-0.21340673
224	0xbe056c40	-0.13029575

encoder_layer_list.1.bias f4 [15]
0	0x3eb7c8e4	0.35895455
1	0xbe254b54	-0.16142017
2	0xbb9035bc	-0.004400937
3	0x3e830fa6	0.25597876
4	0xbd06fc3c	-0.032955393
5	0x3e983ede	0.29735464
6	0xbe73e9de	-0.23819682
7	0x3dcb389d	0.099229075
8	0x3e9c7b0a	0.3056262
9	0xbd9014f4	-0.070352465
10	0x3e19580d	0.14974995
11	0x3e30d3a0	0.17268229
12	0x3dde0f58	0.1084277
13	0xbe3a2c8c	-0.18181056
14	0xbe1dc5b7	-0.15407453

encoder_layer_list.2.weight f4 [15, 15]
0	0x3cef8896	0.029239934
1	0x3d45b4f4	0.048268273
2	0xbd8fb00f	-0.070160024
3	0xbe2b1df2	-0.16710642
4	0xbe0012a8	-0.12507117
5	0x3e64c977	0.22342478
6	0x3ddaed1e	0.10689758
7	0x3c963306	0.018334877
8	0xbe41f426	-0.18940791
9	0xbe835327	-0.25649378
10	0xbe5d8487	-0.21632586
11	0x3ee6070b	0.44927248
12	0xbd5b47dc	-0.053535327
13	0xbe2891da	-0.16461888
14	0x3ddec046	0.10876517
15	0x3dbab0d5	0.09115759
16	0xbd39bae8	-0.045344263
17	0x3d86440b	0.06555947
18	0x3eba55ae	0.36393493
19	0xbddeae6e	-0.108731136
20	0xbd21f3d5	-0.039539177
21	0x3e0d3205	0.13788612
22	0x3dce1e3f	0.10064363
23	0x3eb093e3	0.3448783
24	0x3db23e54	0.087032944
25	0x3eab9b1b	0.33516774
26	0xbc3dc771	-0.011583195
27	0x3e4f2c54	0.20231754
28	0x3cff71e7	0.031182243
29	0x3d7ac160	0.061219573
30	0x3e7e3457	0.24824654
31	0xbd4c8d93	-0.049939703
32	0xbcf12678	-0.029437289
33	0x3ed8706a	0.42273265
34	0xbd12d835	-0.035850722
35	0xbeb1d49b	-0.34732518
36	0x3df6c5d4	0.120494515
37	0x3e9cbc8d	0.30612603
38	0x3e0dc518	0.13844717
39	0x3e47a683	0.19497113
40	0x3e3af5a8	0.18257773
41	0xbe53f990	-0.2070067
42	0x3e55e26c	0.20887154
43	0x3e62ca6d	0.22147532
44	0x3db3db2c	0.08782038
45	0xbd44cfc7	-0.048049714
46	0x3d0165c1	0.03159118
47	0xbe6ecba9	-0.23319878
48	0x3e28e272	0.16492632
49	0xbdee0cbc	-0.11623523
50	0x3d1f0fbd	0.03883337
51	0xbe800960	-0.25007153
52	0x3e9af441	0.30264476
53	0x3d85183c	0.06498763
54	0x3deabba1	0.114615686
55	0xbe7137cb	-0.2355644
56	0x3e385f7c	0.18005174
57	0xbe81d689	-0.2535899
58	0x3e48fb1b	0.19627039
59	0x3dc39f08	0.09551817
60	0x3d04970c	0.032370612
61	0x3d9403c9	0.072272845
62	0xbe4c2009	-0.19934095
63	0x3e19302d	0.14959784
64	0x3e92ec2f	0.2869582
65	0xbd4898b9	-0.048973773
66	0x3d4bcd27	0.049756195
67	0x3ea20407	0.31643698
68	0xbdd1a7dd	-0.102370955
69	0x3e2c7455	0.16841252
70	0xbd83ac02	-0.06429292
71	0xbe49a693	-0.1969245
72	0x3e11de62	0.14244989
73	0x3e3c3b10	0.18381906
74	0xbdbf553c	-0.09342429
75	0xbd798510	-0.060917914
76	0x3db4fcbe	0.08837269
77	0x3c403383	0.011731031
78	0xbd8485de	-0.06470846
79	0x3d1eb4e6	0.038746737
80	0x3e952654	0.29130805
81	0x3e817484	0.25284207
82	0x3e327330	0.17426753
83	0x3e8c9370	0.27456236
84	0xbdaaf0fc	-0.08346745
85	0xbdd0792a	-0.1017936
86	0x3eb62a42	0.35579115
87	0xbd3d9568	-0.046285063
88	0xbd174459	-0.036930416
89	0x3d70454d	0.05865984
90	0xbe76f03d	-0.24115081
91	0x3e0023d0	0.12513661
92	0xbd961f95	-0.073302425
93	0xbe74411b	-0.23852961
94	0xbd815ce9	-0.06316549
95	0xbd211e98	-0.039335817
96	0xbdf7c3bc	-0.1209788
97	0xbdbb7759	-0.09153623
98	0x3e746908	0.23868191
99	0xbe6d1c93	-0.23155431
100	0xbe766d1b	-0.24065058
101	0xbe6df56e	-0.23238155
102	0x3cc3ca05	0.023900041
103	0x3e78101d	0.24224897
104	0x3e82beac	0.25536096
105	0x3c4ff511	0.012692706
106	0xbcb1bd19	-0.021696614
107	0x3e5c124f	0.21491359
108	0xbcaf4b84	-0.021398313
109	0xbe510473	-0.20411853
110	0x3e45f609	0.19332136
111	0xbe54983c	-0.20761198
112	0xbce75acc	-0.028241538
113	0x3e3232d7	0.17402206
114	0x3d09b337	0.03361818
115	0xbe781f9d	-0.2423081
116	0x3e7c01c5	0.2461005
117	0xbeb271a4	-0.34852326
118	0x3ddafb45	0.10692457
119	0x3e3a9a12	0.18222836
120	0x3e21d0d9	0.15802325
121	0x3e7533da	0.23945561
122	0x3e7799a0	0.24179697
123	0xbe3cb121	-0.18426944
124	0x3c720d06	0.014773613
125	0xbe2aa3a5	-0.16663988
126	0xbe26cd94	-0.1628936
127	0xbde3adb8	-0.111171186
128	0x3da093fd	0.078407265
129	0xbe251065	-0.16119535
130	0x3cf8d04f	0.030372767
131	0x3e19a44b	0.15004079
132	0x3dfcf544	0.12351468
133	0x3e08ed84	0.13371855
134	0x3d3b3e66	0.045713805
135	0x3ebefd49	0.37302616
136	0x3e14035f	0.14454411
137	0xbcf82e01	-0.030295374
138	0x3eb7e65c	0.35917938
139	0x3be51186	0.0069906143
140	0xbe4676c1	-0.19381239
141	0x3c199d3d	0.009375867
142	0x3e73c5c0	0.23805904
143	0xbd240696	-0.040045343
144	0x3dbf08be	0.09327839
145	0xbe1439c2	-0.14475158
146	0xbcd29da3	-0.025709933
147	0x3eb406bc	0.35161388
148	0x3e67ccb2	0.22636679
149	0x3e259d4c	0.16173285
150	0x3cde5475	0.027139882
151	0xbe6fb337	-0.23408209
152	0x3be19126	0.006883758
153	0xbe6e3566	-0.23262557
154	0x3e707bd0	0.2348473
155	0x3deec975	0.11659519
156	0xbd64db7d	-0.055873383
157	0xbde6c805	-0.112686194
158	0xbd6ac205	-0.057313938
159	0x3caf2cc2	0.021383647
160	0x3e78ea51	0.24308135
161	0xbb1e4a40	-0.0024153143
162	0xbe44df41	-0.1922579
163	0xbe66bcab	-0.22532909
164	0xbe06d349	-0.13166536
165	0x3eaa3e75	0.33250776
166	0x3d9fb170	0.077975154
167	0xbd87446d	-0.06604848
168	0xbe013d8f	-0.12621139
169	0xbe0b5f89	-0.13610663
170	0x3e2277d5	0.15866025
171	0xbc9ad2c1	-0.018899323
172	0x3eb6bf6b	0.35692915
173	0xbdf33277	-0.1187486
174	0x3e626be2	0.22111467
175	0xbdc536f8	-0.09629625
176	0xbd2de6ee	-0.04245656
177	0xbd4c0aa2	-0.049814828
178	0xbe50dfad	-0.20397826
179	0x3b8db997	0.0043251025
180	0x3edbff13	0.42968044
181	0xbe2fed60	-0.17180395
182	0x3d8aad06	0.06771283
183	0x3ebf2454	0.37332404
184	0xbe856fce	-0.26061863
185	0x3df9b348	0.12192398
186	0x3ce5ce9e	0.028052624
187	0x3de540cc	0.11194
188	0x3e8a2570	0.26981688
189	0xbe5d5977	-0.2161616
190	0xbdace83c	-0.08442733
191	0x3e628c4b	0.2212383
192	0x3e8429b5	0.2581307
193	0x3e0e65c9	0.13906015
194	0xbe0cbfbc	-0.13745016
195	0x3ec817d3	0.39080676
196	0x3d3fbe9c	0.04681264
197	0x3e3075f6	0.17232499
198	0xbeb2250d	-0.34793893
199	0xbeba1c5c	-0.3634976
200	0x3e32cbd9	0.17460574
201	0x3e4045f4	0.18776685
202	0x3ebc3cad	0.36765042
203	0xbe72a7d2	-0.23696831
204	0xbe5979f5	-0.21237929
205	0x3dd10001	0.10205079
206	0x3ee36ea0	0.44420338
207	0xbec52155	-0.38501993
208	0x3bd89da2	0.006610588
209	0x3e520fb8	0.20513809
210	0x3e963944	0.29340565
211	0xbe832f8c	-0.25622213
212	0x3dc60235	0.0966839
213	0x3ebf4127	0.37354395
214	0xbdf4210d	-0.119203664
215	0xbe77697d	-0.24161334
216	0xbe0f14b7	-0.13972746
217	0x3e68f40e	0.2274935
218	0x3ec6b922	0.3881312
219	0xbe393737	-0.18087469
220	0xbdbce011	-0.09222425
221	0xbe3b5f00	-0.18297958
222	0x3dce0d11	0.10061086
223	0x3e01bf49	0.12670626
224	0xbe3c19c9	-0.18369211

encoder_layer_list.2.bias f4 [15]
0	0x3ead8fa7	0.3389866
1	0x3e601b02	0.21885303
2	0x3e39981c	0.18124431
3	0x3e8998e5	0.26874462
4	0x3e8e6a00	0.27815247
5	0x3eabd0b9	0.3355768
6	0xbe6465db	-0.2230448
7	0x3e7ccd48	0.24687684
8	0xbe0712d8	-0.13190782
9	0xbe34f8cc	-0.17673033
10	0xbe390111	-0.18066813
11	0x3e3d66f2	0.18496302
12	0x3e4c2301	0.19935228
13	0x3ece1d04	0.40256512
14	0x3d2c3f0e	0.04205232

decoder_layer_list.0.weight f4 [15, 15]
0	0xbe6a3c62	-0.22874597
1	0xbd8474cf	-0.06467592
2	0xbe6c4f7c	-0.23077196
3	0x3df7a5cd	0.12092171
4	0xbc9248d8	-0.017857
5	0xbe0f01d2	-0.13965538
6	0xbe0d4a3a	-0.13797846
7	0xbe41b993	-0.18918447
8	0x3e1f0c79	0.15532102
9	0xbdea0e0e	-0.11428462
10	0x3e1c758c	0.15279216
11	0xbe7f7486	-0.24946794
12	0x3e3985ca	0.18117443
13	0x3df4b464	0.11948469
14	0xbd8406cd	-0.0644661
15	0x3e82a14e	0.2551369
16	0xbd2485a5	-0.040166516
17	0xbeb6a95c	-0.35676086
18	0x3ed1d4b5	0.40982595
19	0x3d97492d	0.07387004
20	0xbc160d8c	-0.009158503
21	0xbe0b65e1	-0.13613082
22	0x3eaedb60	0.34151745
23	0x3e504d70	0.2034204
24	0xbc97406a	-0.018463332
25	0x3e82f4d3	0.2557741
26	0x3d7cba3e	0.061701052
27	0x3e87808e	0.26465267
28	0x3e43147d	0.19050784
29	0xbeaa1b49	-0.33223942
30	0xbd43eccd	-0.047833253
31	0x3e2b21c9	0.16712107
32	0x3e921af6	0.28536195
33	0x3dda874f	0.10670339
34	0x3e04e9f4	0.12979871
35	0x3d4132bc	0.047167525
36	0x3b4d0838	0.0031285416
37	0xbe8c1a32	-0.27363735
38	0xbc221f05	-0.009895091
39	0x3ea75476	0.32681626
40	0x3d63c5f5	0.05560871
41	0x3cf74778	0.030185446
42	0x3eadc9be	0.3394298
43	0xbe3d2985	-0.1847287
44	0x3e8c2b2a	0.27376682
45	0x3e26c7c5	0.16287144
46	0xbdcbac13	-0.0994493
47	0x3cb3612d	0.021896923
48	0x3ec164a1	0.37772086
49	0xbd2687dd	-0.040656913
50	0x3eb2defb	0.34935746
51	0x3c9a85d0	0.018862635
52	0x3dd9851d	0.106210925
53	0xbdc27d40	-0.09496546
54	0xbdd7532b	-0.1051391
55	0x3e335ef4	0.1751669
56	0x3e9852cb	0.29750666
57	0xbd8635f6	-0.06553261
58	0x3e0b8db5	0.13628276
59	0xbe9452ba	-0.28969365
60	0x3e37791b	0.17917292
61	0xbe3bd887	-0.18344317
62	0x3e188ae1	0.14896728
63	0x3d04385b	0.032280307
64	0xbe1152dc	-0.14191765
65	0xbc48d598	-0.012257956
66	0x3a5a6139	0.00083305273
67	0xbe3c9d48	-0.18419373
68	0x3e570e3b	0.21001522
69	0xbda535e2	-0.08066918
70	0xbe5b222e	-0.21399757
71	0xbe7f7e31	-0.24950482
72	0xbc1b0613	-0.009461897
73	0xbe702217	-0.23450504
74	0x3cfc45de	0.030795034
75	0xbd6655b7	-0.056234088
76	0x3e627213	0.22113828
77	0x3d894b58	0.06703824
78	0xbdf70563	-0.12061574
79	0xbd62b346	-0.05534675
80	0xbcc90c31	-0.024541946
81	0x3e53a5ac	0.20668668
82	0xbe41ae78	-0.18914211
83	0xbd9f696e	-0.07783781
84	0x3dcaf6d6	0.099103615
85	0x3dedaf85	0.11605743
86	0xbd86d885	-0.065842666
87	0x3e9bbe8a	0.30418807
88	0x3e2f7775	0.17135413
89	0x3d328b1e	0.043589704
90	0x3e442947	0.19156371
91	0x3e1720dc	0.14758629
92	0xbe86880e	-0.26275676
93	0xbcb2298f	-0.021748332
94	0xbd9856a1	-0.07438398
95	0x3e2883ea	0.16456571
96	0x3e20aeb0	0.15691638
97	0x3e4d8b66	0.20072708
98	0x3e5424c5	0.20717151
99	0xbe4b0b3e	-0.19828507
100	0x3d5b3345	0.05351569
101	0xbdacaa31	-0.08430899
102	0xbe85e328	-0.2614987
103	0xbe22d649	-0.15902056
104	0xbd0de5c7	-0.03464296
105	0x3d9af531	0.07566298
106	0x3cbb1982	0.022839312
107	0xbe45a83f	-0.19302462
108	0xbd29851a	-0.0413867
109	0xbbd403bb	-0.0064701713
110	0x3d5e899e	0.05433046
111	0xbe7020ab	-0.23449962
112	0xbda1a211	-0.0789224
113	0x3e250c5a	0.16117993
114	0x3ca325ee	0.019915547
115	0x3e1de0db	0.15417807
116	0x3e7fb77d	0.24972339
117	0xbe3f6f94	-0.18694907
118	0xbcfee7b4	-0.031116344
119	0x3e16cb74	0.14726049
120	0x3c12986f	0.008947476
121	0x3e4e929e	0.20173118
122	0x3c576579	0.013146752
123	0xbe5230ac	-0.2052638
124	0xbdc5b110	-0.096529126
125	0xbe350fd1	-0.17681815
126	0x3d8902c9	0.06689984
127	0xbe27e0e0	-0.16394377
128	0xbe689be3	-0.22715716
129	0xbdcd7bb3	-0.100333594
130	0x3d0e0d79	0.034680817
131	0xbc26cebd	-0.010181126
132	0xbcce39cc	-0.025174044
133	0xbc08aa56	-0.0083413925
134	0xbcae3a91	-0.021268161
135	0xbe60234e	-0.21888468
136	0xbe17bded	-0.14818545
137	0x3d8d38c4	0.06895593
138	0xbe20ee0e	-0.1571581
139	0xbd4a0a67	-0.049326327
140	0x3d6cea99	0.057840917
141	0x3e46551c	0.19368404
142	0x3e643256	0.22284827
143	0x3e1515d2	0.14559105
144	0xbd900945	-0.07033018
145	0xbe22d263	-0.15900569
146	0xba8df91c	-0.0010831687
147	0xbcf91dd6	-0.030409735
148	0xbdc0ec9f	-0.09420132
149	0xbd197271	-0.037462655
150	0x3d696192	0.056977816
151	0xbbc51016	-0.0060138805
152	0x3e3e01d6	0.18555388
153	0xbcc11931	-0.023571583
154	0x3d8bbc19	0.06822986
155	0x3d3fb8cb	0.04680709
156	0x3e4678d6	0.19382033
157	0xbe431a24	-0.1905294
158	0x3d132b6a	0.035930075
159	0xbdb0ae99	-0.08627052
160	0xbc360337	-0.011109165
161	0x3e030bfa	0.12797537
162	0x3e6f4892	0.23367527
163	0xbd4a68d6	-0.049416386
164	0xbd042bd1	-0.03226835
165	0x3ed2e3b2	0.41189343
166	0xbd952554	-0.072825104
167	0xbe9cc2d5	-0.30617395
168	0x3e8e8f3b	0.2784365
169	0xbda193e4	-0.07889536
170	0x3e9d709d	0.3074998
171	0x3dd687be	0.104751095
172	0x3de868bd	0.11348102
173	0xbe7e2a37	-0.24820791
174	0x3de564a0	0.11200833
175	0xbd761feb	-0.060089033
176	0x3d42a5e8	0.0475215
177	0x3da4f560	0.08054614
178	0x3dd5efb2	0.10446109
179	0xbe7c8f45	-0.24664028
180	0xbda73058	-0.08163518
181	0xbdb65ea9	-0.08904774
182	0xbe842047	-0.25805876
183	0xbd9dccd4	-0.077050835
184	0x3c831b70	0.016004294
185	0x3de61d03	0.11236002
186	0x3e74c11c	0.2390179
187	0x3ecb76cb	0.3973907
188	0x3e274e94	0.16338569
189	0xbe8e37c9	-0.27776936
190	0x3e49a7b2	0.19692877
191	0x3e4bab58	0.19889581
192	0x3df97bbe	0.12181805
193	0x3e951d0d	0.29123726
194	0xbdba2fd4	-0.09091154
195	0x3d55d5f9	0.052206013
196	0x3e32c551	0.17458083
197	0x3e0fd834	0.14047319
198	0x3d154380	0.036441326
199	0xbd87b4d2	-0.066262856
200	0xbd40cea8	-0.047072083
201	0xbe24f726	-0.16109905
202	0xbda77063	-0.08175733
203	0xbd3b1105	-0.045670528
204	0xbd604c03	-0.05475999
205	0x3e6a127c	0.22858614
206	0x3d2ded5e	0.0424627
207	0xbe03a961	-0.12857582
208	0xbe3b7016	-0.18304476
209	0xbdfc7f1b	-0.12328931
210	0x3ec70d91	0.38877538
211	0x3ea1f3ce	0.3163132
212	0x3da7bfe4	0.08190897
213	0x3e731151	0.23737074
214	0x3e1ad52f	0.15120386
215	0x3e25c3d3	0.16187982
216	0x3d4bd918	0.049767584
217	0xbd1f30ea	-0.038865007
218	0xbde7b239	-0.1131329
219	0xbe0f7df6	-0.14012894
220	0x3e7227dc	0.23648018
221	0x3e9f7771	0.31145814
222	0x3e81b5b3	0.25333938
223	0x3e7b2286	0.24524888
224	0xbd558980	-0.052133083

decoder_layer_list.0.bias f4 [15]
0	0xbd157cb1	-0.036495868
1	0x3e90ceff	0.28282925
2	0xbcddc00d	-0.027069116
3	0x3e2ab865	0.16671903
4	0x3ce0a472	0.027422164
5	0xbe001796	-0.12508997
6	0xbdb6ef8d	-0.089324094
7	0xbe60c781	-0.21951105
8	0xbe6f45b1	-0.23366429
9	0xbd8f9e12	-0.070125714
10	0xbe831ecf	-0.25609443
11	0x3e92a9cf	0.2864518
12	0x3eb2d357	0.34926865
13	0xbdda8246	-0.10669379
14	0x3e5ac8a5	0.21365602

decoder_layer_list.1.weight f4 [15, 15]
0	0x3e18d946	0.14926633
1	0x3cd131ba	0.025536407
2	0xbe3f85dd	-0.18703409
3	0x3e235257	0.15949379
4	0x3e3f7569	0.18697132
5	0xbc907ebb	-0.017638555
6	0xbe3ce7ab	-0.1844775
7	0xbd9de0a1	-0.0770886
8	0x3dceadbb	0.1009173
9	0xbd9c9ea8	-0.07647449
10	0x3ddb29ff	0.107013695
11	0x3daf55d9	0.08561296
12	0xbd5225ce	-0.051305585
13	0xbda374e0	-0.079812765
14	0xbdc5d337	-0.09659427
15	0xbe4bc4f6	-0.19899353
16	0xbe8dc4f2	-0.2768932
17	0x3ec1d289	0.37855938
18	0xbecc8089	-0.39941815
19	0xbd6f9066	-0.05848732
20	0x3d850cc4	0.064965755
21	0xbd137753	-0.03600247
22	0xbe327962	-0.17429116
23	0x3deba292	0.11505617
24	0xbe1232cd	-0.14277191
25	0x3d8fba7a	0.070179895
26	0xbe7ff60f	-0.24996208
27	0x3e99792b	0.29975256
28	0x3e2ce641	0.1688471
29	0x3e8aa7b1	0.27081063
30	0xbe5c13c6	-0.21491918
31	0x3e49cb4a	0.19706455
32	0x3d6a811f	0.057252046
33	0xbe9333cb	-0.28750452
34	0xbe2c8576	-0.16847786
35	0x3c308ce3	0.0107757775
36	0x3e42f6d4	0.1903947
37	0xbe283ec9	-0.164302
38	0x3d70574f	0.058677014
39	0xbdbf382b	-0.09336885
40	0xbc38193e	-0.011236487
41	0xbe8861a8	-0.26637006
42	0xbdfdecc0	-0.12398672
43	0x3dfa7f19	0.12231273
44	0x3cf6b2c2	0.030114535
45	0x3dc0e0f4	0.094179064
46	0xbe9ba9cf	-0.3040299
47	0x3dbb8d96	0.09157865
48	0xbdf47a7b	-0.11937424
49	0xbe281955	-0.16415913
50	0xbe1866a2	-0.14882901
51	0x3e681495	0.22664101
52	0xbe42bb59	-0.1901678
53	0x3e4081a4	0.18799454
54	0xbe6aad82	-0.2291775
55	0x3e1984c5	0.14992054
56	0xbe5b2f8d	-0.21404858
57	0x3e171ea4	0.14757782
58	0x3e4a8714	0.1977809
59	0x3e8f1bea	0.27950984
60	0x3e6575c1	0.22408201
61	0xbe210069	-0.15722813
62	0x3e8b7d03	0.27243814
63	0x3c87334a	0.016503949
64	0x3b19588f	0.0023398732
65	0x3d94c304	0.07263759
66	0x3de6c101	0.11267281
67	0x3e6e93bd	0.23298545
68	0xbe22beef	-0.15893148
69	0x3b676ed5	0.0035313864
70	0x3d104fe9	0.03523246
71	0xbc40f25b	-0.011776532
72	0x3bafb742	0.005362422
73	0xbe692230	-0.22766948
74	0xbdd9932d	-0.10623775
75	0xbc98177d	-0.018565888
76	0xbddc0adf	-0.10744261
77	0x3e863b13	0.26216945
78	0x3ccac34c	0.024751328
79	0xbe5cbfc0	-0.21557522
80	0x3e02a241	0.12757207
81	0xbe4254ff	-0.18977736
82	0xbdbed0cf	-0.09317171
83	0x3db3392b	0.08751138
84	0xbb9f7ecc	-0.0048674103
85	0x3d7b4a85	0.061350364
86	0x3c115c25	0.008872067
87	0xbdb22c52	-0.0869986
88	0xbe61534d	-0.22004433
89	0x3e2d1bb8	0.16905105
90	0xbdab60f2	-0.083681
91	0xbe5c4068	-0.21508944
92	0x3e0acb51	0.13554122
93	0xbe505289	-0.20343985
94	0xbe5c3612	-0.21505001
95	0x3e0c1c3c	0.13682646
96	0xbde45ebb	-0.11150881
97	0x3e3212a1	0.17389919
98	0x3e6a4bc5	0.22880466
99	0x3daf5865	0.08561782
100	0xbe96b21f	-0.2943277
101	0xbe806de1	-0.2508383
102	0x3e8375e5	0.25675884
103	0x3e625a87	0.22104846
104	0x3bf500b2	0.0074768895
105	0x3dfdddf3	0.12395849
106	0x3dffa47b	0.12482544
107	0xbe614c63	-0.22001795
108	0x3df889a5	0.121356286
109	0xbd473706	-0.04863646
110	0xbe2e89d0	-0.17044759
111	0xbdbdf492	-0.09275164
112	0x3e7428af	0.23843645
113	0xbd016dd3	-0.031598877
114	0x3de40316	0.11133401
115	0x3d0f0477	0.034916367
116	0xbcc778ab	-0.024349531
117	0x3e983fde	0.29736227
118	0xbe10990c	-0.14120883
119	0x3e937b23	0.28804883
120	0x3e090f78	0.13384807
121	0xbdbbab88	-0.09163576
122	0x3d949230	0.072544456
123	0xbe6d7847	-0.23190413
124	0xbd84184f	-0.06449949
125	0x3ea76d94	0.3270079
126	0x3d2842bd	0.04107927
127	0xbd97f35f	-0.07419466
128	0xbc50fc1a	-0.012755418
129	0x3e23663f	0.15956973
130	0x3dd0d33c	0.1019654
131	0xbea106fb	-0.31450638
132	0x3c22daa6	0.009939825
133	0xbd614cf4	-0.05500503
134	0x3e8647fb	0.26226792
135	0xbe47ba3d	-0.19504638
136	0x3e941dc1	0.2892895
137	0xbe47f043	-0.19525246
138	0xbce09a11	-0.027417215
139	0xbdc8cf24	-0.09805134
140	0xbeb29caa	-0.3488515
141	0xbe5109ee	-0.20413944
142	0xbdb1d504	-0.08683208
143	0xbd880d94	-0.06643215
144	0xbe7f7a20	-0.2494893
145	0xbee24d3a	-0.44199544
146	0x3e41e6c2	0.18935683
147	0xbc1bf045	-0.009517734
148	0x3e74a26e	0.23890087
149	0x3dfcae9c	0.123379916
150	0x3e6cbd38	0.23119056
151	0xbe89e87b	-0.2693518
152	0x3ec39c04	0.38204968
153	0xbe7919dc	-0.24326271
154	0xbd4611be	-0.048356764
155	0x3cccdf49	0.025008814
156	0x3d1e4b10	0.038645804
157	0xbe7c2605	-0.24623878
158	0x3e07ec26	0.13273677
159	0x3c82ee69	0.015982823
160	0x3d4ba58d	0.04971843
161	0xbe0a0d5d	-0.1348166
162	0xbd96b18e	-0.073580846
163	0x3d76960c	0.06020169
164	0x3e8a8e64	0.2706176
165	0xbe2a6b68	-0.16642535
166	0x3db906ec	0.09034523
167	0xbec9bebc	-0.3940333
168	0xbcfa99e3	-0.030590957
169	0x3d58420a	0.052797355
170	0xbe9b221b	-0.30299458
171	0x3e0f6d6f	0.1400659
172	0x3da30317	0.07959574
173	0xbe56fad2	-0.20994118
174	0xbdee1ceb	-0.116266094
175	0xbd7f3742	-0.062308557
176	0x3d945d53	0.07244363
177	0x3e2382a2	0.15967801
178	0xbd4fca7d	-0.050730217
179	0x3d77fb28	0.060542256
180	0xbe5d1ffe	-0.21594235
181	0x3edae86c	0.4275545
182	0xbe8069ee	-0.25080818
183	0x3db98736	0.090589926
184	0xbdc6ece4	-0.09713152
185	0xbe817996	-0.25288075
186	0x3c2bac34	0.010478068
187	0x3d8b57a5	0.06803826
188	0xbd058c47	-0.032604482
189	0xbdae8be6	-0.08522777
190	0xbec81b1a	-0.39083177
191	0x3d96ebb7	0.07369178
192	0x3e491a9e	0.1963906
193	0xbe1fe5ff	-0.1561508
194	0x3eabf6c6	0.3358671
195	0xbc07e744	-0.008294884
196	0xbca5b4ad	-0.020227754
197	0xbe90d822	-0.28289896
198	0x3e3de7b8	0.18545425
199	0x3e1b5c56	0.15171942
200	0xbec556ed	-0.38542882
201	0x3ce86034	0.028366186
202	0xbc952f7d	-0.01821112
203	0x3e51eddf	0.20500897
204	0x3e405a4a	0.18784443
205	0xbe4dee86	-0.2011052
206	0x3c8fddfd	0.017561907
207	0x3e6ad4cf	0.22932743
208	0xbe1e6b5b	-0.1547064
209	0xbcefc9a2	-0.02927095
210	0xbc9acbea	-0.018896062
211	0x3ebf1a28	0.37324643
212	0xbe06604e	-0.13122675
213	0x3d2a2adf	0.04154479
214	0x3e34dfa5	0.17663439
215	0x3e1ffb63	0.1562324
216	0xbdf031a0	-0.11728215
217	0xbdb7aa4f	-0.08968031
218	0x3e14e290	0.14539552
219	0xbd96073b	-0.07325598
220	0x3e0276d9	0.1274065
221	0x3e864261	0.26222518
222	0x3dca6971	0.098833926
223	0x3e819044	0.25305378
224	0x3e62211b	0.22082941

decoder_layer_list.1.bias f4 [15]
0	0xbe75ca14	-0.24002868
1	0x3dbc1002	0.09182741
2	0x3e6c7716	0.23092303
3	0x3e732d54	0.2374776
4	0x3e8876ab	0.26653036
5	0xbe4ae27e	-0.19812962
6	0x3e9bef3c	0.3045596
7	0x3e93572e	0.2877745
8	0x3e36dd35	0.17857821
9	0x3d2a7358	0.041613907
10	0x3e1b943c	0.15193266
11	0x3eb3ed5e	0.35142034
12	0x3e05d511	0.1306956
13	0x3daaa20e	0.08331691
14	0xbe2eb395	-0.17060693

decoder_layer_list.2.weight f4 [15, 15]
0	0x3e98156a	0.29703838
1	0xbe5e91da	-0.21735325
2	0xbecb53bf	-0.3971233
3	0xbe5c0312	-0.21485546
4	0xbe5eb567	-0.21748887
5	0x3d8c5f93	0.06854167
6	0xbe803be5	-0.25045696
7	0x3eb994d5	0.36246362
8	0xbee6a2c0	-0.45046043
9	0x3e2629a1	0.16226818
10	0x3cdd4146	0.027008664
11	0x3e9e4f6d	0.30919972
12	0xbd01562a	-0.031576313
13	0x3c82621d	0.015915925
14	0x3e95da8e	0.29268306
15	0xbd3d780d	-0.046257067
16	0xbe480d16	-0.19536242
17	0xbeb63a24	-0.35591233
18	0x3dc34c36	0.095360205
19	0xbe5ef772	-0.2177408
20	0xbe3e811e	-0.18603942
21	0xbdf2a125	-0.11847142
22	0x3dea06b7	0.11427062
23	0xbe57eb8a	-0.21085945
24	0x3e81e4ea	0.2536996
25	0xbecf4d38	-0.404886
26	0xbdad9fa1	-0.084777124
27	0x3d8d7f9f	0.069091074
28	0x3e62bbcc	0.22141951
29	0x3e99107c	0.2989539
30	0xbce14097	-0.02749662
31	0x3e8f8003	0.28027353
32	0x3ebbce20	0.36680698
33	0xbdcf67f3	-0.101272486
34	0x3e34ba68	0.17649233
35	0x3e22548f	0.15852569
36	0x3e52797c	0.20554155
37	0xbe7d14aa	-0.24714914
38	0x3e97b530	0.29630423
39	0xbe4f2764	-0.2022987
40	0x3d549422	0.051899083
41	0xbd1c1ee3	-0.038115393
42	0xbe5f3a23	-0.21799521
43	0xbea88f57	-0.3292186
44	0xbddfe420	-0.10932183
45	0xbe2dcbda	-0.16972294
46	0x3e6d2330	0.23157954
47	0x3e9100de	0.28320974
48	0x3e5cca45	0.21561535
49	0x3e7f4ef2	0.24932459
50	0xbd800716	-0.062513515
51	0x3ea147a3	0.31499967
52	0xbd08c112	-0.03338725
53	0x3d9efa72	0.077626124
54	0xbeae7996	-0.34077138
55	0x3e55df7c	0.20886034
56	0xbe85e33b	-0.26149926
57	0xbeacb1fe	-0.33729547
58	0x3d1f27e7	0.038856413
59	0xbc415246	-0.011799401
60	0x3e24d071	0.16095139
61	0x3d462e71	0.048384134
62	0x3e991f07	0.29906484
63	0x3ea3b53a	0.31974202
64	0x3e46103a	0.19342127
65	0x3e872945	0.26398674
66	0xbdcf2961	-0.10115314
67	0xbe16e61f	-0.14736222
68	0x3e67b999	0.22629394
69	0x3d6ea0c9	0.058258805
70	0x3ea0926f	0.3136172
71	0xbd9374d0	-0.072000146
72	0xbe883414	-0.26602232
73	0x3da63b51	0.081167825
74	0xbe3b39c1	-0.1828375
75	0x3e3220d0	0.1739533
76	0xbd8d662a	-0.06904252
77	0x3d5e4f00	0.05427456
78	0xbe9fa569	-0.31180885
79	0x3dc1f92f	0.09471356
80	0x3ca7f8c0	0.020504355
81	0xbd3eab82	-0.04655028
82	0xbe2d3b13	-0.16917066
83	0x3e03bfd3	0.12866144
84	0x3d472df8	0.048627824
85	0xbdb383bb	-0.0876536
86	0xbd84baa5	-0.06480912
87	0x3cd2b2e6	0.025720071
88	0xbe4766d9	-0.19472827
89	0x3c830942	0.015995625
90	0x3e80cd93	0.2515684
91	0x3c0f3dd0	0.008742765
92	0xbdfe470f	-0.12415897
93	0xbcb9cb9e	-0.0226801
94	0xbe1f2b5b	-0.15543883
95	0x3d98c129	0.074587174
96	0xbe5a4473	-0.21315174
97	0x3dcd7c87	0.10033517
98	0x3e1c6c58	0.15275705
99	0xbe9931c7	-0.2992079
100	0xbe669607	-0.22518168
101	0xbcb7ff07	-0.022460474
102	0xbd6dd4b0	-0.058064163
103	0xbec72634	-0.38896334
104	0x3c0bf7ea	0.008542994
105	0xbd103896	-0.035210215
106	0xbe3faa4c	-0.18717307
107	0xbdac0850	-0.08400023
108	0xbd1bfbcc	-0.03808193
109	0x3e011ea7	0.12609349
110	0x3e431ab8	0.19053161
111	0x3e103ce9	0.14085735
112	0xbddb697d	-0.1071348
113	0x3d99ffd1	0.07519496
114	0xbd8f65f3	-0.07001867
115	0xbe37280c	-0.1788637
116	0xbe0cb327	-0.13740216
117	0x3a4a5803	0.0007718803
118	0xbde62314	-0.11237159
119	0x3db5180b	0.088424765
120	0x3e1bf398	0.15229642
121	0xbd1e35aa	-0.038625397
122	0xbd800083	-0.062500976
123	0xbe9e9d20	-0.30979252
124	0x3d9c42be	0.076299176
125	0x3dffad72	0.12484254
126	0xbe36b463	-0.1784225
127	0x3dcd6e40	0.10030794
128	0xbdd9043c	-0.10596511
129	0xbe592fa7	-0.21209584
130	0x3dd7c8c7	0.10536342
131	0xbe1f87eb	-0.15579192
132	0xbd2c7a5f	-0.04210889
133	0xbe62811e	-0.22119567
134	0x3dd72f9a	0.10507126
135	0x3e8f437a	0.27981168
136	0x3caf01db	0.02136319
137	0xbe422365	-0.18958814
138	0x3d108984	0.035287395
139	0x3e0863ad	0.13319273
140	0x3e21d75c	0.1580481
141	0xbe426af5	-0.18986113
142	0xbe43dfbf	-0.19128321
143	0xbe5712ed	-0.21003313
144	0xbd15b757	-0.0365518
145	0xbe762999	-0.24039306
146	0xbcf29e55	-0.029616514
147	0xbd699dc6	-0.05703523
148	0x3b4419c3	0.0029922582
149	0xbcb2e599	-0.021837996
150	0x3da6014c	0.08105716
151	0xbe4f0c9d	-0.20219655
152	0x3e67f530	0.22652125
153	0xbe33a3ad	-0.17542906
154	0xbdb571a7	-0.08859568
155	0x3badc5f4	0.005303139
156	0xbda50b8b	-0.08058842
157	0x3d84bb18	0.06480998
158	0xbdc3c821	-0.09559656
159	0xbe8663c7	-0.26248
160	0x3e5c9f30	0.215451
161	0x3d9d2230	0.076725364
162	0xbe444d2e	-0.19170067
163	0x3dac29a1	0.084063776
164	0x3e135d52	0.14391068
165	0xbb1e4694	-0.0024150955
166	0x3cbafa94	0.022824563
167	0xbd893480	-0.06699467
168	0xbdebdd3b	-0.11516806
169	0x3e252b9b	0.16129915
170	0xbd0e4c42	-0.034740694
171	0x3e1966d1	0.14980628
172	0xbd6426cb	-0.05570106
173	0x3e753d48	0.23949158
174	0xbd6ee44f	-0.0583232
175	0xbe2e3850	-0.17013669
176	0x3dc574a1	0.09641386
177	0xbe06e20d	-0.13172169
178	0x3e3a7d24	0.182118
179	0x3e69574b	0.22787206
180	0xbe004a5f	-0.1252837
181	0x3e3b1a7d	0.18271823
182	0xbdb45e47	-0.088070445
183	0xbd89a4d7	-0.06720894
184	0x3e4bcaa3	0.19901519
185	0x3e866b02	0.26253515
186	0x3e311783	0.17294125
187	0xbe008350	-0.12550092
188	0xbe13a194	-0.14417106
189	0x3ca2f26b	0.019890985
190	0xbe9c5154	-0.30530798
191	0x3d2f5a0e	0.042810492
192	0x3ac1b921	0.0014779904
193	0xbc474fdf	-0.012165039
194	0x3d9e699a	0.07734986
195	0x3e295faa	0.16540399
196	0x3c3e29ba	0.011606628
197	0x3ddc5604	0.10758594
198	0x3e818b19	0.25301436
199	0xbe3815b2	-0.17977026
200	0xbe131046	-0.14361677
201	0x3d4d7e16	0.050169073
202	0x3e6f83f4	0.2339018
203	0xbe3accb5	-0.18242152
204	0x3b03b5f1	0.002009746
205	0x3e51d215	0.20490296
206	0xbe7000ad	-0.23437758
207	0xbcb4fa65	-0.022092054
208	0xbe8b34f9	-0.27188852
209	0x3d3ed3fe	0.04658889
210	0xbba011bd	-0.004884927
211	0xbe1d80fb	-0.15381233
212	0x3c710433	0.014710474
213	0x3de3cce4	0.11123064
214	0x3ddbe5f5	0.1073722
215	0xbcfe9d8b	-0.031080982
216	0xbe1d7af6	-0.15378937
217	0x3e4f6bc3	0.20255952
218	0xbce9d4b7	-0.028543813
219	0x3daff6aa	0.08591969
220	0x3d395936	0.045251094
221	0xbd998d80	-0.07497692
222	0xbe4e7ff4	-0.20165998
223	0xbc48563e	-0.012227593
224	0xbd4c84a9	-0.049931202

decoder_layer_list.2.bias f4 [15]
0	0xbe3d3200	-0.18476105
1	0x3e78e5d4	0.24306422
2	0x3cb5828b	0.022156974
3	0xbd6359fd	-0.05550574
4	0xbe81d320	-0.25356388
5	0xbdbe7075	-0.09298793
6	0x3df00967	0.11720543
7	0xbe6b01de	-0.22949931
8	0xbe87ed12	-0.26548058
9	0x3d8b51e8	0.06802732
10	0x3e3ec740	0.18630695
11	0xbe1b59f5	-0.15171035
12	0xbe12ae35	-0.14324267
13	0xbe49baf7	-0.19700228
14	0x3e1ea834	0.15493852
