result/FairOD_weights/base_rate/cluster/seed_123/biasRate_3.pt (torch, 5410 bytes, 11 tensors)

encoder_layer_list.0.weight f4 [6, 15]
00000000: 6dcc fd3d c5ae 5d3e ab26 71be 1a4b 83be
00000010: fff5 95bd 22a4 31be e999 5dbd 1426 b73b
00000020: a0b3 c83d 570f 31be 19d0 66be 4770 a0bc
00000030: e2fd e1bd 262b 753d 6e14 3ebe 86cf 263e
00000040: e723 62bd a1ff 4d3e 4bea 803e 7bbc 11bd
00000050: 02ea 10be 4b8f 78be 758e debd 11f3 3c3e
00000060: b970 81be 7f35 c8bd 9793 27be 8403 bc3d
00000070: c20d e5bd 5a10 0d3e 5f94 7f3e b0db 5dbd
00000080: 6f8d 683b 0b19 7dbe 2f9d 5ebe 7feb e03d
00000090: 6b59 243e 9e9d e4bc 02ab 6a3e 7063 183e
000000a0: 1eac 00be f277 363e cd8e faba 8995 21be
000000b0: 8e75 71bd 5479 3cbe e2cd 4cbe a698 e4bd
000000c0: 33ec 49be 9e17 3ebd 048c 883d 512f 673a
000000d0: e12c 7cbe d7b2 7fbe 6b4b 443e 5c6b e6bd
000000e0: f390 503d 28d2 573e 32d6 ebbd dfa7 f1bd
000000f0: 1652 b7bd 779f 45be 8d01 483e 6ff8 64be
00000100: 886a 373e 69ef e63d 77f6 153d 7d50 05be
00000110: 0575 cabd 3785 20be eb87 85bd 5330 4cbe
00000120: cdc7 133e 60e0 1c3e f442 fa3d 3bb9 7dbe
00000130: 7afb d5bb 2872 55be ba2e 33be 053e 3fbe
00000140: 9bd5 fcbd c526 e1bc a560 4bbc 2b9d f03d
00000150: aeb9 823e 9f66 93bd 8eef 0f3e a72a 4c3e
00000160: 8f88 2abd 29df 9dbc
0.12392507 0.216487 -0.23549907 -0.25643235 -0.07322311 -0.17347768 -0.05410186 0.005589256
0.09799886 -0.17291008 -0.2254032 -0.019584788 -0.110347524 0.059855603 -0.18562481 0.16290101
-0.05521002 0.20117046 0.2517875 -0.03558014 -0.14151767 -0.24273412 -0.10867015 0.18452097
-0.25281313 -0.097758286 -0.16364895 0.09180358 -0.11184265 0.13775769 0.24958943 -0.05416459
0.0035484692 -0.24716584 -0.21739648 0.10982417 0.16049735 -0.027907189 0.22916797 0.14881682
-0.12565657 0.17819193 -0.0019116044 -0.157797 -0.05895 -0.18405658 -0.20000413 -0.11161928
-0.19719009 -0.04640924 0.06667331 0.00088190014 -0.24626495 -0.24970566 0.19169395 -0.11250946
0.050919484 0.21076262 -0.11515464 -0.11799597 -0.089512035 -0.19299112 0.19531842 -0.22360395
0.17911732 0.112761326 0.036612 -0.13018985 -0.09885601 -0.15675817 -0.06520065 -0.19940309
0.14431687 0.15319967 0.122198015 -0.24777691 -0.0065302225 -0.20844328 -0.17498294 -0.18676002
-0.123454295 -0.027484307 -0.012413179 0.117487274 0.25532287 -0.07197308 0.14056227 0.19938146
-0.04163414 -0.01927145

encoder_layer_list.0.bias f4 [6]
00000000: 05b8 e43c 4418 6d3d 8ca0 b43d bc18 0fbe
00000010: 0aff 4dbe d8a4 27be
0.027919779 0.05788447 0.088196844 -0.13974279 -0.20116821 -0.16371477

encoder_layer_list.1.weight f4 [2, 6]
00000000: a84f b7be 89a7 20be 0ec8 2d3e f23e 403d
00000010: 4c3d c6bd 3b1c c13e 0c65 75bc 3954 d33d
00000020: 7d22 9cbe adf4 0bbe 9e27 9ebd 202a e43b
-0.3580296 -0.1568891 0.16970846 0.04693503 -0.0967966 0.3771685 -0.014977705 0.103187986
-0.30495062 -0.13667555 -0.077224 0.0069630295

encoder_layer_list.1.bias f4 [2]
00000000: aac5 7d3e 28cb 8abe
0.24782434 -0.2710812

encoder_layer_list.2.weight f4 [1, 2]
00000000: 6e4a be3e 5b5d 4b3e
0.3716616 0.19859831

decoder_layer_list.0.weight f4 [2, 1]
00000000: 7ccf eb3e 9e93 7b3f
0.46056736 0.9827212

decoder_layer_list.0.bias f4 [2]
00000000: 86bb 60bf a489 513e
-0.8778614 0.20462662

decoder_layer_list.1.weight f4 [6, 2]
00000000: 17ae 053e 3765 44be bcd3 f6be 1bda 66be
00000010: d29b 14bf 0414 3c3f 63f3 4cbe 8958 88be
00000020: 6200 bcbd 115e e3bb 4b29 1bbf 79c4 e93e
0.13054691 -0.19179235 -0.48208416 -0.22544138 -0.5805026 0.7346804 -0.2001472 -0.26630047
-0.091797605 -0.006938704 -0.60609883 0.4565771

decoder_layer_list.1.bias f4 [6]
00000000: ecae 78be dc6e 87bb b30f 143f b0e9 37be
00000010: ba2d 0e3f 8f23 c83e
-0.24285477 -0.0041330885 0.57836455 -0.17960238 0.55538523 0.3908963

decoder_layer_list.2.weight f4 [15, 6]
00000000: 731e 733e c88d de3d 9b74 e63d d28c c03d
00000010: d177 3fbe 8ede 9ebc d54f 50be 8700 3a3e
00000020: 4882 26be c68c c7bd 5aa7 ebbd 44af bebd
00000030: e8fc a53e fa0e c43e 8eb3 4d3e 8cd4 cc3e
00000040: d71a 3c3e c82e 2fbe b00c 79be 520d 113e
00000050: d96c 8e3e f6af eb3d 5376 babc 3adf cabe
00000060: 206a 46be 7062 6ebe 2106 fe3c 1dd3 0abe
00000070: 064f 313e 51de 77bc c765 93be aa4f 233e
00000080: da3e 05bf fb68 0e3d e893 bfbd 1eec 793e
00000090: 0fa9 95bd 83fd 6dbe 0fd5 04bf 156a 963d
000000a0: e1ef 65be b05c 883e b9c6 343d f8f8 6d3e
000000b0: 2475 ebbd 178e b23e 8bed 51be a7d2 3f3e
000000c0: 4bbe 8c3e b777 38bd 282d dbbc 4ca4 d1bd
000000d0: 9aea 9dbe 0f65 5cbe 6998 e2bb b56f 3fbe
000000e0: 6ead 433e fc79 9d3e ca19 563e 56c7 31be
000000f0: 13be 0e3e db6a c5be 21b2 11bb 9024 773e
00000100: 86c0 edbe 622a 8ebd d760 cc3e 220f 763d
00000110: e08a 8bbd 4ca9 6d3e a623 283e 4d16 18be
00000120: 3d3f 7b3e a02e 8b3e ca73 aa3e d8b4 d5bd
00000130: 590d 92bd 8f46 59be 1e4b 093c ab52 21be
00000140: 0816 9c3e 6a0c 12be 0c99 733d abcc abbe
00000150: 0f82 bebe d0c1 b3be 35d7 8bbe 2883 10bd
00000160: 9200 473d ed23 67be
0.23742084 0.108668864 0.112527095 0.09401859 -0.1869805 -0.019393232 -0.20342954 0.18164264
-0.16260636 -0.09743647 -0.11506529 -0.09310773 0.32419515 0.38292676 0.20088026 0.4000591
0.18369614 -0.1710769 -0.24321246 0.14165238 0.2781742 0.11508171 -0.0227615 -0.39623433
-0.19376421 -0.23279738 0.031008782 -0.13557096 0.17315301 -0.015128688 -0.28788587 0.15948358
-0.5204903 0.034768086 -0.09354383 0.24406478 -0.07307636 -0.23241238 -0.518876 0.07344452
-0.22454788 0.26633215 0.04413483 0.23239505 -0.11496952 0.3487403 -0.20500772 0.18732701
0.27488932 -0.045036044 -0.02675493 -0.10236415 -0.3084305 -0.21522926 -0.0069151414 -0.18694957
0.19109127 0.3075713 0.20908275 -0.17361197 0.13939695 -0.38558087 -0.0022231417 0.24135041
-0.46435946 -0.06941678 0.39917633 0.060073026 -0.06813598 0.23209113 0.16419849 -0.14852257
0.24535842 0.2718401 0.33291465 -0.10434884 -0.07131452 -0.21218322 0.008379726 -0.15754192
0.30485559 -0.14262548 0.05947213 -0.33554587 -0.37208602 -0.35108805 -0.27312627 -0.03528133
0.04858453 -0.22572298

decoder_layer_list.2.bias f4 [15]
00000000: 3d91 ad3d cd55 1c3e e85f 1bbe 1a0a 843d
00000010: 835a 57be b174 11bd 1d7f 9a3d 5917 8ebe
00000020: 4da0 c7bc 4b60 00bf dbea 523e 10f9 a13d
00000030: ddf0 a1be 1666 483d 6339 963e
0.08474968 0.15267105 -0.15173304 0.06447239 -0.21030621 -0.035511676 0.07543776 -0.27752188
-0.02436843 -0.5014693 0.20597403 0.07908833 -0.31629077 0.04892548 0.29340658
