result/FairOD_weights/obfuscation_bias/cluster/seed_127/biasRate_0.2.pt (torch, 6530 bytes, 12 tensors)

encoder_layer_list.0.weight f4 [10, 15]
000000 cf 0f ac bd b1 66 12 be 40 b5 1c be 4b 0a 3c be
       -0.08401453 -0.14296986 -0.15303516 -0.18363301
000010 38 26 59 bd 87 5a 47 3d f0 e7 2c 3c c4 77 1a 3e
       -0.053014964 0.048670318 0.010553345 0.1508475
000020 7e b4 4b 3d d1 b3 c3 bc ef 4f cd bc f9 c4 4f 3d
       0.049732678 -0.023889454 -0.02506253 0.050724957
000030 8b 0a 34 3e c5 67 d5 bd 09 02 65 be 73 fa 33 be
       0.17582147 -0.10420183 -0.22364058 -0.17576008
000040 90 e8 4d be 7f f4 89 3e 2f 79 7f 3e c7 41 af 3e
       -0.20108247 0.26944348 0.24948572 0.34229872
000050 83 1a e4 3c 97 f7 17 3e 59 0d 82 3e e2 c3 8a 3e
       0.027844673 0.14840542 0.25400808 0.27102572
000060 66 dd b7 3c a0 93 bc 3e b8 75 c8 3e 94 77 52 3d
       0.022444438 0.3683138 0.39152312 0.05138357
000070 fe 1d 39 3d f2 e6 2b 3e fe 89 a3 3d 92 fd 33 bd
       0.04519462 0.16787317 0.07985304 -0.043942995
000080 85 69 61 be 0e 8d 58 3d b9 3a ff bd 94 c8 82 be
       -0.22012909 0.052868895 -0.12462372 -0.25543654
000090 76 38 43 3e 93 bd 67 be a3 0e bd 3d ea 69 68 3d
       0.19064507 -0.2263091 0.09231307 0.056741633
0000a0 56 8c 86 bd 1f 0c 8a 3d 23 c2 24 be 3a 98 fc bd
       -0.06569736 0.06740593 -0.16089682 -0.123337224
0000b0 a7 9a cf 3d e3 b9 bc 3d ea 71 1e 3e cc e5 9a be
       0.101369195 0.092151426 0.15473142 -0.30253446
0000c0 ab 53 b8 be c0 78 eb be 5e 33 69 3e 01 3d be 3e
       -0.36001334 -0.45990562 0.22773501 0.37155917
0000d0 9d 0b d2 3e 18 ff 41 bd ed 9e 4a 3d 20 91 c3 3e
       0.41024485 -0.047362417 0.04946797 0.3819666
0000e0 37 89 01 3e 04 17 09 3e e1 86 26 3e 4a f2 04 bd
       0.1265 0.13387686 0.1626239 -0.032457627
0000f0 98 23 06 3e f5 d0 ee 3e b1 02 4b be a0 93 d6 be
       0.13099515 0.46643797 -0.19825245 -0.41909504
000100 fd 7c e0 be f6 6c bb 3e ec 2a 65 3e da f1 73 3d
       -0.43845358 0.36606568 0.22379655 0.05955682
000110 6c e1 ba 3e 42 a6 13 3d 1d b8 42 3e 07 1e 4f 3e
       0.36500108 0.036047228 0.19015546 0.20226298
000120 2b c1 a2 3b 32 c1 79 3d a0 8d ac 3e 6f 90 43 be
       0.004966875 0.06097526 0.337018 -0.19098066
000130 16 34 11 bd f8 55 b6 3b 8a 8c cb 3c 5d 1b 6d be
       -0.035450064 0.0055644475 0.024847288 -0.2315497
000140 bc 8e 68 be 0c 4d 78 be 6c 63 53 3d 24 db a8 3b
       -0.22710699 -0.24248141 0.051608488 0.0051530767
000150 8f 3d 3f 3e bc eb 04 3e f7 fd ed bd ab c7 42 be
       0.18675826 0.1298055 -0.116207056 -0.1902148
000160 b9 7a 1d be 48 45 ae 3c e8 6e 12 be 1c 6d 69 3e
       -0.15378846 0.02127327 -0.1430012 0.22795528
000170 bb ca 26 3e d2 a6 93 3d 82 80 5d bc 3a ae 4f 3d
       0.16288273 0.07209553 -0.013519408 0.050703265
000180 60 2e 1d 3d cd 52 b0 bc 71 cf cf bd 8c 87 3d be
       0.038374305 -0.021523857 -0.10146988 -0.18508738
000190 11 4f 43 bd 88 93 b7 bd 01 37 33 be 29 2e 11 be
       -0.047682825 -0.08963686 -0.17501451 -0.14177765
0001a0 78 5b d4 3c a1 2e c7 be 60 5b 16 be 3f 70 a8 3d
       0.025922522 -0.38902763 -0.14683294 0.08224534
0001b0 dd 51 65 3e 85 ec 87 3e 71 6e 9b 3e 8d 20 22 bd
       0.2239451 0.26547638 0.30357698 -0.039581824
0001c0 9a df 85 3e 2f c7 79 3e e4 d8 13 3e 4f 0f db 3d
       0.26147157 0.24392389 0.14438206 0.10696279
0001d0 b8 b1 4e bc a1 69 d9 bd 13 22 b8 3d 3b ce 5f bc
       -0.012615614 -0.1061585 0.08990874 -0.013660009
0001e0 d8 4d ab be e7 e7 35 be 49 78 8e 3e e4 f5 ce 3e
       -0.33457828 -0.17764245 0.27826145 0.40421975
0001f0 65 15 de 3e 72 9e 79 bd 61 75 b4 3d 09 69 ae 3e
       0.43375698 -0.06094212 0.08811451 0.3406451
000200 a1 d2 97 bd 0c 34 3d bd 4b b2 c1 3e ee 55 ee bc
       -0.07413221 -0.046192214 0.3783134 -0.029093709
000210 25 7c 06 be 09 f8 87 3d ce ac a2 3d 72 a4 ea be
       -0.13133295 0.06639106 0.07943116 -0.45828587
000220 51 9e d1 be 0f f8 15 3e 3e 4e 82 3e d9 d9 b9 3e
       -0.40941098 0.14645408 0.2545032 0.36299017
000230 01 ca 4f bd e9 34 22 3e 88 c7 91 3e ea 4b 4e 3e
       -0.050729755 0.15840496 0.28472543 0.20146146
000240 21 a3 0e 3e 77 f7 00 3b 04 42 be 3e 46 d9 5f 3e
       0.13929416 0.001967875 0.3715974 0.21860227
000250 7c 47 c9 bd cf 26 5e bd
       -0.09828088 -0.05423623

encoder_layer_list.0.bias f4 [10]
000000 dd 24 42 be d9 f6 23 3e 76 83 0a 3d 3c 40 a0 3e
       -0.18959375 0.16012134 0.033816777 0.31299007
000010 37 14 35 3e 64 b7 f7 bc 84 55 cf bd 1c e8 93 3e
       0.17683493 -0.030238815 -0.10123733 0.28888023
000020 85 9c 95 3e 1d 8e 90 3e
       0.29220977 0.28233424

encoder_layer_list.1.weight f4 [6, 10]
000000 92 bb ec bd 48 d5 fc 3e ee 33 77 be 23 d6 72 be
       -0.11559214 0.4938147 -0.24140903 -0.23714499
000010 47 53 ac be df 44 20 3e 47 77 96 3d 57 1a a6 3e
       -0.33657286 0.15651272 0.07346969 0.3244197
000020 20 b0 03 3f 73 de 84 3e d7 c3 5f 3e 67 42 2c 3d
       0.5144062 0.25950965 0.2185205 0.042055514
000030 8f cc a4 bd 6c 06 dc 3e 94 2d 96 3e 2a bc d9 3d
       -0.08046829 0.4297365 0.29331648 0.106315926
000040 0f 7f fd 3d 65 fc 52 bc 5c 92 c1 bd f2 98 23 be
       0.1237775 -0.012877558 -0.09451744 -0.15976313
000050 e2 35 7f bd b1 3e 75 3e b9 1d 92 bc b1 1c f9 be
       -0.062307246 0.23949696 -0.017836438 -0.48654702
000060 03 d6 75 be e4 78 a0 bd fc df 3b 3e 11 c6 d5 3e
       -0.2400742 -0.07835558 0.18347162 0.41752675
000070 4e 60 e0 3e 46 af 9d 3e 55 5c 40 be c6 37 37 be
       0.43823475 0.30797786 -0.18785222 -0.1789237
000080 ae 7e 8c 3e 47 3c 4a be b3 cc 1c 3e 0c 67 54 3d
       0.274404 -0.19749556 0.15312462 0.051856086
000090 29 fb 0d 3e 8a 96 9b be 3c a9 93 be 18 d4 48 be
       0.13865341 -0.3038829 -0.28840053 -0.19612157
0000a0 d3 73 1d be 93 46 4f be 53 fa 19 3e 88 f4 8f 3e
       -0.15376215 -0.20241766 0.15036897 0.2811625
0000b0 06 61 9d be 7e b1 19 3e c9 cb 3c be 8d bb 66 3d
       -0.30738086 0.15009114 -0.18437113 0.056331206
0000c0 3f 31 fa 3d f4 33 60 3e fe 00 cf 3d 96 49 0c be
       0.12216424 0.21894819 0.10107611 -0.13699946
0000d0 37 0f c9 3d 15 fb 0c be 3e 10 db bd b6 a3 fc bd
       0.09817355 -0.13767655 -0.10696457 -0.12335913
0000e0 64 05 84 3e 45 e0 db 3e 8a ba ca 3e d7 a0 99 3e
       0.25785363 0.42944542 0.39595443 0.30005524

encoder_layer_list.1.bias f4 [6]
000000 1e 57 32 3e 6b cd 40 3e 9c 2d d1 3e 31 d4 40 be
       0.17416045 0.1882836 0.4085511 -0.18830945
000010 99 ca 9d be d5 94 e5 3d
       -0.30818632 0.11210028

encoder_layer_list.2.weight f4 [4, 6]
000000 ba b6 23 3f 24 d3 54 be 09 6d e1 3e e4 91 a2 3e
       0.63950694 -0.20783669 0.440285 0.3175193
000010 fb fc 39 bc 1c 40 a9 3e 05 b1 00 be 78 ef 81 3e
       -0.011351819 0.33056724 -0.12567528 0.25378013
000020 1d 93 3d bd 29 63 22 3e 39 fc 88 3c c7 91 25 be
       -0.046282876 0.15858139 0.016721832 -0.16168891
000030 3b 26 00 3f ce b2 0e bf 6e f6 ec 3e d7 1f bc 3e
       0.50058335 -0.55741584 0.4628176 0.36743042
000040 3a 1c 58 3d f3 da 2c 3c 1d 34 0f be 09 7c e2 3d
       0.052761294 0.010550248 -0.13984723 0.11058814
000050 fc d6 ab be 97 37 be 3e bd 40 35 be dd 5d 1b be
       -0.33562458 0.37151787 -0.17700477 -0.15172525

encoder_layer_list.2.bias f4 [4]
000000 83 c2 1c 3e 87 92 ce 3e 68 96 b7 3e 2c 55 08 bd
       0.15308575 0.40346166 0.35856938 -0.03328435

decoder_layer_list.0.weight f4 [6, 4]
000000 e4 f2 e1 be 98 c9 5b 3e c8 a9 0d be c4 ab 76 3e
       -0.44130623 0.2146362 -0.13834298 0.24088961
000010 6e d3 ca 3e 95 24 13 bf 0b 84 51 3e 3e 8d 46 3e
       0.39614433 -0.57477695 0.20460527 0.19389817
000020 7c f7 e5 be 60 28 f4 bd b4 ac 4b be c0 ff 96 bc
       -0.44915378 -0.119217634 -0.198901 -0.018432498
000030 78 32 48 be 14 76 28 be c0 05 a2 3d f8 68 65 be
       -0.19550502 -0.16451293 0.07911253 -0.22403324
000040 5b 6f 0e 3f 5e 0d ca be d3 c8 16 3f 86 dd 8e 3c
       0.55638665 -0.39463323 0.58900183 0.017439615
000050 37 87 ff 3e 8c 0e a9 be e7 22 a6 3e ac 33 72 3e
       0.49907848 -0.3301891 0.32448503 0.23652524

decoder_layer_list.0.bias f4 [6]
000000 fa 91 e9 be 7d f2 91 3e aa 84 81 be b0 2a c8 be
       -0.45619184 0.28505316 -0.25296527 -0.39095068
000010 2c 13 12 3e 92 2d 62 be
       0.14265126 -0.22087696

decoder_layer_list.1.weight f4 [10, 6]
000000 be d3 44 bd 18 5c 82 be bc aa c5 3e 07 fa d2 bd
       -0.048053496 -0.25460887 0.38606822 -0.10301595
000010 4b ec 22 be d4 b7 69 3e 25 b5 21 3d 38 23 a0 be
       -0.15910451 0.22824031 0.039479394 -0.3127687
000020 0e ed 8a be a6 9f d0 be 04 09 a1 3c 22 32 cb 3e
       -0.27133983 -0.40746802 0.01965762 0.39686686
000030 1a 24 0a 3e b5 c7 a9 be 82 ee 28 be 81 93 a2 be
       0.13490334 -0.33160177 -0.16497234 -0.31753162
000040 d5 c5 a5 bd 06 a7 6d 3e 2e 77 13 bd f2 29 d3 bd
       -0.08094374 0.23208246 -0.03600233 -0.10310735
000050 0b cc 33 be cd f5 b3 3c fa 79 c6 be 32 19 5b 3e
       -0.17558305 0.021967793 -0.38764936 0.2139633
000060 ad 93 4c 3d f6 05 d2 bd 83 e9 79 bd 03 db 2e 3e
       0.049945522 -0.10255043 -0.06101371 0.17075734
000070 e4 25 cd be 87 26 3b 3e a1 7a bb 3e d6 43 9e bc
       -0.4006797 0.18276416 0.36616996 -0.019319456
000080 77 bb b3 3e c9 20 7c be e3 54 f3 3e 49 96 98 3e
       0.35103962 -0.24621882 0.475257 0.29802158
000090 8b 94 3a be 51 b9 72 3e d0 bf 8d bd 6e d4 87 be
       -0.18220727 0.23703505 -0.06921351 -0.26529258
0000a0 00 4f a5 3e c0 30 19 3f c5 ee 4a be af 99 08 3e
       0.32286835 0.5984001 -0.19817646 0.13339876
0000b0 14 5f 62 3e 5d 7b 13 3d b8 b8 8e be 86 55 2a be
       0.22106582 0.03600632 -0.27875304 -0.16634187
0000c0 b1 18 b0 be ef 2b d8 bd 06 9b 4c 3e 67 15 0a bc
       -0.34393838 -0.10555255 0.19981012 -0.008427954
0000d0 ce 11 8e 3c 94 d0 8c bd 56 0f 36 be 2d 66 be be
       0.017342474 -0.068757206 -0.17779288 -0.3718733
0000e0 7c f4 c9 be ab cf 05 3e 83 f2 bb ba 98 14 0c be
       -0.3944434 0.130675 -0.0014339242 -0.13679731

decoder_layer_list.1.bias f4 [10]
000000 84 de 06 3f ab 7c 92 be c3 fb d8 3e f7 41 06 bd
       0.5268328 -0.2861074 0.4237958 -0.032777753
000010 d9 72 1e 3f 22 c4 dd 3e c2 2f 16 b8 c6 8e 92 be
       0.61893994 0.433137 -3.5807265e-05 -0.28624552
000020 5a 7b f0 3e 3d 1f cf be
       0.4696911 -0.4045352

decoder_layer_list.2.weight f4 [15, 10]
000000 3d d6 d6 3e 7f d2 3e 3e cf 3b c5 3e 7d 79 57 3e
       0.41960326 0.18634985 0.38522193 0.21042438
000010 91 5c 02 3f 1a d3 34 be 97 80 96 be 9b dc 1a bd
       0.50922495 -0.17658654 -0.2939498 -0.037808042
000020 25 57 4a bd c0 ed 8e be ea 48 f7 3e 2f 88 da bc
       -0.049399514 -0.27915764 0.48297817 -0.026676266
000030 1e 3a e8 3e 25 5d 9a 3e ee 61 d9 3e 98 42 d5 be
       0.4535684 0.3014919 0.42457527 -0.4165237
000040 6b 28 09 bd e4 d1 40 bd a0 52 14 be c6 cb 6d 3e
       -0.03348581 -0.047075167 -0.14484644 0.23222265
000050 a3 bd 54 be c4 fb 5c 3e de 10 73 be 96 bb 9d be
       -0.20775466 0.21580416 -0.23736903 -0.3080718
000060 77 77 ed be 00 1d f9 3d 1e 64 d0 3e 9b 15 6d be
       -0.46380207 0.121637344 0.40701383 -0.23152773
000070 2e b5 53 be 9f ba 79 3e f8 9a c7 be f4 2d fd bc
       -0.20674583 0.24387597 -0.3898542 -0.030905701
000080 ff b7 9f be bd 07 99 3d be 67 9d be ed 6b e1 3d
       -0.31195065 0.07472179 -0.30743212 0.11006913
000090 25 e0 fa 3d 34 08 58 3e 13 67 20 3d 10 c5 7a 3e
       0.122497834 0.21096879 0.0391608 0.24489236
0000a0 b1 36 7d be e4 31 a2 3e f4 75 11 bf 52 57 db bd
       -0.24727894 0.3167869 -0.5682061 -0.107100144
0000b0 f9 f4 04 bf c5 07 88 3e 9c ed e7 3d 5a ab 74 be
       -0.519363 0.26568428 0.11324617 -0.2389349
0000c0 99 34 ae be 41 d4 6c 3d 2c 6a 8d be ae 6c 1c be
       -0.34024504 0.05781961 -0.27620065 -0.15275833
0000d0 11 2f 42 be 75 97 3a be 39 25 0e be 4c c8 a6 be
       -0.18963267 -0.18221839 -0.13881387 -0.3257469
0000e0 a2 99 c5 3d a1 89 39 3e ea 86 66 be db fe 9a 3e
       0.09648444 0.18118908 -0.22512403 0.30272564
0000f0 a5 9a 28 be 49 6d b7 bc f4 6d 6b bd eb 3a 09 be
       -0.16465242 -0.022390978 -0.057477906 -0.13401382
000100 8b 47 b0 be 9f 40 63 3d 76 4a 38 be 6b 00 75 3d
       -0.34429583 0.05548155 -0.17997155 0.05981485
000110 26 bd b7 3c fe a0 81 3e ab 46 b5 be 1f 1f 55 3d
       0.02242906 0.2531814 -0.35405478 0.052031633
000120 9a cb 09 be 59 d1 79 3e 59 e1 71 bd ca 73 9b be
       -0.13456574 0.24396266 -0.0590528 -0.30361778
000130 a2 c6 fd 3d 79 21 28 3e e3 98 2a bd 4c 40 67 be
       0.12391402 0.16419019 -0.04164971 -0.22583121
000140 00 8d 04 3e 12 a2 5e 3e 35 1c 37 3d 29 92 42 be
       0.12944412 0.21741512 0.044704635 -0.19001068
000150 64 dd 17 3e c6 7d 7c be 4b 7f 65 3e 38 89 95 be
       0.14830548 -0.24657354 0.2241184 -0.29206252
000160 67 d1 c6 be 98 90 07 3e 78 c3 ca 3c 29 24 5b 3d
       -0.38831636 0.13238752 0.02475141 0.053501282
000170 df 4a 18 be 54 2f 89 be e0 f0 d3 be e2 22 87 3d
       -0.14872311 -0.2679392 -0.4139471 0.0659845
000180 c9 e2 73 be 53 1d 06 be 84 8a 77 be a2 0d bd bc
       -0.2381698 -0.13097124 -0.24173933 -0.02307779
000190 88 e5 b9 3d 7e 1e 43 3e 2d 8d 4a bd 89 c9 19 3e
       0.09076983 0.190546 -0.049451042 0.15018286
0001a0 9d bc 1c be 0d ea 3c be 75 ef bd 3d 43 b6 e4 bd
       -0.15306325 -0.18448658 0.092741884 -0.11167576
0001b0 aa e9 9e be b0 d3 a6 3d ed 95 bc bd b6 8a 13 be
       -0.31037647 0.08145845 -0.092082836 -0.14408383
0001c0 0f 9a 68 be 28 8a d5 bd 85 d9 0b 3e db e5 69 3e
       -0.22715019 -0.10426742 0.13657196 0.22841589
0001d0 92 e7 45 be 98 02 40 3e 1e f4 2e bd 31 15 df bd
       -0.19326618 0.1875099 -0.042713277 -0.10892714
0001e0 e7 be 62 3e 4c eb 6f be 9b 31 ff 3b 07 ba 61 be
       0.22143136 -0.23429602 0.007787896 -0.2204362
0001f0 6e 59 4a 3e e3 7f 21 3d 05 5c b9 3d a0 99 a0 3e
       0.19760677 0.039428603 0.090507545 0.31367207
000200 05 19 4e 3e 2c e4 e7 bd 4f 1c c9 3d 2c 28 30 be
       0.20126732 -0.11322817 0.098198526 -0.17202824
000210 2c ae 32 be 3d a1 e5 3c 41 9e 03 3d f9 16 9f bd
       -0.17449254 0.028030986 0.032133345 -0.077680536
000220 f5 75 b5 bc 56 f6 84 3e e0 17 18 3e 25 b7 9f 3e
       -0.022150973 0.2596919 0.14852858 0.31194416
000230 11 54 a8 3d 21 40 97 be ab d7 e0 bd 24 c1 67 be
       0.082191594 -0.29541114 -0.109786354 -0.22632271
000240 17 a7 82 bb 9c b5 8f bd 6e 23 e4 3c 3e 27 8f 3c
       -0.003987204 -0.07017061 0.027848925 0.017474767
000250 82 78 9f be 8f cc 5e be
       -0.31146628 -0.2175772

decoder_layer_list.2.bias f4 [15]
000000 ae b4 b4 bd ab df 8b 3d 8d b9 c3 3d 6f 63 ed 3c
       -0.088235244 0.06829771 0.095568754 0.028978078
000010 80 c4 62 3e bc e3 0d 3e ad d8 e1 bd 45 5b 14 3c
       0.22145271 0.13856405 -0.11027656 0.0090549635
000020 ce a8 73 be d6 6f 31 3c 84 da 43 3e f9 81 bc bd
       -0.23794863 0.010829886 0.19126326 -0.09204478
000030 bc 79 8e be 88 28 56 3d 71 9c 49 3e
       -0.2782725 0.052284747 0.19688584
