result/FairOD_weights/obfuscation_bias/cluster/seed_127/biasRate_0.05.pt (torch, 5778 bytes, 11 tensors)

encoder_layer_list.0.weight f4 [7, 15]
0.51301265 0.6911896 -0.55166626 -0.45551452 -0.4619184 0.15193886 0.20020273 -0.037711088
0.051117327 0.19338733 0.24827892 0.1674528 0.21579418 0.17402029 0.45348567 -0.36422616
-0.52706784 0.5108024 0.66160214 0.49328908 0.2755637 0.39954627 0.22613256 0.24870148
0.1647948 0.14628409 0.11183413 0.11452247 0.25651312 0.22652927 0.61980516 0.5764933
-0.345289 -0.29595065 -0.4946719 0.124543235 0.23781487 -0.038922004 0.07621918 0.12603013
0.18502776 0.494149 0.3548144 0.35582107 0.56726354 0.07867518 -0.019756867 0.15201789
-0.015339149 0.010303847 -0.048144218 -0.04718768 -0.123939306 -0.10152812 0.017565174 0.042991653
0.054508813 -0.03872249 -0.10619738 0.08398611 -0.19694665 -0.14335595 0.080758356 0.29607308
0.28869456 0.21868701 0.22184327 0.40813234 0.40544724 0.11575416 -0.050315853 -0.046663795
0.1842401 0.22472006 -0.16801749 0.6646787 0.55198604 -0.2384364 -0.34662783 -0.3866055
0.037718058 0.29507846 0.015994612 -0.15670116 0.23168108 0.27812758 0.37809044 0.24865296
0.22142655 0.39951617 4.0252632e-14 -1.2953136e-15 1.4944652e-05 -0.000357894 -2.4923182e-08 0.00022769447
-1.9690609e-14 -0.00021544243 2.5017589e-14 4.08179e-14 -1.5915176e-13 1.706755e-05 -1.2996797e-05 3.7266444e-05
-1.8394914e-05
00000000: cc54 033f cdf1 303f 003a 0dbf 3339 e9be
00000010: 9280 ecbe dc95 1b3e f201 4d3e f176 1abd
00000020: 6760 513d 5407 463e d43c 7e3e bf78 2b3e
00000030: 26f9 5c3e 6032 323e 462f e83e da7b babe
00000040: ebed 06bf f2c3 023f c25e 293f 6390 fc3e
00000050: af16 8d3e 5491 cc3e 4b8f 673e 9aab 7e3e
00000060: f8bf 283e 7fcb 153e 4b09 e53d c28a ea3d
00000070: b055 833e 4af7 673e 8dab 1e3f 1195 133f
00000080: b8c9 b0be d886 97be a345 fdbe 8610 ff3d
00000090: be85 733e ae6c 1fbd cd18 9c3d 0b0e 013e
000000a0: eb77 3d3e 1901 fd3e 3caa b53e 2e2e b63e
000000b0: 2f38 113f 7420 a13d 27d9 a1bc 94aa 1b3e
000000c0: 0e51 7bbc 77d1 283c df32 45bd de47 41bd
000000d0: e4d3 fdbd faed cfbd d7e4 8f3c 0418 303d
000000e0: a244 5f3d 799b 1ebd 037e d9bd e900 ac3d
000000f0: 62ac 49be e7cb 12be a364 a53d e496 973e
00000100: c6cf 933e 7def 5f3e e22a 633e b9f6 d03e
00000110: c896 cf3e 8410 ed3d ff17 4ebd 8922 3fbd
00000120: 70a9 3c3e 041d 663e c70c 2cbe 6228 2a3f
00000130: f54e 0d3f ac28 74be 3479 b1be 28f1 c5be
00000140: 407e 1a3d 8614 973e 2207 833c 4576 20be
00000150: ce3d 6d3e bd66 8e3e 1295 c13e e29e 7e3e
00000160: a4bd 623e 628d cc3e 2048 3529 a3ac baa6
00000170: cbba 7a37 b8a3 bbb9 a816 d6b2 45c1 6e39
00000180: 745b b1a8 63e8 61b9 a256 e128 d6d3 3729
00000190: 5f30 33aa 492c 8f37 d10c 5ab7 8a4e 1c38
000001a0: c74e 9ab7

encoder_layer_list.0.bias f4 [7]
0.43629962 -0.13505763 0.45681724 0.1553973 -0.1272585 0.5456677 -0.00010511154
00000000: aa62 df3e 8c4c 0abe f3e3 e93e 7820 1f3e
00000010: 0d50 02be e1b0 0b3f 546f dcb8

encoder_layer_list.1.weight f4 [3, 7]
1.6907287e-16 -6.652866e-07 -2.0942567e-13 0.00041257986 1.086214e-15 -2.2498338e-12 -0.002447055 -0.12255614
0.5888176 0.020728024 -0.17163503 0.36687288 -0.010601233 0.00015587789 0.71616286 -0.71583855
0.5654176 0.2000441 -0.3927808 0.48377046 -0.00088417385
00000000: 81ed 4225 2696 32b5 d7ca 6baa 884f d839
00000010: 398a 9c26 6751 1eac c55e 20bb b7fe fabd
00000020: c0bc 163f d1cd a93c 18c1 2fbe c3d6 bb3e
00000030: cbb0 2dbc 2773 2339 7356 373f 3241 37bf
00000040: 35bf 103f 5cd8 4c3e 911a c9be c3b0 f73e
00000050: e7c7 67ba

encoder_layer_list.1.bias f4 [3]
-0.0013637225 0.22612289 0.5022066
00000000: efbe b2ba c28c 673e 9d90 003f

encoder_layer_list.2.weight f4 [1, 3]
0.0007152876 -0.48004347 1.1010209
00000000: 2382 3b3a 42c8 f5be 41ee 8c3f

decoder_layer_list.0.weight f4 [3, 1]
-0.36912048 0.6130508 1.1023907e-05
00000000: 5cfd bcbe e6f0 1c3f 52f3 3837

decoder_layer_list.0.bias f4 [3]
1.0132214 0.0057632723 -0.22391452
00000000: 3db1 813f d5d9 bc3b d949 65be

decoder_layer_list.1.weight f4 [7, 3]
-0.4833951 0.8137028 0.03238018 -0.25494492 0.66718286 -0.06815524 0.61369157 -0.12538542
0.057792954 -0.037789416 3.2339056e-17 0.032818194 1.0245943e-06 -1.6359393e-14 -2.1700804e-17 1.0989538
-0.18916808 4.6447238e-18 0.0805385 0.4141984 0.08264752
00000000: 907f f7be d44e 503f 14a1 043d 2488 82be
00000010: 7fcc 2a3f f994 8bbd e41a 1d3f 0965 00be
00000020: 4eb8 6c3d 13c9 1abd 3823 1524 5f6c 063d
00000030: cb84 8935 315a 93a8 9327 c8a3 85aa 8c3f
00000040: 47b5 41be 2d5c ab22 5ef1 a43d d011 d43e
00000050: 1a43 a93d

decoder_layer_list.1.bias f4 [7]
0.38129452 0.18825781 0.9324781 -0.029238755 -8.7464025e-05 0.4982042 0.43540257
00000000: 0939 c33e a8c6 403e e2b6 6e3f 1d86 efbc
00000010: e46c b7b8 9f14 ff3e 16ed de3e

decoder_layer_list.2.weight f4 [15, 7]
0.49472314 0.23399296 -0.4328952 2.8784763e-05 -6.800676e-05 -0.5954101 0.0694519 0.55962795
0.41195524 -0.45289695 7.7880635e-05 -4.315443e-17 -0.35538816 -0.27024728 -0.5643551 -0.4944957
0.052513845 0.0005164285 -1.6202326e-17 0.5648035 0.27576435 -0.4729112 -0.10619298 0.39252922
1.742879e-15 2.7531456e-08 0.67795366 -0.41092625 -0.33809477 -0.41278964 0.55207324 -0.0034003837
0.0011373735 0.47255102 -0.30095288 -0.1064064 0.23292707 0.068024285 1.5183677e-16 -1.2434027e-18
-0.085776836 -0.25843433 0.09192766 -0.4118265 -0.46906397 5.103309e-10 0.0014692085 0.06535752
0.21491545 -0.034515817 0.10173363 0.24018398 -1.8815383e-09 0.0007746778 -0.18368569 -0.1772698
-0.27761754 0.021177664 -0.09940412 -7.033037e-09 0.0002850348 -0.26556912 0.18082125 0.18474883
-0.04877945 -0.16884486 8.4276314e-13 1.8180938e-08 0.17629962 -0.25882536 -0.04099651 0.2355442
0.098279834 -2.4675901e-14 1.290756e-15 0.07113875 -0.17062035 0.08929484 -0.009659693 -0.030950544
-0.00090033736 -1.2490475e-17 0.25666434 0.10675223 0.021007178 0.06535265 -0.16633669 -0.0017277941
1.2565978e-15 0.02067841 -0.29866427 -0.32533967 0.19946869 -0.12691732 1.58465e-19 3.6004155e-17
-0.09178691 0.18838042 0.23926821 -0.08361922 -0.23753086 0.005012039 -1.2668666e-17 0.32464933
-0.16452143
00000000: 5a4c fd3e da9b 6f3e 71a4 ddbe cf76 f137
00000010: da9e 8eb8 cc6c 18bf cc3c 8e3d c743 0f3f
00000020: cceb d23e 1ce2 e7be d953 a338 c203 47a4
00000030: 70f5 b5be da5d 8abe 9379 10bf 8a2e fdbe
00000040: c218 573d ee60 073a a970 95a3 f696 103f
00000050: fc30 8d3e 6b21 f2be b57b d9bd 97f9 c83e
00000060: e32c fb26 507e ec32 5f8e 2d3f ed64 d2be
00000070: c21a adbe 2a59 d3be ac54 0d3f f9d8 5ebb
00000080: ec13 953a 35f2 f13e 7f16 9abe 99eb d9bd
00000090: 6f84 6e3e 5150 8b3d 4e0e 2f25 6d7e b7a1
000000a0: c4ab afbd 8151 84be 9244 bc3d ecda d2be
000000b0: 2729 f0be 5847 0c30 7592 c03a 2ada 853d
000000c0: cc12 5c3e 7560 0dbd b959 d03d caf2 753e
000000d0: 5f4c 01b1 bf13 4b3a 1a18 3cbe 3786 35be
000000e0: e323 8ebe c87c ad3c 6394 cbbd 3fa7 f1b1
000000f0: b970 9539 adf8 87be 3529 393e cc2e 3d3e
00000100: f6cc 47bd abe5 2cbe 7c37 6d2b 4e2c 9c32
00000110: e387 343e c284 84be f5eb 27bd 8032 713e
00000120: f046 c93d c142 dea8 7e04 ba26 31b1 913d
00000130: 1ab7 2ebe 37e0 b63d b043 1ebc ff8b fdbc
00000140: 9e04 6cba 9a68 66a3 8269 833e eaa0 da3d
00000150: 3f17 ac3c 9cd7 853d 2a54 2abe 2677 e2ba
00000160: 4718 b526 c565 a93c 86ea 98be ec92 a6be
00000170: 8541 4c3e 9df6 01be 1c15 3b20 340a 2624
00000180: c7fa bbbd cce6 403e ba02 753e 8e40 abbd
00000190: 4a3b 73be 083c a43b 15b2 69a3 7038 a63e
000001a0: 4e78 28be

decoder_layer_list.2.bias f4 [15]
-0.011587167 -0.11626401 0.38990152 0.20900822 0.3200693 -0.22173823 0.12470528 -0.4074251
0.13200527 -0.28980914 -0.269043 -0.45772055 0.45120516 0.17955196 -0.05066289
00000000: 1ad8 3dbc d31b eebd 2ca1 c73e 4006 563e
00000010: 20e0 a33e 590f 63be 7b65 ff3d 069a d0be
00000020: 642c 073e dd61 94be 01c0 89be 595a eabe
00000030: 5d04 e73e 78dc 373e e483 4fbd
