result/FairOD_weights/variance_shift/cluster/seed_127/biasRate_0.pt (torch, 5410 bytes, 11 tensors)

encoder_layer_list.0.weight f4 [6, 15]
000000 39 fd d6 3c 06 67 82 be a2 c8 2e be b6 26 c3 bc
       0.026243793 -0.25469226 -0.17068723 -0.02382217
000010 43 b5 88 bd 55 46 2a 3e 38 a3 23 bd f8 b0 cd 3d
       -0.06675198 0.16628392 -0.03995058 0.1004352
000020 04 36 54 bd 95 3e 65 3e ff 81 74 3d 12 0a 50 3e
       -0.051809326 0.22387154 0.059694286 0.20316342
000030 f0 19 55 be 60 32 16 3e d9 2c 2d be 54 25 05 be
       -0.20810676 0.14667654 -0.1691164 -0.13002521
000040 d3 aa 6d be cf 4f e5 3d 0f 6f 1a be a5 a8 e5 bd
       -0.23209696 0.11196863 -0.15081428 -0.11213807
000050 a6 c9 a8 bc 6d 07 45 3e 88 a3 e9 bd b1 58 6b be
       -0.020603966 0.19241114 -0.11408144 -0.22983052
000060 e7 51 6c 3d 15 eb 5d be 69 06 13 3e e1 56 a4 bd
       0.057695296 -0.21671708 0.14357914 -0.08024383
000070 52 20 4b 3e ed 4d 3a 3e 23 97 7c 3e fb e2 25 be
       0.19836548 0.18193789 0.24667029 -0.16199867
000080 ee f4 11 bd c4 15 86 bd f0 0f 75 bd ad 5c b4 bc
       -0.035633974 -0.0654712 -0.059829652 -0.022016848
000090 54 66 eb 3d b4 0f 76 3e 3c 99 89 bd 2b 51 82 3c
       0.11494127 0.24029428 -0.0671868 0.015907845
0000a0 42 55 80 3d 69 2e 0a 3e 26 69 1d 3e 0e 11 62 be
       0.06266262 0.13494267 0.15372142 -0.22076818
0000b0 46 41 47 be 96 f6 32 3d f6 a9 1a 3e 1a 7c 04 3c
       -0.19458494 0.043692194 0.15103897 0.008086229
0000c0 a8 47 02 3e d7 c1 72 3e 90 dc a4 3d bb 2e 8a 3d
       0.12722647 0.23706757 0.080498815 0.067471944
0000d0 49 e5 47 be 6e b4 9d bc c1 13 96 bd 61 41 b6 bc
       -0.19521059 -0.019251075 -0.073279865 -0.022247972
0000e0 91 b8 62 be 5d 2f 2b be 9e c5 23 be 95 44 f2 bd
       -0.22140719 -0.16717286 -0.15993354 -0.11829487
0000f0 88 a3 47 3e 69 b0 cb 3d 0f b2 76 bd c9 98 21 3e
       0.19495976 0.09945757 -0.060228404 0.15780939
000100 89 5b b9 bd 7b a6 9b bc 7f 3c ac 3d 5d 0c fa bd
       -0.09050662 -0.019000283 0.08409976 -0.12209389
000110 f5 ed b0 3c 14 e8 9b 3d d9 20 01 3d 94 5b 81 3e
       0.021597842 0.07612625 0.031525467 0.2526518
000120 c6 c1 45 3e d8 6d 77 3e 59 11 16 3e b1 19 1a 3d
       0.193122 0.24162996 0.14655055 0.037622157
000130 b0 40 61 bd 84 fa 32 3e 23 51 3a be a5 37 aa bc
       -0.05499333 0.17478377 -0.18195014 -0.020778487
000140 65 73 00 be ad 76 58 be 45 3c 4b 3e 95 99 a6 3d
       -0.1254402 -0.21139021 0.1984721 0.08134762
000150 84 2c 4a 3d 21 29 11 be 37 f4 76 3e c4 c9 e3 3d
       0.04935886 -0.14175846 0.24116598 0.11122468
000160 20 c4 04 be 77 80 00 be
       -0.12965441 -0.12549005

encoder_layer_list.0.bias f4 [6]
000000 05 a4 4a be 7f 01 de 3d f9 3f 2e be 6b 01 62 3e
       -0.19789131 0.10840129 -0.17016591 0.22070853
000010 70 27 68 be c8 73 89 bd
       -0.22671294 -0.06711537

encoder_layer_list.1.weight f4 [2, 6]
000000 ea 03 4a 3e 92 7d fc 3d 14 e1 22 3e ee 2b a9 3e
       0.19728056 0.12328638 0.15906173 0.33041328
000010 12 1c 6c be 49 57 cc 3e d7 24 8b be c3 1b a0 be
       -0.23057583 0.39910343 -0.27176544 -0.3127118
000020 a5 21 bf 3e f0 d0 ce be c2 03 e1 3d 40 b9 2b 3e
       0.37330356 -0.40393782 0.10987045 0.16769886

encoder_layer_list.1.bias f4 [2]
000000 f7 ae ac bc 86 d1 85 be
       -0.021079523 -0.26136416

encoder_layer_list.2.weight f4 [1, 2]
000000 56 7e 1a bd 9b 67 47 3e
       -0.03771814 0.19473116

decoder_layer_list.0.weight f4 [2, 1]
000000 24 0f ce be 34 53 20 bf
       -0.40245926 -0.6262696

decoder_layer_list.0.bias f4 [2]
000000 dc 9e c6 be c0 42 7e bf
       -0.38793075 -0.993206

decoder_layer_list.1.weight f4 [6, 2]
000000 bb 42 0b 3e ae c4 90 3e ee 7e 09 3f ce e6 22 3f
       0.13599674 0.28275055 0.53709304 0.6363343
000010 d1 f8 1a bf 29 da 0f bf af c2 01 3f 2b bc 1f bf
       -0.60535914 -0.5619226 0.5068769 -0.62396497
000020 65 58 a3 3d fa 94 83 3d 0d cb 24 bd 0b 62 c8 3e
       0.07975844 0.064248994 -0.040232707 0.391373

decoder_layer_list.1.bias f4 [6]
000000 a4 b8 ac 3e 26 73 33 bf bd 19 bb 3e e1 c0 ae bc
       0.3373462 -0.7009758 0.36543074 -0.021332206
000010 a5 29 3e 3f cf 72 7a 3f
       0.74282295 0.97831434

decoder_layer_list.2.weight f4 [15, 6]
000000 d8 cf 0b 3e 61 2e 4b be 92 4f 35 3d a4 28 78 3e
       0.13653505 -0.19841911 0.044265337 0.24234253
000010 4c 4b f6 3a c0 1b 5a 3e e6 d1 0a be 9e 41 81 3e
       0.0018790751 0.21299648 -0.13556632 0.25245374
000020 89 ed 47 3e d6 dc 52 3c 96 77 08 be a1 40 e8 3d
       0.19524206 0.012870034 -0.13326868 0.11340452
000030 35 98 a6 3d c1 2f 16 3e b7 52 4a be c5 bf 5d 3e
       0.081345 0.14666654 -0.19758116 0.21655186
000040 99 67 5e 3c 41 2c af 3c 1a 23 ae be 14 ef 52 be
       0.013574504 0.021383407 -0.34011155 -0.20599014
000050 69 d2 0c 3e 7c 68 89 be e8 c8 8a bc 14 5f 93 bc
       0.1375214 -0.26837528 -0.016941503 -0.017989673
000060 3c 23 66 3e 30 96 a8 3e 56 bc 5a be e2 b1 bf 3e
       0.22474378 0.32927084 -0.21360907 0.374404
000070 82 22 b3 3b da e3 33 3d 2d be 41 be 82 e3 37 3e
       0.00546676 0.043918468 -0.18920203 0.17957881
000080 b9 7d 96 bd 03 12 09 3d bc ad bb be 83 2d 51 be
       -0.073481984 0.033464443 -0.36655986 -0.20427518
000090 80 d9 73 3e 57 0e a4 bc aa c6 41 be e8 c6 a9 bd
       0.23813438 -0.020026369 -0.1892344 -0.082898915
0000a0 c9 e7 a6 be 12 44 fa be 63 c1 f7 3d 1f 1f 10 be
       -0.32598713 -0.4888006 0.120974325 -0.14074372
0000b0 ef 36 16 3d cc 00 07 3e fc d8 0a bf 97 86 01 bf
       0.036673483 0.13183898 -0.5423734 -0.5059599
0000c0 11 bc d1 be 56 01 7c 3d 29 8c 36 be e6 65 04 3e
       -0.40963796 0.06152471 -0.17826904 0.12929496
0000d0 53 ec e6 be d3 9e 05 bf c7 8e ce bd ea 1e c4 bd
       -0.45102176 -0.5219547 -0.10085826 -0.09576209
0000e0 c7 67 af be 55 4d 89 be ca 8c 41 be 85 eb eb be
       -0.34258863 -0.26816812 -0.18901363 -0.46078125
0000f0 09 3b 37 3e 37 43 c2 3e 0a aa a5 be 9c 0f b2 be
       0.17893614 0.37941906 -0.32356292 -0.34777534
000100 2b 14 38 3c 40 2f 8e be b3 67 0e be 66 b0 8f 3e
       0.011235277 -0.27770424 -0.13906746 0.2806427
000110 99 ce 71 3d aa e9 b7 be c1 68 2b be 12 69 50 be
       0.059034918 -0.3592046 -0.16739179 -0.20352581
000120 6c 42 53 bd 05 6f f6 3c a3 2b 19 3e b8 0a 96 3e
       -0.051577017 0.030082235 0.14958052 0.29305053
000130 10 ad 88 bc ef 3e 1e be 92 42 ce 3e 36 ef 9a be
       -0.016684085 -0.15453695 0.40285164 -0.30260628
000140 2f 6a 4e 3d b5 82 39 be 1c 4e e2 3d f9 83 a3 be
       0.050394233 -0.18116267 0.110500544 -0.31936625
000150 85 25 ab 3d 09 37 a5 3e 23 a3 92 be 2d 41 4f 3e
       0.08356766 0.3226855 -0.28640088 0.20239706
000160 33 28 2f 3e 5c 94 ad 3e
       0.17105179 0.33902252

decoder_layer_list.2.bias f4 [15]
000000 c0 01 99 be 8b 29 91 bd 08 1d 24 bd 36 9a 63 3d
       -0.29884148 -0.07088002 -0.04006675 0.05556699
000010 38 dc e4 bc 83 ec 8e be cd 84 43 be 16 da e0 bd
       -0.02793704 -0.2791482 -0.19093628 -0.109790966
000020 ca c5 9b 3d 15 ac 9b be 97 30 6b 3e c4 43 97 3e
       0.07606085 -0.30404726 0.22967754 0.2954389
000030 71 73 41 3e 22 b7 94 3c 02 32 b5 be
       0.18891694 0.01815373 -0.35389715
