result/FairOD_weights/variance_shift/cluster/seed_127/biasRate_4.pt (torch, 10146 bytes, 12 tensors)

encoder_layer_list.0.weight f4 [15, 15]
0.3906744 0.077480026 -0.15669735 -0.32414317 -0.29667196 0.36625487 -0.02545873 0.25727963
0.2930327 0.24729653 0.12707523 0.08014293 -0.0033443945 -0.13841313 -0.04408182 -3.911594e-11
1.1591989e-05 -0.03349765 -0.054576196 -0.05043958 -2.6842695e-10 -0.10091038 0.043053523 -0.07253777
0.05831265 0.04100127 -0.016310047 -6.0056795e-05 7.92015e-40 -0.050255455 0.37386784 0.06987655
-0.30882856 -0.18131626 0.014090898 0.0721994 -0.03250408 0.17100778 -0.16911289 0.2547773
-0.029711898 -0.052680466 0.03683183 0.0038306734 0.2469568 0.113581106 0.37967217 0.1144642
0.35857433 -0.045995925 -0.08694328 0.07609942 0.09543498 0.11012565 0.28280646 0.27289927
0.18830281 0.17583328 0.28164595 -0.06695896 -0.103723906 -0.37424514 0.36065784 0.20146766
-0.0122698555 0.035734408 0.14381519 0.10923923 -0.10321985 0.17352708 0.028079117 -0.054289035
0.15481038 -0.089423776 0.22153962 -0.110951185 0.05813015 -0.009586807 0.060642757 -0.02216508
1.696641e-05 -0.059320495 0.073572665 0.023405254 -0.044054314 -0.04796919 -0.037211742 -0.01406045
-0.08008622 -3.714538e-08 0.37904167 0.4255866 -0.20579506 -0.1210334 -0.39336658 -0.07612796
0.10812404 -0.0006683142 0.15153055 -0.12854764 -0.06524386 0.24450856 0.3012177 0.31197146
0.19690654 -0.03040493 0.025143472 -0.068617254 0.0025831633 -0.0013869744 -1.9718059e-22 -0.059177194
-0.047134772 -6.535282e-06 1.529296e-21 -0.008237858 0.014343926 0.035447188 4.5010015e-10 -0.008093252
0.407112 0.11834763 0.09773029 0.19682354 0.23551494 0.27675152 -0.22469312 0.14609621
0.05917751 0.09564682 -0.01019007 0.31846523 0.22483069 -0.024031118 0.19650938 0.26699978
0.12273531 -0.049645435 -0.36558223 -0.38831437 0.018278 0.3920447 0.14397566 0.4102169
0.036750026 0.27737853 0.18435033 -0.032272194 0.17243913 -0.029325861 0.24770698 0.21715316
0.19395949 0.21149746 -0.0420422 0.22040346 -0.16123267 -0.065330885 -0.12579377 -0.077205546
0.18898655 0.3056222 0.118915506 -0.025362518 0.19408754 -0.084364735 -0.04528722 0.15761273
0.3328151 0.26477522 0.018672174 0.2340904 -0.17476916 0.010873156 0.13425305 0.1438692
0.38939962 0.21299292 0.23283051 0.38676953 -0.07870894 -0.33432615 0.39468038 0.022950467
0.28413153 -0.067742616 -0.10457753 0.2047623 0.07144589 0.16886742 0.25725138 0.20558733
0.31490082 -0.026293747 0.36403832 0.32283723 0.22355807 -0.18896535 -0.31125316 -0.08488824
-0.022513809 0.18331118 0.12410584 0.3606849 0.27187148 0.05296463 0.11554108 -0.039491393
0.073778816 0.20727606 -0.04447313 -0.33377984 0.06883408 0.2813145 0.06578852 -0.03564731
0.121108845 0.04992156 -0.027757626 -0.056832056 -0.029068587 0.15127368 -0.006025147 0.1754507
-0.11201368
00000000: 7a06 c83e d9ad 9e3d 4575 20be 18f6 a5be
00000010: 63e5 97be c285 bb3e d48e d0bc 28ba 833e
00000020: 6208 963e 4d3b 7d3e 0220 023e fa21 a43d
00000030: a12d 5bbb 2cbc 0dbe 238f 34bd a208 2cae
00000040: 377b 4237 d534 09bd 4a8b 5fbd bc99 4ebd
00000050: bc91 93af 1aaa cebd e458 303d af8e 94bd
00000060: 3fd9 6e3d f3f0 273d a69c 85bc 7ee5 7bb8
00000070: d19f 0800 aad8 4dbd 9b6b bf3e 701b 8f3d
00000080: c71e 9ebe f8aa 39be 83dd 663c 47dd 933d
00000090: 0023 05bd aa1c 2f3e ee2b 2dbe 2c72 823e
000000a0: 5e66 f3bc 79c7 57bd f9dc 163d 090c 7b3b
000000b0: 3ee2 7c3e 369d e83d 6464 c23e 356c ea3d
000000c0: 0e97 b73e 3966 3cbd 520f b2bd 03da 9b3d
000000d0: 6a73 c33d 8f89 e13d 02cc 903e 74b9 8b3e
000000e0: 74d2 403e a40d 343e e633 903e c721 89bd
000000f0: 336d d4bd 0f9d bfbe 25a8 b83e 8a4d 4e3e
00000100: 8107 49bc 3e5e 123d 4a44 133e d1b8 df3d
00000110: ee64 d3bd 15b1 313e 2d06 e63c 2e5e 5ebd
00000120: 9d86 1e3e d023 b7bd 48db 623e 603a e3bd
00000130: e119 6e3d fc11 1dbc 8a64 783d 8b93 b5bc
00000140: 1753 8e37 0cfa 72bd 44ad 963d 60bc bf3c
00000150: 4c72 34bd 577b 44bd 576b 18bd cd5d 66bc
00000160: 3e04 a4bd c789 1fb3 c011 c23e 7de6 d93e
00000170: f1bb 52be 5ce0 f7bd 5867 c9be fae8 9bbd
00000180: 2370 dd3d cf31 2fba d32a 1b3e fea1 03be
00000190: 939e 85bd 7460 7a3e 3539 9a3e b9ba 9f3e
000001a0: dea1 493e c213 f9bc aff9 cd3c 3487 8cbd
000001b0: 4a4a 293b 23cb b5ba 7060 6e9b c963 72bd
000001c0: 6410 41bd a549 dbb6 c619 e71c 15f8 06bc
000001d0: c902 6b3c 1231 113d f771 f72f 8f99 04bc
000001e0: fc70 d03e 3e60 f23d d126 c83d 1c8c 493e
000001f0: d42a 713e 60b2 8d3e f415 66be 3f9a 153e
00000200: 1e64 723d 7be2 c33d 40f4 26bc e00d a33e
00000210: 043a 663e e8dc c4bc c139 493e 32b4 883e
00000220: a65c fb3d 0359 4bbd 982d bbbe 24d1 c6be
00000230: bfbb 953c 15ba c83e 5b6e 133e f307 d23e
00000240: 3287 163d 8f04 8e3e 55c6 3c3e d92f 04bd
00000250: e293 303e ca3c f0bc e6a6 7d3e 665d 5e3e
00000260: 519d 463e ca92 583e 7134 2cbd 72b1 613e
00000270: 2d1a 25be 33cc 85bd 15d0 00be f11d 9ebd
00000280: b185 413e 837a 9c3e f989 f33d 0ec5 cfbc
00000290: e2be 463e 6bc7 acbd 187f 39bd 3b65 213e
000002a0: be66 aa3e 9e90 873e 63f6 983c 65b5 6f3e
000002b0: b0f6 32be 5225 323c a279 093e 7352 133e
000002c0: 635f c73e d11a 5a3e 1f6b 6e3e a806 c63e
000002d0: 2732 a1bd cc2c abbe 8c13 ca3e 9e02 bc3c
000002e0: b079 913e a4bc 8abd be2c d6bd 35ad 513e
000002f0: 3952 923d 95eb 2c3e 74b6 833e 7c85 523e
00000300: ae3a a13e fc65 d7bc 3b63 ba3e ec4a a53e
00000310: 68ec 643e 2280 41be 935c 9fbe e3d9 adbd
00000320: e16e b8bc edb5 3b3e 342b fe3d b1ab b83e
00000330: bd32 8b3e 71f1 583d cda0 ec3d bac1 21bd
00000340: 5919 973d 2d40 543e 7529 36bd 31e5 aabe
00000350: e2f8 8c3d 7408 903e 22bc 863d ea02 12bd
00000360: ea07 f83d 8d7a 4c3d f663 e3bc bbc8 68bd
00000370: 3f21 eebc 7de7 1a3e 996e c5bb 59a9 333e
00000380: 6e67 e5bd

encoder_layer_list.0.bias f4 [15]
0.3158347 -0.089069575 0.25217813 0.2578184 0.39372697 -0.069693856 0.3018156 -0.077694185
0.07514593 0.21446836 0.17314552 0.31509188 0.021350263 0.07723615 0.1389288
00000000: 16b5 a13e 1c6a b6bd 7e1d 813e c600 843e
00000010: 9596 c93e a7bb 8ebd 9387 9a3e 211e 9fbd
00000020: 1ce6 993d 989d 5b3e 0f4d 313e b953 a13e
00000030: bfe6 ae3c fd2d 9e3d 5a43 0e3e

encoder_layer_list.1.weight f4 [15, 15]
-0.019624699 0.044305686 -0.2102137 0.0011669653 0.25214508 -0.013668458 -0.22108811 0.039731786
0.1859732 -0.34136128 0.0038329933 0.3243852 0.20219508 -0.22311246 0.08832807 -0.10947359
-0.0012963653 0.0779354 -0.023923768 0.010107187 0.0051162583 1.4204673e-05 -0.00010194809 -0.06256764
-0.02379546 -3.6582216e-11 -0.07824193 0.07859821 0.01913965 0.0057524187 0.005398263 -1.2823297e-30
0.22801414 0.22967668 0.015801586 1.043787e-39 -0.031096743 0.04313145 0.07129071 0.25337592
0.092945375 0.09717251 -0.3095307 0.29492772 -0.25497076 0.029426979 2.0005714e-08 0.030861914
-0.03269241 0.042474512 -0.077662036 -0.097921416 -0.09744371 -0.022268692 0.0135396775 -0.01281431
-0.019747345 0.007208262 0.047180306 -0.00041471343 -0.064266376 0.089209504 0.086959645 0.38569543
-0.051168498 0.03430882 0.19490108 -7.4220676e-05 0.059255723 -0.4078726 0.15851887 0.36741447
0.29575455 -0.30512747 -0.024974344 -0.2804701 5.6006982e-05 -0.18197064 0.19434267 0.23849016
-0.07472774 0.060023025 0.045800727 0.105842926 -0.05938738 0.07000964 0.080798656 -0.027911745
-0.1499466 0.016266564 0.38426033 0.016575282 0.088120155 0.3430712 0.19867152 -0.045147453
0.36087924 0.004804948 0.23222844 0.06802294 0.3292072 0.28568235 0.26623264 0.40247202
-0.027429914 -0.3397963 0.0005332333 0.075255714 0.18252413 0.31169838 0.009492105 -0.30353266
-0.0001519727 0.0046933773 -0.29849193 0.19942178 0.3300454 0.2071209 -0.32376844 0.28331748
-0.025987733 -0.00055638555 -0.033039145 0.061413996 -0.04630874 0.036387444 -0.0041466206 0.0050648684
-0.057708025 -0.027971359 -0.09061987 0.049571183 -0.10636194 0.007039834 4.92956e-40 -0.13292411
-0.087121055 -0.10403395 0.009925955 0.13198034 -0.105479516 -0.13436368 0.042314567 0.28544867
-0.25981092 0.1816263 0.04008934 0.25380266 -0.13714011 0.21051453 -0.28066954 -0.09598193
-0.32273716 0.26277706 0.33913004 0.00021239069 -0.20009504 0.055113126 0.4002532 0.025107862
0.22385725 0.39924046 0.031486202 -0.04846474 0.087093905 -0.35699162 0.055454448 -0.21241407
0.23868148 -0.06503224 -0.0011854988 -0.22157733 -0.038418405 0.108553395 0.03962204 0.12573738
0.30895883 0.17791677 -0.3777793 0.23031539 0.03557162 0.011024318 0.11309351 0.11717535
-0.23567964 0.031545363 0.31219295 0.08884736 0.1576023 0.13367395 0.14908476 -0.08977855
-0.02406235 -0.0056591225 -0.31064448 -0.01934726 -0.10402637 0.44787312 0.23737776 -0.11690794
-0.010232623 0.37129956 -0.109769076 0.36849654 -0.07552341 0.19698712 0.33812544 -0.24198696
-0.026774017 -0.15878679 0.37064412 0.01582313 0.040145915 0.3139045 -0.10280493 0.044862594
0.24159282 -0.03924928 0.30163357 0.19657828 0.13794333 0.29737952 -0.061541066 0.1449129
-0.18372504
00000000: fac3 a0bc e179 353d 4342 57be dcf4 983a
00000010: 2919 813e abf1 5fbc ec64 62be ccbd 223d
00000020: c26f 3e3e e8c6 aebe f532 7b3b d115 a63e
00000030: 3a0c 4f3e 9877 64be 59e5 b43d b133 e0bd
00000040: cdea a9ba 989c 9f3d c7fb c3bc 9d98 253c
00000050: 49a6 a73b 9b50 6e37 f7cc d5b8 7623 80bd
00000060: b2ee c2bc eae3 20ae 4e3d a0bd 19f8 a03d
00000070: c1ca 9c3c c97e bc3b eae3 b03b e411 d08d
00000080: 8a7c 693e 5d30 6b3e 5472 813c a75d 0b00
00000090: 99be febc 9aaa 303d dd00 923d 7dba 813e
000000a0: 255a be3d 6202 c73d cf7a 9ebe c400 973e
000000b0: 878b 82be d910 f13c 08d9 ab32 20d2 fc3c
000000c0: 7ae8 05bd c1f9 2d3d 460d 9fbd 068b c8bd
000000d0: 9190 c7bd d56c b6bc 86d5 5d3c 1df3 51bc
000000e0: 2fc5 a1bc 4933 ec3b 2340 413d e56d d9b9
000000f0: 179e 83bd 79b3 b63d e617 b23d df79 c53e
00000100: 0f96 51bd 6887 0c3d 2694 473e eca6 9bb8
00000110: 21b6 723d add4 d0be c552 223e c01d bc3e
00000120: 246d 973e ab39 9cbe ff96 ccbc c799 8fbe
00000130: 0ae9 6a38 8356 3abe c401 473e c436 743e
00000140: db0a 99bd b4da 753d 8b99 3b3d 2dc4 d83d
00000150: 2e40 73bd 3761 8f3d c479 a53d 2ca7 e4bc
00000160: 9a8b 19be 7541 853c c5bd c43e e3c8 873c
00000170: 5778 b43d 07a7 af3e 8c70 4b3e 89ec 38bd
00000180: 2ac5 b83e d372 9d3b 4bcd 6d3e 9c4f 8b3d
00000190: d98d a83e f544 923e a54f 883e d010 ce3e
000001a0: b3b4 e0bc c8f9 adbe aec8 0b3a ab1f 9a3d
000001b0: 9be7 3a3e ee96 9f3e c684 1b3c a268 9bbe
000001c0: dc5a 1fb9 e7ca 993b efd3 98be 3935 4c3e
000001d0: b6fb a83e 8017 543e fac4 a5be fd0e 913e
000001e0: 3ae4 d4bc 67da 11ba 0e54 07bd 3e8d 7b3d
000001f0: 3cae 3dbd 000b 153d 60e0 87bb 32f7 a53b
00000200: 405f 6cbd 3124 e5bc e996 b9bd 270b 4b3d
00000210: 4ad4 d9bd 68ae e63b 295e 0500 421d 08be
00000220: 866c b2bd c00f d5bd 79a0 223c db25 073e
00000230: a505 d8bd a296 09be 0a52 2d3d 5426 923e
00000240: f005 85be 3ffc 393e b834 243d 6cf2 813e
00000250: 756e 0cbe 1f91 573e ebb3 8fbe 2d92 c4bd
00000260: ce3d a5be b78a 863e 74a2 ad3e 31b5 5e39
00000270: b7e5 4cbe 4dbe 613d fded cc3e 01af cd3c
00000280: d63a 653e 3f69 cc3e adf7 003d f782 46bd
00000290: 4a5e b23d 9bc7 b6be 3424 633d 1383 59be
000002a0: eb68 743e 9f2f 85bd bd62 9bba 2be5 62be
000002b0: 9e5c 1dbd 3e51 de3d b84a 223d 4dc1 003e
000002c0: da2f 9e3e d02f 363e 4a6c c1be ccd7 6b3e
000002d0: 8cb3 113d 579f 343c 929d e73d a1f9 ef3d
000002e0: 0156 71be b635 013d c1d7 9f3e 9bf5 b53d
000002f0: 7f62 213e d3e1 083e ada9 183e d1dd b7bd
00000300: 681e c5bc 2970 b9bb cb0c 9fbe 257e 9ebc
00000310: c70b d5bd a04f e53e 2813 733e 6e6d efbd
00000320: bba6 27bc fa1a be3e 9cce e0bd 94ab bc3e
00000330: 05ac 9abd feb6 493e c71e ad3e 6ecb 77be
00000340: 2f55 dbbc 0199 22be 11c5 bd3e 829f 813c
00000350: 0b70 243d 17b8 a03e 648b d2bd d7c1 373d
00000360: 1c64 773e dac3 20bd b76f 9a3e d14b 493e
00000370: 0441 0d3e 2142 983e 7c12 7cbd 0c64 143e
00000380: 6b22 3cbe

encoder_layer_list.1.bias f4 [15]
0.067814074 -0.07088454 -0.09450946 -0.00036388263 0.32262698 0.00052088324 0.2497889 0.32330287
-0.005939027 0.05706152 -0.033257242 0.06799401 0.15568036 -0.032870542 0.34979832
00000000: 1be2 8a3d ea2b 91bd 2d8e c1bd 80c7 beb9
00000010: 5d2f a53e e28b 083a a9c8 7f3e f487 a53e
00000020: 2b9c c2bb 57b9 693d bf38 08bd 7240 8b3d
00000030: ac6a 1f3e 43a3 06bd c418 b33e

encoder_layer_list.2.weight f4 [15, 15]
0.34890825 -0.0344438 -0.102943726 1.058934e-07 0.32820737 0.23280513 0.27851534 0.1330908
-1.2018453e-08 0.31373128 0.21124968 0.22405398 0.06013783 0.09872239 0.1973649 0.0018250123
-0.01047486 -0.07764193 -0.09471656 0.0069056423 -0.0055592293 0.027379595 -2.6700996e-15 0.011860573
-7.805251e-06 -0.042114295 -0.064241156 0.015648987 -0.0009374758 -9.498879e-05 0.0213996 5.041807e-08
1.8945531e-22 0.005956993 -9.672302e-06 0.056193672 -0.103327736 -1.8974633e-06 -0.014445073 0.0042420947
1.1357383e-15 -0.034086976 -0.07403139 0.00054426567 -0.04928065 0.3967046 -4.9063e-40 -0.3166142
-0.074899614 0.36763552 0.15257436 0.036676627 0.17602532 0.05172904 0.11626943 0.4007367
0.2452273 -0.23258924 -0.124157034 0.013506963 -0.0752793 -0.0468927 0.091803774 0.061320897
0.34152654 0.15515003 0.2970159 0.047354937 3.8338818e-05 0.021371996 0.16717526 0.1890076
0.065636374 0.2722959 0.32802418 -0.4223765 -1.9765142e-05 0.26128322 -3.5176407e-05 0.10902077
-0.061085984 0.17850387 -0.20863022 0.033047713 -0.17344344 0.013621739 -0.2582911 0.2560652
0.25104788 0.2642058 -0.010074048 -4.998229e-06 0.18518747 -3.2705023e-09 0.002167261 -0.11612868
0.20164306 -0.09546501 -4.94869e-40 -0.23103224 -0.17770219 -0.1901013 -0.08714389 0.30995265
0.22311221 0.19616228 0.04080185 -0.15403976 0.002197532 0.23860787 0.20682886 0.04621434
0.081877194 -0.10674652 0.3210737 0.24086086 0.1699382 -0.13796893 -0.13897581 0.15578984
0.04735699 0.007825553 0.060670428 0.0831618 -0.104504995 0.15514456 0.038690902 0.17025739
-0.053264532 0.046185452 0.034894057 0.15478943 -0.10962114 -0.01636057 0.027626866 0.005849723
0.0009846217 0.18558484 0.03564653 -0.05783765 -0.030003509 0.14052092 0.11274947 -0.0014749891
0.0722514 0.0789582 0.25390926 0.2739006 0.22337978 0.09620044 -0.04710991 0.061325964
1.6076531e-06 -7.769522e-05 -0.04101982 0.0072186855 -0.04460162 2.6507618e-13 0.07143238 0.068099864
0.013229363 0.04693061 -0.09432355 0.0016071267 0.00068760826 -0.31143042 -0.054207545 0.07992826
0.08369887 0.36836103 0.015796106 0.1949745 0.01872592 0.08843706 -0.06255657 0.22496691
-0.2933991 0.40709063 0.37884507 0.21880642 0.3738557 -0.07100564 -0.25007662 0.0022530449
0.31880072 0.16353802 -0.13471217 0.33282092 0.00039432352 0.1473903 0.1618913 0.2873126
-0.19201317 -0.0545974 -0.127998 0.14965361 -2.1178645e-08 -0.32147726 1.7407187e-08 0.26306626
0.12217573 0.24748427 0.15559764 -0.09077956 0.12446181 0.26112676 0.28583473 -0.09338313
0.03390067 -0.20033355 0.25788704 0.00071121525 -0.087281555 -2.947835e-10 0.2674669 0.11823305
-0.027307702 0.27959886 -3.59328e-28 0.1980632 0.059307374 0.099765524 -0.14917326 0.029682381
-0.15951979
00000000: 1aa4 b23e f114 0dbd 29d4 d2bd 8367 e333
00000010: cc0a a83e 7864 6e3e 9099 8e3e f448 083e
00000020: b779 4eb2 63a1 a03e d651 583e 686e 653e
00000030: 1653 763d f72e ca3d 061a 4a3e 4035 ef3a
00000040: bf9e 2bbc bb02 9fbd c1fa c1bd ba48 e23b
00000050: 322a b6bb 2c4b e03c a566 40a7 d952 423c
00000060: 4cf3 02b7 0a80 2cbd de90 83bd 4e32 803c
00000070: f0c0 75ba b834 c7b8 374e af3c 418b 5833
00000080: 9409 651b e132 c33b 3946 22b7 562b 663d
00000090: 7e9d d3bd 58ac feb5 07ab 6cbc 4501 8b3b
000000a0: 59ad a326 c99e 0bbd c59d 97bd 0dad 0e3a
000000b0: 82da 49bd de1c cb3e ad57 0580 421b a2be
000000c0: f864 99bd b93a bc3e 743c 1c3e 3b3a 163d
000000d0: fb3f 343e d4e1 533d ab1e ee3d 5c2d cd3e
000000e0: de1c 7b3e e02b 6ebe 0b46 febd 4f4c 5d3c
000000f0: 092c 9abd 8f12 40bd 9e03 bc3d 9f2b 7b3d
00000100: 91dc ae3e a6df 1e3e 7812 983e 40f7 413d
00000110: fecd 2038 5314 af3c fe2f 2b3e 358b 413e
00000120: 5d6c 863d 5e6a 8b3e c9f2 a73e bc41 d8be
00000130: 52cd a5b7 eac6 853e 618a 13b8 4846 df3d
00000140: 4c35 7abd b8c9 363e 29a3 55be 0a5d 073d
00000150: 289b 31be b72d 5f3c bb3e 84be fa1a 833e
00000160: 5989 803e fc45 873e 9f0d 25bc 76b6 a7b6
00000170: c9a1 3d3e 49bf 60b1 9b08 0e3b e0d4 edbd
00000180: 857b 4e3e 2983 c3bd 7e63 0580 b793 6cbe
00000190: 90f7 35be eaa9 42be 7f78 b2bd 1db2 9e3e
000001a0: 8777 643e c4de 483e d71f 273d 99bc 1dbe
000001b0: 7804 103b 9f55 743e f2ca 533e 3f4b 3d3d
000001c0: 3baf a73d eb9d dabd c663 a43e 3ba4 763e
000001d0: 4804 2e3e ba47 0dbe ad4f 0ebe 5f87 1f3e
000001e0: 67f9 413d c036 003c 8e81 783d bc50 aa3d
000001f0: b706 d6bd 37de 1e3e 5a7a 1e3d f457 2e3e
00000200: e92b 5abd f52c 3d3d 12ed 0e3d 1f81 1e3e
00000210: 0c81 e0bd 9a06 86bc bd51 e23c 08af bf3b
00000220: 6c0e 813a f409 3e3e 1902 123d 2ce7 6cbd
00000230: ebc9 f5bc b7e4 0f3e 32e9 e63d 6c54 c1ba
00000240: 8bf8 933d d6b4 a13d 6500 823e b33c 8c3e
00000250: abbd 643e bc04 c53d 52f6 40bd ef30 7b3d
00000260: 8ac6 d735 4ef0 a2b8 6604 28bd b98a ec3b
00000270: 30b0 36bd 8139 952a 244b 923d f177 8b3d
00000280: f8bf 583c 503a 403d b52c c1bd 39a6 d23a
00000290: 9c40 343a cf73 9fbe bb08 5ebd 6db1 a33d
000002a0: 506a ab3d d199 bc3e d666 813c 65a7 473e
000002b0: 1a67 993c 7d1e b53d a91d 80bd ba5d 663e
000002c0: 6838 96be 2f6e d03e fbf7 c13e ca0e 603e
000002d0: 046a bf3e 686b 91bd 0b0a 80be d2a7 133b
000002e0: d939 a33e 8376 273e fdf1 09be 8167 aa3e
000002f0: 35bd ce39 7ced 163e d5c6 253e a31a 933e
00000300: 1a9f 44be 86a1 5fbd e811 03be cc3e 193e
00000310: 55ec b5b2 ab98 a4be cf86 9532 9fb0 863e
00000320: 4537 fa3d 846c 7d3e fd54 1f3e a2ea b9bd
00000330: d5e5 fe3d 68b2 853e ee58 923e a83f bfbd
00000340: 6edb 0a3d 3d24 4dbe c509 843e d970 3a3a
00000350: acc0 b2bd 170f a2af 6cf1 883e 2b24 f23d
00000360: 67b4 dfbc 9527 8f3e 4dc0 e391 14d1 4a3e
00000370: 4aec 723d de51 cc3d e0c0 18be 7728 f33c
00000380: 2859 23be

encoder_layer_list.2.bias f4 [15]
0.15049368 -0.051368985 0.01596998 0.0545025 0.1080302 0.1719791 0.026020812 0.064004995
-0.02720358 -0.018270785 2.1785109e-36 -0.022026392 0.28824377 0.2759926 0.2107533
00000000: 041b 1a3e 4968 52bd 7ad3 823c 033e 5f3d
00000010: f03e dd3d 4a1b 303e 9929 d53c 0d15 833d
00000020: 0bda debc 9dac 95bc c453 3904 b170 b4bc
00000030: b094 933e e74e 8d3e b7cf 573e

decoder_layer_list.0.weight f4 [15, 15]
-0.079240195 -0.009984954 -0.003808001 -0.100146785 0.22175786 0.28951442 0.18016309 -0.018907303
0.05015823 0.17234235 0.11133116 0.2987652 -0.22696567 0.123691425 -0.19845949 0.34998736
0.00014717497 -0.0001293054 0.38115337 -0.013468688 -0.3813685 -0.21487653 -0.10339819 0.14885138
0.2775855 0.062024407 -0.07861273 -0.035023026 -0.037346087 0.03868222 0.0040093116 -0.085621424
0.020399015 0.26869687 -0.08321096 -0.3520928 -0.15228975 0.3462818 0.18367459 0.15649398
-0.10583148 0.020221382 0.38611636 0.2575059 0.252937 -0.15709509 0.08776222 -0.0035992574
0.12216437 -0.10259783 0.038195428 0.024722863 -0.011239212 1.4939402e-06 -0.002390389 -0.075885564
-0.022968078 0.07205754 -0.011566729 0.06754812 -0.06659446 0.0014476147 -0.03385492 -0.2560334
0.26288044 0.33790693 0.26887718 -0.22069335 -0.11876036 0.19427793 -0.07003836 0.14604136
-0.26596504 -0.08268017 -0.023707433 0.10430899 -0.011935107 0.05961306 -0.34006593 0.1992635
0.19203709 0.044847343 0.06879488 0.050016075 0.14761272 0.016002718 0.2857323 -0.22823039
-0.010606893 -0.23413096 -0.10327681 0.082917884 -0.03477298 -0.018492443 0.0011349819 -0.00026830213
-0.044044826 -0.03087218 -0.08985029 0.08879051 0.051943686 0.007766935 -0.0022038578 -0.0033808576
0.0087554725 -0.057074226 -0.06451616 0.01658361 -0.006106417 -0.087817684 0.0015536416 -8.487536e-10
-0.058903467 -0.106834486 -0.04506376 0.0009474293 0.0010698428 -0.0026649144 -0.08578608 -0.015478299
-0.08562512 0.018845411 -0.039066266 -0.011543015 0.0243519 -0.092083246 0.07059828 -1.3972208e-10
0.015517751 0.05002057 6.037753e-07 -0.006622206 -0.060614493 -1.4729097e-10 -2.064908e-07 0.21564224
-0.014577851 -2.3933038e-07 0.31553733 0.33399555 -0.16601166 -0.116111524 0.13900293 0.1490198
-0.0070482087 1.5448652e-15 0.028686414 0.38556656 0.22424215 0.18720664 -0.090855934 -0.010626943
-2.546348e-05 0.006415388 -0.07588571 -5.5532e-40 -0.08944787 -0.0032484322 -5.927464e-08 0.06937386
-0.012976284 0.036965966 -0.103233896 -0.07734481 -0.0025288123 0.17801236 -0.09986539 -0.0065143323
0.07958635 -0.014904809 0.11714753 0.16504729 0.20644085 0.031421557 0.07410382 0.010133051
0.12105642 -0.09498252 0.15032741 0.14843988 0.38297838 0.06268783 0.06575366 0.2156896
0.3759854 0.32032618 0.07966055 0.05684452 -0.16505499 0.12865461 0.014369914 0.35601452
0.109624386 0.018017031 0.056027677 -0.07157056 -0.008406502 -0.00065007905 -5.8387795e-10 0.030692859
0.00067037676 0.08557616 0.025142303 -0.0038505015 0.00020486729 1.0699796e-17 -0.09548984 0.043818843
5.3707318e-08 -0.051712204 0.0016648724 -0.0064308182 0.02474379 -0.19154131 -0.018501008 0.14214711
0.05819632 -0.089293234 -0.04452649 0.07955163 1.1793424e-05 0.018827217 -0.032378644 -0.058149222
-0.09751805
00000000: af48 a2bd ef97 23bc a88f 79bb c219 cdbd
00000010: 7e14 633e 3c3b 943e ac7c 383e 7de3 9abc
00000020: b772 4d3d 837a 303e 9701 e43d c1f7 983e
00000030: b069 68be ee51 fd3d f738 4bbe 8b31 b33e
00000040: fb52 1a39 2796 07b9 8926 c33e c6ab 5cbc
00000050: bb42 c3be 9808 5cbe 6ec2 d3bd 7f6c 183e
00000060: b01f 8e3e 4e0d 7e3d b6ff a0bd 4e74 0fbd
00000070: 36f8 18bd 3f71 1e3d 8b60 833b 495a afbd
00000080: d61b a73c a392 893e 826a aabd 8245 b4be
00000090: d8f1 1bbe d94b b13e 3115 3c3e f53f 203e
000000a0: 2dbe d8bd 50a7 a53c 0bb1 c53e d0d7 833e
000000b0: f580 813e 89dd 20be aebc b33d 85e1 6bbb
000000c0: 5031 fa3d d01e d2bd cf72 1c3d 9a87 ca3c
000000d0: ac24 38bc 6583 c835 13a8 1cbb e469 9bbd
000000e0: 8d27 bcbc e792 933d 6182 3dbc ab56 8a3d
000000f0: ad62 88bd e4bd bd3a 75ab 0abd cf16 83be
00000100: 4498 863e 2302 ad3e 45aa 893e 70fd 61be
00000110: a238 f3bd cbf0 463e 4670 8fbd de8b 153e
00000120: 922c 88be 3954 a9bd 1736 c2bc f49f d53d
00000130: 788b 43bc d32c 743d 1f1d aebe bb0b 4c3e
00000140: 5fa5 443e d9b1 373d 54e4 8c3d a8dd 4c3d
00000150: ca27 173e 2218 833c 814b 923e 3ab5 69be
00000160: 89c8 2dbc 07c0 6fbe cb82 d3bd dad0 a93d
00000170: 1d6e 0ebd 777d 97bc acc3 943a e7aa 8cb9
00000180: 5968 34bd a7e7 fcbc 6e03 b8bd cdd7 b53d
00000190: e7c2 543d c681 fe3b 996e 10bb 6191 5dbb
000001a0: 1d73 0f3c aac6 69bd 0c21 84bd 5ada 873c
000001b0: 5718 c8bb c2d9 b3bd 90a3 cb3a ba4d 69b0
000001c0: c344 71bd 0acc dabd c794 38bd e75c 783a
000001d0: f839 8c3a d8a5 2ebb 9db0 afbd b198 7dbc
000001e0: 395c afbd b161 9a3c f303 20bd ea1e 3dbc
000001f0: a37d c73c 2496 bcbd d595 903d 45a0 19af
00000200: 2a3e 7e3c 5fe2 4c3d 1f13 2235 17ff d8bb
00000210: e746 78bd b9f2 21af c2b7 5db4 52d1 5c3e
00000220: f0d7 6ebc 517d 80b4 1c8e a13e 7701 ab3e
00000230: f6fe 29be e1cb edbd c956 0e3e a598 183e
00000240: a9f4 e6bb 77a3 de26 c5ff ea3c fb68 c53e
00000250: bc9f 653e 19b3 3f3e ad12 babd a11c 2ebc
00000260: 689a d5b7 2d38 d23b f869 9bbd 020c 0680
00000270: 7230 b7bd a6e3 54bb 2895 7eb3 e213 8e3d
00000280: 7b9a 54bc a069 173d 4b6c d3bd f566 9ebd
00000290: 6eba 25bb df48 363e 3a86 ccbd 2e76 d5bb
000002a0: 2bfe a23d 4d33 74bc 0beb ef3d 2802 293e
000002b0: 3b65 533e e4b3 003d bec3 973d 1905 263c
000002c0: 6eec f73d 3286 c2bd 6eef 193e a000 183e
000002d0: be15 c43e 7a62 803d dba9 863d bcdd 5c3e
000002e0: 2981 c03e cb01 a43e 1225 a33d cdd5 683d
000002f0: 2d04 29be 09be 033e ca6f 6b3c 8947 b63e
00000300: c082 e03d 7498 933c 477d 653d 9693 92bd
00000310: 6dbb 09bc 116a 2aba c27e 20b0 976f fb3c
00000320: 39bc 2f3a 8e42 af3d 3bf7 cd3c b258 7cbb
00000330: a5d1 5639 5c60 4523 2d90 c3bd 637b 333d
00000340: d2ab 6633 2dd0 53bd d937 da3a 9db9 d2bb
00000350: 7db3 ca3c 6823 44be 6d8f 97bc 038f 113e
00000360: 445f 6e3d 5fdf b6bd 6961 36bd f7eb a23d
00000370: 5fdc 4537 893b 9a3c 789f 04bd e12d 6ebd
00000380: 8bb7 c7bd

decoder_layer_list.0.bias f4 [15]
0.024812952 0.22704896 -0.0061612776 0.0112284785 0.28798786 0.20728675 -0.021231862 -6.3353246e-12
-0.08125277 0.2397496 -0.044857763 -0.084379256 0.07827692 -0.0145664625 -0.20682879
00000000: 8844 cb3c 867f 683e 8be4 c9bb a7f7 373c
00000010: 2573 933e fa42 543e 71ee adbc 88e7 deac
00000020: da67 a6bd eb80 753e c6bc 37bd 08cf acbd
00000030: a64f a03d 2ca8 6ebc edca 53be

decoder_layer_list.1.weight f4 [15, 15]
0.21075514 -0.004688162 -0.40342188 -0.008780222 0.041451387 0.3251121 0.000103149294 9.0397445e-23
0.080031775 -0.16649179 -2.3235838e-12 -0.066534705 0.29372728 0.029999215 -0.1196984 0.104993634
0.016401913 0.07855949 8.536351e-14 -0.043570027 0.023999643 0.10601043 0.05842193 -0.0024421192
-0.0034224642 -0.022832993 -0.021098528 -0.06879983 0.022033554 -3.6622626e-13 -0.0067937393 0.00968818
-0.013580047 -8.296952e-05 0.09605988 0.07499514 0.096937105 0.046749987 0.02772399 -0.004136842
-0.100482255 0.0033832542 -0.0685835 -0.038836814 0.05066721 -0.011958782 0.18736738 0.20691963
0.05508577 0.04658004 -0.2635009 0.10245705 -0.10522515 0.0042662346 0.057980265 0.013659524
-0.10658739 0.241832 -0.00017408833 -0.21938507 -0.097487144 -0.15634477 0.13368054 0.110372126
0.2894327 -0.025684739 0.07974443 -5.00287e-40 -0.004655824 0.122026086 -4.9549e-40 -0.1857302
0.19851677 -0.00013209712 -0.12834834 -0.23168461 0.23318033 0.027279938 -0.07876345 -0.1318296
-0.03663915 0.052428406 0.0093711605 -0.082449384 0.27904138 -0.028636884 0.07831559 0.33689094
4.078068e-09 -0.061699502 0.0017147773 0.049984075 -0.041943733 0.08840609 -4.93205e-40 7.26614e-25
-7.5809505e-11 0.07414031 -0.009549114 -0.10693704 0.023624757 -2.1523932e-05 0.00013155016 -0.027196376
0.07200794 -0.33743036 0.27193856 0.124116555 0.0002803422 0.0027026536 -0.20967819 -0.07637853
0.00015325869 2.226919e-05 0.036631245 -0.014472359 -0.09126614 -0.13021055 -0.00043960306 0.0075667943
-0.3157096 -0.15569334 0.08707807 -0.065717444 -0.059543386 -0.23573276 0.018220264 -1.1141983e-05
-4.615943e-08 -0.09622091 -0.06953524 0.014668916 0.14748317 -3.9947443e-14 -0.10039007 0.0809941
-0.14996453 -0.16467355 -0.028771218 0.0016650966 0.32966456 -0.0076049017 0.00048956025 -0.00047033135
-0.23523131 -5.5753593e-09 0.09478821 0.2349737 -5.5557757e-07 -0.03236032 0.20927978 -0.0793752
0.002989102 0.059055924 0.043106683 0.21126649 -0.073796645 -0.05296478 -0.08726961 -0.105202556
0.006187052 0.012913271 0.18107104 -0.0005670996 0.25254557 -0.09964413 -0.11054155 3.38917e-40
0.039656773 -0.0069712796 -0.004002251 0.1001323 4.91119e-40 1.6677585e-06 0.04471681 0.0010229666
0.036392547 -0.021742718 -0.0856424 0.0408274 0.14712392 -0.24865513 -0.23808065 0.17553686
0.33906662 0.038321428 -0.023970624 4.028659e-05 -0.06882497 0.08891725 -0.013436886 0.07766979
0.028187077 0.0011625151 -0.1490664 0.019034244 0.16652428 0.25569567 0.06921952 -0.3171448
-0.2831449 -0.05093257 0.081404895 0.03489147 0.3272494 -1.1196668e-33 0.28456336 0.12599517
7.008704e-09 -0.031105423 -0.0005404057 -0.0064519416 0.04439086 0.06462956 0.041343857 -0.10998652
-0.108813554 -0.0766028 0.033438507 -0.010858655 0.1007395 0.0046738973 -0.023782436 9.666511e-25
0.056286257
00000000: 32d0 573e 279f 99bb 508d cebe ecda 0fbc
00000010: eec8 293d 1875 a63e db51 d838 4f91 da1a
00000020: b3e7 a33d d37c 2abe f781 23ac 5943 88bd
00000030: 6c63 963e eac0 f53c 6f24 f5bd e706 d73d
00000040: 4e5d 863c cce3 a03d b738 c029 7c76 32bd
00000050: e69a c43c ff1b d93d d54b 6f3d f60b 20bb
00000060: 6c4b 60bb 420c bbbc d2d6 acbc ede6 8cbd
00000070: b67f b43c c42a ceaa 049e debb 2cbb 1e3c
00000080: d87e 5ebc ecff adb8 0bbb c43d 0d97 993d
00000090: f686 c63d ea7c 3f3d 6c1d e33c 598e 87bb
000000a0: a4c9 cdbd 96b9 5d3b 8275 8cbd 5a13 1fbd
000000b0: 6c88 4f3d c4ee 43bc 3cdd 3f3e bde2 533e
000000c0: 9ea1 613d b6ca 3e3d 97e9 86be 00d5 d13d
000000d0: 4980 d7bd c5cb 8b3b b77c 6d3d 32cc 5f3c
000000e0: 7d4a dabd cfa2 773e 7b8b 36b9 7ba6 60be
000000f0: 57a7 c7bd d818 20be 8de3 083e c80a e23d
00000100: 8630 943e cd68 d2bc 0c51 a33d 9972 0580
00000110: e28f 98bb d0e8 f93d 3965 0580 0f30 3ebe
00000120: fb47 4b3e 8d83 0ab9 bf6d 03be bb3e 6dbe
00000130: d3c6 6e3e 2d7a df3c bb4e a1bd 57fe 06be
00000140: ef12 16bd 2bbf 563d 7f89 193c 39db a8bd
00000150: 83de 8e3e e697 eabc ed63 a03d f87c ac3e
00000160: 111f 8c31 9eb8 7cbd 61c2 e03a 1abc 4c3d
00000170: 31cd 2bbd 410e b53d db5e 0580 4be0 6017
00000180: f5b4 a6ae e0d6 973d e373 1cbc cf01 dbbd
00000190: b588 c13c 4b8e b4b7 baf0 0939 efca debc
000001a0: e678 933d acc3 acbe 883b 8b3e d230 fe3d
000001b0: e5fa 9239 011f 313b e1b5 56be 596c 9cbd
000001c0: 11b4 2039 b9ce ba37 a50a 163d 791d 6dbc
000001d0: bee9 babd ea55 05be 867a e6b9 dff2 f73b
000001e0: b0a4 a1be 136e 1fbe fd55 b23d de96 86bd
000001f0: c4e3 73bd ee63 71be aa42 953c 74ee 3ab7
00000200: d440 46b3 780f c5bd 7e68 8ebd e555 703c
00000210: d405 173e 44e8 33a9 4f99 cdbd 3ce0 a53d
00000220: 4d90 19be 2fa0 28be 9eb1 ebbc 5f3f da3a
00000230: cbc9 a83e 8a32 f9bb d555 003a ce96 f6b9
00000240: 7ae0 70be 6191 bfb1 5220 c23d f29c 703e
00000250: 0023 15b5 418c 04bd 704d 563e 778f a2bd
00000260: cfe4 433b a0e4 713d a290 303d 3e56 583e
00000270: b222 97bd 99f1 58bd 69ba b2bd 7074 d7bd
00000280: c1bc ca3b 2f92 533c b06a 393e 69a9 14ba
00000290: a74d 813e 3912 ccbd 9c63 e2bd c3b0 0300
000002a0: 246f 223d 556f e4bb 5125 83bb 2a12 cd3d
000002b0: 0a59 0500 bfd7 df35 f928 373d 1015 863a
000002c0: 5a10 153d c91d b2bc 4865 afbd a23a 273d
000002d0: a7a7 163e 739f 7ebe 6acb 73be efbf 333e
000002e0: 249a ad3e eef6 1c3d 0b5e c4bc 66f9 2838
000002f0: 1bf4 8cbd 3f1a b63d 6226 5cbc 5711 9f3d
00000300: 96e8 e63c 895f 983a dda4 18be b4ed 9b3c
00000310: 5785 2a3e 8bea 823e f7c2 8d3d ce60 a2be
00000320: 5ef8 90be ac9e 50bd 9cb7 a63d 5cea 0e3d
00000330: 3c8d a73e 5c09 ba88 4ab2 913e e104 013e
00000340: 36d1 f031 cdd0 febc 03aa 0dba cf6a d3bb
00000350: 31d3 353d 815c 843d 2d58 293d 9d40 e1bd
00000360: a4d9 debd eee1 9cbd d1f6 083d 80e8 31bc
00000370: 8350 ce3d 7e27 993b 62d3 c2bc ff94 9517
00000380: 6b8c 663d

decoder_layer_list.1.bias f4 [15]
0.08013172 -0.047429644 -0.05197253 -0.026996259 0.19954282 0.14061406 -0.035192516 0.18912414
0.27922562 0.10568232 -0.09427898 -0.030166147 0.18889946 0.09774524 -0.017202282
00000000: 191c a43d 9645 42bd 26e1 54bd 4227 ddbc
00000010: f454 4c3e 22fd 0f3e 0726 10bd c2a9 413e
00000020: a9f6 8e3e f96f d83d 5615 c1bd ff1e f7bc
00000030: dc6e 413e a82e c83d cdeb 8cbc

decoder_layer_list.2.weight f4 [15, 15]
0.2493505 0.07518154 -0.04387165 -0.2781778 -0.11269794 -0.049975056 -0.020110466 -0.22842711
0.094660975 0.13254227 0.07110653 0.0020672306 0.15529686 -0.2196939 0.0017892515 0.21087736
-0.07840267 -0.007311603 0.00035388704 -0.32264906 -0.32802606 0.00021090682 0.05138898 0.008076493
0.1624246 0.16295706 -0.010975361 0.32923 -0.04969452 -0.07858685 -0.32606953 0.010228375
-0.09190668 0.0904999 -0.081267715 0.016108148 -0.05250293 -0.09960782 0.1435137 -0.15472873
-0.10457688 -0.041649498 0.00027319934 0.35422066 -0.10029032 -0.264788 -0.07026983 0.0047417157
0.1409087 -0.2392922 0.27493638 0.040653992 0.29563072 0.30730155 0.085448794 -0.0513577
0.0076920083 -0.27564013 0.16645257 0.04671043 -0.1907478 0.102154955 0.06224348 0.29695594
-0.3292311 0.1947549 -6.115812e-39 0.27561668 0.11478434 -0.14663889 -0.12619798 -2.3261034e-06
-0.10142094 0.18365207 0.017708914 0.002441503 1.5258992e-06 -0.0016925575 -0.06272653 -0.1855927
0.12739263 6.389263e-29 0.07978189 -0.19985557 0.0026373952 0.21972275 9.1316e-41 -0.2627989
-0.09982756 0.008848298 -0.038726646 0.08741628 0.07821427 -0.11019802 -0.15599245 -0.19978552
-0.00075168826 -0.19003433 -0.28411168 -0.07986219 -0.044051062 -0.0034051598 0.0074043334 0.114667416
-0.06740808 0.00079906126 0.01860736 -0.037469435 -0.047061536 0.104175046 -0.21275412 4.98519e-40
-0.017619606 0.04003217 -0.21183959 -0.07140978 -4.96748e-40 0.035178784 0.028032139 -6.287749e-17
-0.2671415 -0.022786047 0.022834346 0.032618497 -0.124931686 0.11896901 0.004951546 -0.098973334
-0.051803116 0.06540852 0.17929637 -1.8250618e-11 -0.09841077 -0.21299896 0.049035817 -0.22644214
0.04806229 0.021846969 -0.15956001 0.010631685 -0.1751958 -0.002485375 -0.31106094 0.08091373
0.023652326 0.298124 -2.410607e-28 -0.16265619 0.12838256 0.018363973 -0.06826839 -0.078575484
0.0002626921 -0.03449007 -0.07899523 -0.109370254 -2.356775e-06 0.05310975 -0.193813 0.15082638
0.0738131 0.06363405 -0.0988324 0.10825798 -0.07633853 0.094253965 -0.007872902 -0.06976981
-0.22288622 0.013407942 0.04580177 4.9954e-40 0.10769095 -0.03212038 0.021856774 0.07615502
-0.054140486 -0.13870926 0.10243003 -0.0039172643 0.09298065 -0.06158279 -0.024709545 0.060520723
-0.009230895 0.088053085 -1.6134977e-07 -0.015653867 0.20277631 -0.21829738 -0.07154414 4.8414082e-11
0.19281602 -0.07640874 -0.10659012 -0.032854944 0.012930822 -0.007468606 -0.09229719 0.15791494
-0.14946157 -0.030709645 -0.118783005 -0.2425035 -0.09099634 -0.015182673 -0.0529544 0.066723876
0.12802309 0.012340722 0.14385098 0.007661631 -0.020141803 -0.14180206 -0.14822908 0.18982169
0.016608397 -0.19104296 0.16787083 -0.21566111 0.023616053 0.03477693 0.100677945 0.0025821729
-0.020639427
00000000: bd55 7f3e c7f8 993d c2b2 33bd 526d 8ebe
00000010: 2dce e6bd a5b2 4cbd b4be a4bc cce8 69be
00000020: 9ddd c13d 29b9 073e 4da0 913d 607a 073b
00000030: 2406 1f3e 70f7 60be 5185 ea3a 3cf0 573e
00000040: 9491 a0bd 2c96 efbb ea89 b939 4232 a5be
00000050: 08f3 a7be de26 5d39 407d 523d 4453 043c
00000060: a252 263e 37de 263e 00d2 33bc d690 a83e
00000070: 7b8c 4bbd 24f2 a0bd 96f2 a6be ea94 273c
00000080: 9239 bcbd 0358 b93d b06f a6bd 3cf5 833c
00000090: 500d 57bd 2fff cbbd 41f5 123e 3571 1ebe
000000a0: 672c d6bd aa98 2abd 323c 8f39 695c b53e
000000b0: 0365 cdbd 4b92 87be a1e9 8fbd 6560 9b3b
000000c0: 5f4a 103e 0409 75be 76c4 8c3e cd84 263d
000000d0: e95c 973e a156 9d3e c7ff ae3d 745c 52bd
000000e0: 3e0d fc3b b420 8dbe 8b72 2a3e 7053 3f3d
000000f0: 6453 43be 9e36 d13d 05f3 7e3d 9c0a 983e
00000100: fb90 a8be d46d 473e 6598 4280 a11d 8d3e
00000110: 0d14 eb3d 8128 16be 0b3a 01be 271a 1cb6
00000120: c8b5 cfbd 4a0f 3c3e 4912 913c a001 203b
00000130: 7fcd cc35 ced8 ddba c476 80bd 030c 3ebe
00000140: 3773 023e b0fc a110 b064 a33d f0a6 4cbe
00000150: 26d8 2c3b 00ff 603e 8dfe 0000 948d 86be
00000160: 6472 ccbd 74f8 103c d59f 1ebd 4e07 b33d
00000170: ce2e a03d 80af e1bd 7cbc 1fbe 9394 4cbe
00000180: f20c 45ba 5c98 42be 1677 91be ca8e a3bd
00000190: e36e 34bd 1a29 5fbb 0da0 f23b c0d6 ea3d
000001a0: 3f0d 8abd 1878 513a 766e 983c 8d79 19bd
000001b0: 99c3 40bd ba59 d53d 37dc 59be ab6d 0500
000001c0: fe56 90bc c6f8 233d 7aec 58be 4a3f 92bd
000001d0: bb68 0580 a117 103d a8a3 e53c 52fc 90a4
000001e0: c5c6 88be cea9 babc 180f bb3c f99a 053d
000001f0: 2fdc ffbd 06a6 f33d 9440 a23b 88b2 cabd
00000200: 812f 54bd e7f4 853d 7899 373e bd88 a0ad
00000210: 968b c9bd 661c 5abe c8d9 483d 73e0 67be
00000220: f7dc 443d 6af8 b23c b363 23be 8530 2e3c
00000230: 8766 33be ace1 22bb 6143 9fbe 19b6 a53d
00000240: 86c2 c13c b5a3 983e 56ca 9891 588f 26be
00000250: b876 033e 0b70 963c 4cd0 8bbd 2fec a0bd
00000260: f0b9 8939 7645 0dbd 40c8 a1bd 83fd dfbd
00000270: 1629 1eb6 9c89 593d ea76 46be 3b72 1a3e
00000280: 532b 973d 9252 823d a468 cabd 5cb6 dd3d
00000290: 6057 9cbd 3908 c13d 58fd 00bc 79e3 8ebd
000002a0: 493c 64be fcac 5b3c a39a 3b3d 8470 0500
000002b0: 138d dc3d a990 03bd fa0c b33c 2af7 9b3d
000002c0: 6ac2 5dbd cd09 0ebe d6c6 d13d 655c 80bb
000002d0: a46c be3d 3c3e 7cbd ac6b cabc 94e4 773d
000002e0: 2e3d 17bc 2d55 b43d 7d3f 2db4 8a3c 80bc
000002f0: 98a4 4f3e 5989 5fbe bc85 92bd 69ed 542e
00000300: 9071 453e 2f7c 9cbd ec4b dabd e892 06bd
00000310: ccdb 533c 35bb f4bb 4f06 bdbd 74b4 213e
00000320: 740c 19be cb92 fbbc 8144 f3bd d652 78be
00000330: 4a5c babd bfc0 78bc b7e6 58bd 87a6 883d
00000340: 7c18 033e bd30 4a3c ac4d 133e 6b0e fb3b
00000350: 6c00 a5bc 8f34 11be 5dc9 17be 9e60 423e
00000360: 550e 883c c4a0 43be 55e6 2b3e 44d6 5cbe
00000370: 7476 c13c 4172 0e3d 3d30 ce3d ac39 293b
00000380: 0414 a9bc

decoder_layer_list.2.bias f4 [15]
0.11435111 -0.108261645 0.09033169 -0.002045974 0.14823402 -0.068813324 0.043685917 0.14166677
-0.081765816 -0.031376135 0.070253834 -0.20589416 -0.08295163 0.080036856 -0.110264964
00000000: ea30 ea3d 48b8 ddbd d2ff b83d bf15 06bb
00000010: a9ca 173e 00ee 8cbd 01f0 323d 1811 113e
00000020: d674 a7bd 4384 00bd 3ee1 8f3d ebd5 52be
00000030: 8be2 a9bd 5dea a33d 99d2 e1bd
