result/FairOD_weights/under_representation_bias/cluster/seed_126/biasRate_0.6.pt (torch, 10562 bytes, 12 tensors)

encoder_layer_list.0.weight f4 [15, 15]
00000000: fa77 2423 7c5a 31a0 c4aa fdb9 505e dba2
00000010: f55d 0fb8 e8e6 21a8 95ef 0225 7c74 dbb7
00000020: 8469 71b8 27aa 1fb7 527a fd21 cff8 9430
00000030: f9ef 0ead 25e7 c1b7 587e 87a2 e1d5 3fbc
00000040: 9415 96bc 2626 63bb f1f6 a6ba 9484 43ba
00000050: c85a acbb bf8a 2abc 2258 9abb e754 53bb
00000060: 66a9 f5bb fc39 ecbb 6176 fbbb 610f b7bb
00000070: 21a6 913a 1c19 a2bb fce9 8b3d fef8 9d3e
00000080: f197 a1be d58b 02be 48d9 7cbe e471 65bb
00000090: 38a3 4bbe 2744 65be a440 97be a66b a83d
000000a0: 3c18 4e3e 3111 a2bc e596 233e 0e95 3e3c
000000b0: 0562 48be 0b3c ca3e d476 1b3e db1a c5bd
000000c0: d106 53be 0631 813d 8ec2 033e 790b f1bc
000000d0: 40a3 05be 2190 60be 54c3 163d 4de6 033e
000000e0: 061d 4ebd 80c8 123e 7863 d53d 1359 39be
000000f0: 7012 9b3e 4d59 933e debe 4ebe 03a0 5abe
00000100: 4497 e63c 8242 0dbe 4745 2ebb 15d8 6bbd
00000110: b5d2 85be 29b7 02bd d1cd efbd 23d9 0b3e
00000120: 4477 c83d 9031 40bc 5fd1 6bbe eb6c a6b5
00000130: 1379 cfb6 1f64 f7b3 e46b 4034 5a72 9731
00000140: 6af8 3ea9 a154 7f22 3bac 1db9 c495 a8b0
00000150: ea88 38a3 08ed 4939 15f6 c2b9 e5ab 95b9
00000160: bcca 852e 1062 06a3 b852 04be a9f2 0dbe
00000170: 7496 d43c 321b 6a3d daec b13d 31f5 663d
00000180: d9f9 d13d a2de 183e aa52 833e ccb7 763e
00000190: 4e6b babd 7094 02bd 98d9 8e3c 380b 443e
000001a0: f452 3a3e f972 7e3e 35bc 893e 4557 94bd
000001b0: 8043 3ebd edc9 75be a2f3 423d 5de7 213e
000001c0: 5eae 1a3e 3c2d 86bc c69d 18be 3b6a c4bc
000001d0: f231 8a3c 3a92 b63d 4164 11be 72fd 2d3c
000001e0: efcb 473a 87e4 0aba 948b 3e36 8662 d135
000001f0: c7bc 9b35 50d0 78b8 9494 f335 b15d 12b9
00000200: 419e 1ab7 20f1 59b8 3d1b 9ab9 3317 07b8
00000210: a593 b939 fe4f 12b8 e203 89b8 523d 8a2e
00000220: d3b5 88b7 4d94 e323 acac 76a4 3276 4ca7
00000230: f4d7 b1b8 c3eb d22b 8cb1 4b27 ea4d 7caa
00000240: 17bb 9d36 943a 92b9 3a75 1e23 5105 93b4
00000250: 1456 a423 bd18 45b5 124d a6bc 9bcb 6e3b
00000260: 1a9a 4f3e e7cc bf3e d851 763e f390 993b
00000270: 8ec3 dabd 2070 423d fec0 c9be 8ed9 a3be
00000280: 8cb5 40be b911 28be 7f93 853d 932e 44be
00000290: 8975 debc f490 f73d d67b c33d 93ec afbe
000002a0: bc8e 86be f1ad cbbe abb4 46be f4cd 9dbd
000002b0: 0167 0fbe 7080 1fbe 0a66 67bd f051 943e
000002c0: f3e8 883d a1c9 713e f2a8 3b3c b05a 5cbe
000002d0: 997e c83e 2857 803e 7c8f 8dbe e0be acbd
000002e0: 044e 9abd e10b 393e 6444 b4bc a687 6dbe
000002f0: 0cb5 bbbe ea0a 983c 4191 1abe 96fb 1e3e
00000300: 6231 28be 5aae 163d e5f1 8abe 99e6 47be
00000310: e052 3fbe c3fc 1a3e b895 77bd 6f17 c63e
00000320: dd8c 42be c106 6abd f938 653d f4e5 26bd
00000330: 27b2 c1bd 021c ad3c 0f52 1bbd 6e98 7abd
00000340: 50b4 2dbe 9766 efbd 12bf 9dbe 56f6 d6bc
00000350: 16fe a13e 7135 af3e d13f 253e abfb 863c
00000360: ee8f fb3c ccde f83b 163a e0bd d792 e3be
00000370: 273d 0b3e 6ffd 15bd 9572 b0bc 0b2f 88be
00000380: 0011 abbb
8.915864e-18 -1.5022422e-19 -0.0004838315 -5.9459926e-18 -3.418136e-05 -8.987365e-15 1.1356876e-16 -2.6161077e-05
-5.7557147e-05 -9.516755e-06 1.7176325e-18 1.0839133e-09 -8.12505e-12 -2.3115028e-05 -3.6725595e-18 -0.011708708
-0.018320836 -0.003466019 -0.0012738389 -0.00074584153 -0.0052598454 -0.010409056 -0.0047102133 -0.003224665
-0.0074970005 -0.0072090607 -0.007674024 -0.00558655 0.0011112132 -0.004946841 0.06831738 0.30854028
-0.31561235 -0.12748654 -0.24692261 -0.003501051 -0.19886482 -0.2238928 -0.29541504 0.08223657
0.20126432 -0.019783588 0.1597553 0.011632217 -0.19568641 0.39498934 0.15182048 -0.09624263
-0.20608069 0.063081786 0.12867185 -0.029424416 -0.13050556 -0.21929981 0.036807373 0.12880822
-0.050320648 0.14334297 0.10419363 -0.18100385 0.30287504 0.2877907 -0.20189998 -0.21350102
0.028148301 -0.13794902 -0.0026591585 -0.05757912 -0.2613732 -0.031912956 -0.11709178 0.1365705
0.09788373 -0.011730567 -0.23029087 -1.2399663e-06 -6.1831756e-06 -1.1520046e-07 1.7920644e-07 4.4076787e-09
-4.240394e-14 3.4603746e-18 -0.00015036848 -1.2266175e-09 -1.0003653e-17 0.00019257155 -0.0003718591 -0.00028547566
6.0841526e-11 -7.28492e-18 -0.1292218 -0.13862099 0.025950648 0.05715484 0.08687754 0.056386176
0.10252733 0.14928678 0.25649005 0.2409355 -0.09102498 -0.031879842 0.017437741 0.19144905
0.18195707 0.24848546 0.26901403 -0.07243208 -0.04645109 -0.2400281 0.047595628 0.15810914
0.15105578 -0.016378991 -0.14903936 -0.023976436 0.016869519 0.08914609 -0.141984 0.010619508
0.0007621636 -0.00052983355 2.8393451e-06 1.5600388e-06 1.1603341e-06 -5.9321814e-05 1.8148153e-06 -0.00013958548
-9.215962e-06 -5.1961397e-05 -0.00029393463 -3.2208114e-05 0.00035395953 -3.488361e-05 -6.533392e-05 6.286406e-11
-1.6297132e-05 2.4674197e-17 -5.3489006e-17 -2.837476e-15 -8.480242e-05 1.4986834e-12 2.8268158e-15 -2.2409128e-13
4.7007447e-06 -0.00027890934 8.590021e-18 -2.7384752e-07 1.7817371e-17 -7.342422e-07 -0.020300422 0.0036437276
0.20273629 0.37461016 0.24054658 0.0046864687 -0.1068183 0.047470212 -0.39405054 -0.3200192
-0.18819255 -0.1641301 0.06522273 -0.19158392 -0.027155655 0.120881945 0.09545104 -0.3436018
-0.26280773 -0.39781144 -0.19404857 -0.07705298 -0.14004137 -0.15576339 -0.056493796 0.28968763
0.066850565 0.23612072 0.011453854 -0.2151897 0.39159086 0.25066495 -0.27648532 -0.08434844
-0.075344115 0.18070938 -0.022005267 -0.23196277 -0.36661565 0.018559892 -0.15094472 0.1552566
-0.16425088 0.03678737 -0.27137676 -0.1952156 -0.18683958 0.15135483 -0.060445517 0.38689753
-0.18999048 -0.057135347 0.055962536 -0.040746644 -0.09457808 0.02113152 -0.037920054 -0.061180525
-0.16963315 -0.11689489 -0.30809838 -0.026240509 0.31639165 0.3422046 0.16137625 0.016477427
0.03070828 0.007594919 -0.10948579 -0.44447967 0.13597547 -0.036618646 -0.021539012 -0.2659839
-0.0052205324

encoder_layer_list.0.bias f4 [15]
00000000: e317 dab7 cce4 4abc 83be 5d3e 151a 05bd
00000010: 18fa f23d f225 eaa5 8c94 97bd 457f 5bbd
00000020: 96b0 3cba e887 4bb8 63cc 2e3d 363e 9b3e
00000030: 95bb 503e 23ee de3d 643f 63be
-2.5998748e-05 -0.012383651 0.21654706 -0.032495577 0.11864108 -4.0618242e-16 -0.0740138 -0.05358817
-0.0007197944 -4.8525544e-05 0.042675387 0.303209 0.20384057 0.10885265 -0.2219215

encoder_layer_list.1.weight f4 [15, 15]
00000000: 7b97 36b8 0e58 d23b 9cb9 a53e 9eed 1d3e
00000010: 7f95 d93d feed 09a3 ff81 86bd e8b7 0e3e
00000020: 4657 1837 32e3 9da2 b8e1 08be c735 bf3e
00000030: 830d c43e 53cc a9bd 2635 57be d2df 2323
00000040: 4e92 d6ab 0ab0 f0b5 3136 cb35 0245 b828
00000050: cf1a 0128 eab4 66a3 a9a9 15b8 3411 9323
00000060: 9eb3 0aa3 caf1 3cb4 a284 00b6 e5fc 87b7
00000070: a1fd 9f3c c360 efb3 6c96 b4a3 f7ba 983b
00000080: 5e92 d43d 6920 853e 1b67 b73e 6b9b 6535
00000090: 67c6 05bd 01af 633e 4d58 aab7 a15b 98b7
000000a0: c55d 84bd 6c22 c53e 7228 8c3d d390 12bd
000000b0: 55b2 d9bd a357 8737 aaf8 0fba 1773 6e3e
000000c0: 50f3 1ebd 7716 8f3e bd2b 26b9 1c42 4dbe
000000d0: d49d b53c 5410 3936 1d72 5933 c224 93be
000000e0: e0c8 fc3d aa19 763e f882 8fbe 797f 62bd
000000f0: b9c5 a923 4560 60bc 4007 34be 349b 0ebe
00000100: d2ab 56bd d8fe d020 8431 b3bd c15c 76be
00000110: 52db e936 989f 6324 b173 a93e ef59 8abe
00000120: ff7b 17be 601b 313b 82f6 923e 9201 473a
00000130: bac4 9c3a 2166 9f3e 0878 a33e 8762 3a3e
00000140: 9f78 54aa 7367 1fbd cf8f 903e faf5 4e37
00000150: f909 b49e 35c1 93bd ec4e 983e 24b8 b23d
00000160: 0ac5 cbbd 87ad 66bd e81a 3c2d a38d 91bc
00000170: 2880 be3c 828e 78be a7c2 57be bc9d 07a4
00000180: 7079 8cbd f5dd d9bd 4915 c435 b733 85a6
00000190: 023a 973e 4018 6bbe c468 85be 4f6f 5a3e
000001a0: b878 133e 53ad 28b0 7812 833b 9e32 6bbe
000001b0: e57e 5bbe 4490 92be 6337 fb38 c25d c6bd
000001c0: 3d7e 43be 61e0 d635 458c 3334 2481 0a3e
000001d0: 40d2 a5bd 96b7 19be 4898 093e 1a70 b33e
000001e0: cb45 a132 81f7 70bb 971d 95be f28a 69be
000001f0: 8242 c2bd 6313 9ab6 4c9a bdbd 8a23 97be
00000200: 8ff3 ac37 6f8d 75a5 3184 9c3e 8a5a a23c
00000210: f57d 3bbe c4b3 823e b958 203e dab9 d5a3
00000220: 7c89 b33a 6e69 8a3e c443 113e a6b0 ba3d
00000230: 97eb b137 d124 3bbd 0a48 313e 2c55 bf35
00000240: 0005 d537 a46b 953d e4d4 713e 4d8a c33e
00000250: c0e5 76be e15d 76bd 08e7 013a cd50 d2ba
00000260: 6649 3bbe 9a0a 25be f945 61be d46b 6323
00000270: 421e 9abd 9861 4bbe f5ef c1b5 2569 af28
00000280: 2736 ad3e 9ee6 75bd 7133 67bd 4a0d 213e
00000290: 2e59 be3e 39d2 223a 0d62 44bb 3cae bc3e
000002a0: 7172 c03d 1808 883e 13a7 83b9 55f5 09bd
000002b0: 4a19 af3d 84fa 08ba 6c12 6ab6 92fb 82bd
000002c0: 97d1 793e 5ceb a23e f2dd 1ebe 1673 13be
000002d0: 8172 ef27 a703 e8bb fdda 66be 8fa2 38be
000002e0: fde9 eabd 6d32 a5a2 ee03 d5bc b556 cdbd
000002f0: 5e7a 2db5 a319 2e3a 1161 8d3e 978d a6be
00000300: 5969 1b3d e305 80bd 329d fd3d 6e5a 2529
00000310: d13b afa2 6d72 3ca3 b456 fcb7 f0aa 91a2
00000320: 3f53 e0b9 5b63 40b7 2e48 fb23 d04b e1a0
00000330: d2ce 38ac 8b5a 29ba 3fd9 e934 dc54 1127
00000340: b442 0d26 04a6 f6a0 5342 f736 ceb6 25bc
00000350: 5f0d 0c3e 3b77 613e d49b bd3e c87e 80a4
00000360: cab7 14be 9046 ce3d 9f3e 1634 d140 cca9
00000370: 8e7e 05be a607 843e 2125 3ebc de18 aebe
00000380: 98c0 84be
-4.353326e-05 0.0064191883 0.3236817 0.15422675 0.10624217 -7.477182e-18 -0.065677635 0.13937342
9.080226e-06 -4.2795488e-18 -0.13367355 0.37345716 0.3829156 -0.08290925 -0.21016368 8.8836435e-18
-1.5246222e-12 -1.7932628e-06 1.514045e-06 2.0458031e-14 7.166752e-15 -1.2506635e-17 -3.5682377e-05 1.5945058e-17
-7.51903e-18 -1.7596827e-07 -1.9150689e-06 -1.6211017e-05 0.01953012 -1.11469056e-07 -1.9579345e-17 0.00466096
0.1037948 0.2600129 0.3582085 8.553531e-07 -0.032659914 0.22234727 -2.0306697e-05 -1.816248e-05
-0.064631976 0.38502824 0.06843652 -0.035782646 -0.10629717 1.6134063e-05 -0.0005492071 0.23286091
-0.03880626 0.27946827 -0.00015847287 -0.2004475 0.022169985 2.7576652e-06 5.0628035e-08 -0.2873898
0.12343001 0.24033228 -0.2802961 -0.05529735 1.8406756e-17 -0.013694827 -0.1758089 -0.13926393
-0.052409954 3.5405212e-19 -0.08749679 -0.2405882 6.9694734e-06 4.935796e-17 0.33096078 -0.2702174
-0.14793395 0.0027024373 0.28703696 0.00075914816 0.0011960485 0.31132606 0.31927514 0.18201648
-1.8871231e-13 -0.038917016 0.28234717 1.2335828e-05 -1.9062366e-20 -0.07214586 0.29747713 0.08726528
-0.099496916 -0.056317832 1.0692537e-11 -0.017767733 0.023254469 -0.24273112 -0.21070348 -2.9407065e-17
-0.068591 -0.10638038 1.4609333e-06 -9.242746e-16 0.29536444 -0.2295847 -0.26056492 0.21331523
0.1440152 -6.136435e-10 0.0040000044 -0.22968528 -0.21435125 -0.2862569 0.00011978929 -0.09685852
-0.19091125 1.6009545e-06 1.6721704e-07 0.13525826 -0.08096743 -0.15011439 0.13436997 0.35046464
1.8774605e-08 -0.0036768618 -0.29124138 -0.2280691 -0.094853416 -4.5918146e-06 -0.092579454 -0.29519302
2.0617414e-05 -2.1298282e-16 0.30569604 0.019818563 -0.18309768 0.25527775 0.15658845 -2.3172217e-17
0.001369759 0.2703356 0.14186007 0.09115724 2.120975e-05 -0.045689408 0.17312637 1.4255397e-06
2.5393907e-05 0.072959214 0.23616368 0.38191453 -0.2411108 -0.060148124 0.0004955386 -0.0016045809
-0.18289718 -0.16117325 -0.21999349 1.2328528e-17 -0.075253025 -0.19861448 -1.4449457e-06 1.9474502e-14
0.33830377 -0.060034387 -0.056445543 0.15727726 0.37177414 0.0006211135 -0.002996567 0.3685168
0.09396828 0.26568675 -0.00025110747 -0.033681232 0.085497454 -0.0005225318 -3.487944e-06 -0.063956395
0.24396358 0.3182019 -0.15514353 -0.1439937 6.645997e-15 -0.0070805135 -0.22544475 -0.18030761
-0.11470411 -4.477673e-18 -0.02600285 -0.10026304 -6.462559e-07 0.00066413934 0.27613118 -0.325299
0.037942264 -0.06251123 0.12383498 3.6715795e-14 -4.749718e-18 -1.0215731e-17 -3.0081115e-05 -3.9483316e-18
-0.00042786633 -1.1467225e-05 2.7244044e-17 -3.816665e-19 -2.626278e-12 -0.00064603303 4.35577e-07 2.0168795e-15
4.90096e-16 -4.178388e-19 7.368895e-06 -0.010114385 0.13676976 0.22018139 0.3703295 -5.572593e-17
-0.14523235 0.100720525 1.399262e-07 -9.070664e-14 -0.13036558 0.25787085 -0.011605532 -0.34003347
-0.25928187

encoder_layer_list.1.bias f4 [15]
00000000: fe61 333d 8299 dfbc 6f37 053d e9c5 1d3e
00000010: 5432 e13d 9c60 833c b8d7 f53d 389e 073e
00000020: 310e f13d cd90 773c 6efa c63d 98ed eb3c
00000030: 76ba be3d b146 d2b9 cb92 013e
0.043794625 -0.027294878 0.03252357 0.15407528 0.109959275 0.016037278 0.12004036 0.1324395
0.11770285 0.015110207 0.097157344 0.028799817 0.09312908 -0.0004010699 0.12653653

encoder_layer_list.2.weight f4 [15, 15]
00000000: 8221 833d da83 1828 075d 9d3e df3c d83d
00000010: e3e3 8ebe f6b0 833d 4f26 a6be 9881 dcbe
00000020: 6acd 8cbe 2c39 6e3d 129d 37be 4afd c33e
00000030: 36c0 6bbe 6ca6 b1b9 b2b8 4e3e 588d ca3d
00000040: 6f4d 5f38 8dba 263e cf8b efbc 3787 543e
00000050: 05c1 fa3d 612d 61bd ab3c bebd e43f b83d
00000060: 554d 9a3c 7fa1 373e cdee 9bbd 7c17 413e
00000070: 0110 70a6 61ac 563d 41d2 8bbe 11dc 36b3
00000080: 0545 71be 62d3 0dbe 1a0b 1c3c c5cf 84be
00000090: e3dd 833d 4aa8 853e d97d 8c3c 4cf3 abbe
000000a0: 110f 93bd 1b2f 43be 63f4 cdbb dfe9 7525
000000b0: 2d3c 34be 7850 7cbe a471 5bb4 5f4a 47be
000000c0: 9a47 8cbe a4cd b73e 4b9b 46be 7186 8e3e
000000d0: 1995 57bd 1831 033e a972 89be 3c5b 9f3e
000000e0: 1bba 4abe ce41 083d 1883 a4b9 5d83 16be
000000f0: 9b9c b9be 03e7 25b3 ab8d babe de46 ea3d
00000100: dee1 903c 4e96 a1be 02bb 253e 48ad 373e
00000110: 573d 963e a752 bdbd 81b7 923c b485 80be
00000120: e8e3 7d3e ae4e e421 8658 73be 4ac7 913e
00000130: d028 47a8 45c9 babc 85c1 343e 0872 66be
00000140: cf93 17bd 3826 ecbd 270c 45be d441 77be
00000150: 38e8 853e 2a68 63bd a09b da3d 52a1 93be
00000160: df2c a4a4 73b9 ae3e 5750 c43d 7ce2 2c28
00000170: db97 52bc f9d1 463e c2fc d2bd 3c69 c2bc
00000180: 2c59 b1bd 2e96 7f3b 94fd 71bd e5b0 543e
00000190: 3e8f 9e3c 1e25 e23d a5e0 b7bd 1469 4839
000001a0: 2501 a33d 6dd0 bfbd 3c45 9927 aafc ffbd
000001b0: 11d0 32bd 2b5a 923e 473e 50be 6e16 793e
000001c0: 07f0 bd3d 8d98 463e 3f20 bfbd aad9 7d3e
000001d0: cfe4 86bd 8a55 103e eb5b dab9 1e09 9f3d
000001e0: 137a 8d3e 8fc5 51a4 41cd 623e ffcb 293e
000001f0: 636a 44be d1b8 813e dc64 0ebe 058d ffbd
00000200: ec5b 2cbe ebaa 3d3e fc3c 63be dacf 3e3e
00000210: f34c 26be 35ab a8b8 38ac ff3d 427a 0ebe
00000220: 4d62 8ba6 dcb3 1bbe 6685 033c 8b0c 893e
00000230: c765 21be e187 983e 9ad0 ae3e 0a94 4a3e
00000240: b1bd d5bd 1fc9 5c3e f364 60be 67ac 8e3e
00000250: 155c 61a2 8e5a debd 114f 56be 121c 4e37
00000260: c969 a4be 3354 57be 2cad 103e de21 afbe
00000270: 5506 1c3e 3a3f fd3d fc13 bc3d 2454 4cbe
00000280: cb9b a63e 8d60 babe d51d 603d 2a19 05b8
00000290: 0ed2 e5bd 3dd0 87bc 107b 563a 9e89 5bbd
000002a0: 156f 5d3e 6880 c5be 45ce 813e dfad 9bbe
000002b0: d964 56be bd0e 1fbe 8f04 983e a12f cebe
000002c0: 7909 b63e 1a4e 41be fbd0 0135 c7ef 413e
000002d0: adb2 56be c265 5f2c dbc8 b7be 7916 d8bd
000002e0: 8428 233e feaf 44be ef91 d93c 9386 873e
000002f0: 5f5c 253e fbd4 b9bc 6c57 153e 5732 c4be
00000300: 2388 243e c06c 8fb7 d1fa b2be 5d6b 6e3e
00000310: 4e60 873a 1d58 8e3e 38f4 9b3e 7fc7 babd
00000320: 3355 543e 4300 48be 5155 41bd 4c61 b1be
00000330: 03df 8d3e d9e0 c1be 7806 aa3d 9716 91bd
00000340: cc6c f2b9 7e1b 023e 6053 a033 4679 dc21
00000350: 30d7 5cb0 56ac d829 ca4e 4c3b 5ec3 8026
00000360: 6f0b 94b6 6731 0b2e bfec 802d 4acf 8b2d
00000370: f725 6a3b 5a12 3cba 3c9d 8a34 4c3d 4cb8
00000380: df93 be24
0.064028755 8.466286e-15 0.30735037 0.10558485 -0.2790824 0.06430237 -0.32451102 -0.43067622
-0.27500468 0.058159992 -0.17931011 0.38279182 -0.23022541 -0.00033884065 0.20187643 0.098902404
5.323946e-05 0.16282101 -0.02924147 0.20754705 0.12243847 -0.054974917 -0.09288915 0.08996561
0.018835703 0.179327 -0.07613907 0.18856615 -8.3288416e-16 0.052410487 -0.27308849 -4.2575326e-08
-0.23561485 -0.13850167 0.009524131 -0.25939766 0.06438806 0.26104957 0.017149853 -0.33584058
-0.07180608 -0.19060938 -0.0062852367 2.1329601e-16 -0.1760108 -0.24640071 -2.0437307e-07 -0.19461964
-0.27398378 0.3589908 -0.19395177 0.27836946 -0.052632425 0.12811697 -0.2684529 0.31124294
-0.19797556 0.03326588 -0.0003137819 -0.14698549 -0.36252293 -3.862716e-08 -0.3643621 0.11439298
0.017685827 -0.31559986 0.16184619 0.17937195 0.29343674 -0.0924428 0.017909767 -0.25102007
0.2479397 1.5470707e-18 -0.23764238 0.28472358 -1.1055569e-14 -0.02280105 0.17651947 -0.22504437
-0.037006196 -0.11530727 -0.19242917 -0.24146205 0.2615373 -0.05551926 0.10674214 -0.28834015
-7.119968e-17 0.34125862 0.09585636 9.597029e-15 -0.012853588 0.19416036 -0.10302116 -0.02373182
-0.08659586 0.0038999426 -0.05907972 0.20770605 0.019355413 0.11042236 -0.089783944 0.00019112631
0.07959203 -0.09365926 4.2541095e-15 -0.12499364 -0.04365546 0.28584418 -0.20336257 0.24324962
0.09274297 0.19394131 -0.09332322 0.24790064 -0.065866105 0.1409513 -0.00041648684 0.07765411
0.27632198 -4.548699e-17 0.2214861 0.16581725 -0.19181208 0.25336316 -0.13905662 -0.12478069
-0.1683194 0.18522231 -0.22191232 0.18633977 -0.16240291 -8.042754e-05 0.1248402 -0.13913825
-9.671707e-16 -0.1520533 0.00802741 0.26767382 -0.15761481 0.29791167 0.34143525 0.19783035
-0.104365714 0.21561097 -0.21913509 0.27865908 -3.0541934e-18 -0.10857116 -0.20928599 1.2285092e-05
-0.32111958 -0.21028213 0.1412856 -0.34205526 0.1523679 0.12365575 0.09183499 -0.19953972
0.32540736 -0.36401787 0.05471595 -3.1733107e-05 -0.112217054 -0.016578788 0.000818179 -0.05359804
0.21624406 -0.3857453 0.25352684 -0.3040609 -0.20936908 -0.15532966 0.29690978 -0.40270713
0.35554102 -0.1887745 4.836035e-07 0.18939124 -0.20966597 3.1746693e-12 -0.35895428 -0.10551161
0.15933424 -0.1920776 0.026558844 0.2646986 0.16148518 -0.022684565 0.1458413 -0.38319656
0.16067557 -1.7097569e-05 -0.34956983 0.23283143 0.0010328384 0.278016 0.30459762 -0.09120082
0.20735626 -0.1953135 -0.047200505 -0.34644544 0.27709207 -0.37866858 0.08302015 -0.07084387
-0.00046238897 0.127058 7.4657464e-08 1.4939881e-18 -8.0341334e-10 9.6222225e-14 0.0031174892 8.934739e-16
-4.4120748e-06 3.164882e-11 1.4657052e-11 1.5894525e-11 0.0035728195 -0.00071743655 2.5818906e-07 -4.8694477e-05
8.264987e-17

encoder_layer_list.2.bias f4 [15]
00000000: 52f4 173e b8c1 593e 29a6 8d3e 97ce 7e3e
00000010: 412e 1c3e 4c45 823d 81d7 373e e5c5 8b3d
00000020: ac71 313d ccb4 c23d f50a 8b3e 85ee 223e
00000030: d3ef 513e 7855 653d 02a7 3abc
0.14839295 0.21265304 0.27665833 0.24883495 0.1525202 0.063608736 0.17953302 0.06824855
0.043321297 0.095071405 0.27156797 0.159113 0.20501642 0.055989712 -0.011392357

decoder_layer_list.0.weight f4 [15, 15]
00000000: 86f5 263e aad3 243d be47 88be ef67 05be
00000010: 3696 80be ad0c 9d3e 555b 5c3e c412 63be
00000020: 0d88 7ebd 0032 debe 0023 afbe 149f 0e3e
00000030: 3eeb 87be fb76 3e3e 2cab e924 65a4 18be
00000040: e78d af3d 2f19 483c fbff 833e 21eb 47bd
00000050: 0951 98be 3a66 a9bd 74b6 223d efd5 9cbe
00000060: d7ca fb3d 1e06 013d ea9e 5dbe c246 4a3d
00000070: ff8a 87be 69f1 d025 b18e 58be bb64 54bc
00000080: f725 6d3e 9260 2a3c 601c 433d 2d05 63be
00000090: fa06 a23d afea 813d 0826 91be 09bf 123e
000000a0: b348 0e3e 16ce 2fbe 5500 adbb c9dc 76be
000000b0: c2b0 81b9 3400 0abe 52bd 61bd 1c2d 96bd
000000c0: 57e3 debd 0e19 c63d 59ab 62bd 5bf3 ab3d
000000d0: ff31 c63d 8189 0ebe ba61 4a3e 6080 623d
000000e0: 5ce8 80be 0787 893d e9cf 84be adfa b4b9
000000f0: b702 72be cbd1 83bd e7fe 8fbd cc11 323e
00000100: 546f a43e 0dd2 53be a9b0 07be 6cf4 873e
00000110: 688d 99be 490a 5a3e 3d8b 30bd 1746 32be
00000120: 3354 813e fe87 57bd b175 c226 eb7d f43d
00000130: 3114 253e 66fb 74be 78d9 85be ed10 92be
00000140: dd53 d63d 8548 273d a7d3 66be eaeb 453e
00000150: 7b7d aabe 07cf 8abe e4df fb3d 3917 8abe
00000160: c25d 063e 5593 40a6 77cc 563d 3577 c73d
00000170: 3744 be3c c9db 93be c4a1 b6bd 3bcc b73e
00000180: 9ef4 953e dbac a23d 5d15 ae3d 2196 95be
00000190: 4e4e 5bbe 42c8 563e e071 86be 0d5d 4c3d
000001a0: 5ddb 0ba7 44b9 8bbd 3bc4 7b3e e1ca 833e
000001b0: 3ddd 503e a76a 923e e3a4 773d 5836 98bc
000001c0: 278e 953e 3b26 59be 3829 463e f694 34bd
000001d0: bf2d 62be 0633 aa3e b725 0fbe 4ad0 2cb2
000001e0: 0222 2b3e dade 863d f66c 95be bd90 90be
000001f0: 3ed1 d2be 41c8 093c c015 b93c f6c9 b2bd
00000200: 6152 ad3d 3de4 b6be 4ee2 53be 1c0d c83d
00000210: 5514 bdbe ef1c 253e dc70 a938 2466 98be
00000220: 6f2e 323e 2a9b 3a3e 7b68 ab3d ab60 853e
00000230: 37b6 0cbe d27f b1bc 382b 5f3c c56a 9abe
00000240: ef9b 0abe d58f 853e 171e 8fbe 47da 2c3e
00000250: 5919 88be 6cbc dea5 ddf1 c5bc f058 533e
00000260: 17cb b3bd 45e2 a9be 134b 99be 4020 203e
00000270: 0a8d 1a3d e762 bfbd b413 213d 1520 c0be
00000280: cfca d3be 621f c5bc cd5f d7be e607 373d
00000290: 59b5 97b8 6d87 9c3e 8fef 033e c43a 20be
000002a0: 302a 2fbe 17ef e2bd ddc5 863d 90ae bb3d
000002b0: cc1e b3bd d808 7b3e a48a 69be a6be 77be
000002c0: 0dbf a73e fac3 debc 4744 123e 0a7c 41ac
000002d0: 4ca6 34be 7809 a63d b46b 273e 0c12 743e
000002e0: f024 673d 4d51 37be 5635 223e da3b cf3d
000002f0: b557 95be 3add 443d 22e9 043e ee46 29be
00000300: 2d38 643d 2345 75be 88fd 89a5 e847 4fbe
00000310: f54b 823e 0027 9c3e e8ff c33b 47ba 823e
00000320: cca7 80be 0449 1a3e 91dc 823e 0da2 86be
00000330: 11d5 8b3d c114 113e 9105 84bd 2287 573e
00000340: dd4a 5fbe e2d5 35b8 62a7 8d3e b2a9 e93d
00000350: 3d3a 73be fd81 b3bd bfde 20be 9dc2 883e
00000360: 06c1 81bc 898e e4bd 26a2 5e3e 4d3a 3fbe
00000370: baf3 27be 3d37 983e c36b 47be 4b2d 193e
00000380: 2d61 9eb2
0.16304597 0.04024092 -0.26617235 -0.13027929 -0.25114602 0.30673733 0.21519215 -0.22175127
-0.062141467 -0.43397522 -0.3420639 0.13927871 -0.26546663 0.18600075 1.0133762e-16 -0.14906462
0.085719876 0.0122130355 0.25781235 -0.04880822 -0.29749325 -0.08271451 0.039724782 -0.30631968
0.12294548 0.031499974 -0.21642652 0.049383886 -0.26473233 3.6245834e-16 -0.21148182 -0.012963469
0.23159014 0.010399001 0.047634482 -0.22169943 0.07911487 0.063435905 -0.28349328 0.14330687
0.1389492 -0.1716846 -0.0052795806 -0.2410766 -0.00024736492 -0.1347664 -0.05511219 -0.07332823
-0.108832054 0.096727476 -0.05533919 0.08396026 0.09677505 -0.13919641 0.19763842 0.05529821
-0.25177276 0.067152075 -0.25939873 -0.00034519043 -0.23633848 -0.06436499 -0.07031041 0.17389601
0.32116187 -0.20685597 -0.13250984 0.26553667 -0.29990697 0.21292986 -0.043101538 -0.1740955
0.2525955 -0.052619927 1.3493354e-15 0.119380794 0.16120984 -0.23924026 -0.26142478 -0.28528538
0.104652144 0.040840644 -0.22541676 0.19328275 -0.3329886 -0.27111074 0.12298563 -0.26970842
0.13121703 -6.6813054e-16 0.052441087 0.09739534 0.023225887 -0.2887862 -0.08917573 0.35898003
0.2928819 0.07943126 0.085001685 -0.29216102 -0.2141659 0.2097483 -0.26258755 0.049893428
-1.9409042e-15 -0.06822446 0.24586575 0.25740722 0.20396896 0.28596994 0.060459983 -0.0185806
0.29210016 -0.2120599 0.19351661 -0.044087373 -0.22087763 0.33242053 -0.13979231 -1.0059077e-08
0.16712192 0.06585474 -0.29184693 -0.28235427 -0.41175264 0.008409561 0.022593379 -0.08729927
0.08462978 -0.35721007 -0.20691797 0.097681254 -0.36929575 0.16124319 8.07957e-05 -0.29765427
0.17400526 0.18223253 0.083695374 0.26050314 -0.13741384 -0.021667395 0.013621144 -0.30159584
-0.13536046 0.26086298 -0.27952644 0.16880141 -0.2658184 -3.863854e-16 -0.024163181 0.20639396
-0.08778971 -0.33180442 -0.2994009 0.15637302 0.03773216 -0.09345036 0.03932543 -0.37524477
-0.41365668 -0.024062816 -0.42065278 0.044685267 -7.23402e-05 0.30572072 0.12884353 -0.15647417
-0.17105937 -0.11080759 0.06580708 0.091641545 -0.087461084 0.24515092 -0.22806793 -0.2419382
0.32762948 -0.027193058 0.14283858 -2.7495805e-12 -0.17641562 0.08107275 0.16349679 0.2383501
0.05643171 -0.17902108 0.15840659 0.10118838 -0.29168478 0.04806254 0.12979558 -0.16530964
0.055717636 -0.23952155 -2.393751e-16 -0.20242274 0.25448576 0.30498505 0.005981434 0.25532743
-0.2512802 0.15066916 0.25558904 -0.2629551 0.068277486 0.14168073 -0.06446374 0.21047643
-0.21805902 -4.3352957e-05 0.27666765 0.1140932 -0.23752685 -0.08765028 -0.15709971 0.26710978
-0.015839111 -0.11159999 0.21741542 -0.18674584 -0.16401568 0.29729643 -0.19474702 0.14958684
-1.8437811e-08

decoder_layer_list.0.bias f4 [15]
00000000: 5862 923e 176f 833e 4f59 493e c58b 9a3e
00000010: 8af3 723e 437e 793e 8d92 e33d 024e 34bd
00000020: c3cd 913e c3ea 533e d0c1 a93e c6ae ac3d
00000030: 5489 f43d 30ec 823c cf19 0a3e
0.28590655 0.25670692 0.19662975 0.3018476 0.23725715 0.24364571 0.11111937 -0.044019707
0.28477296 0.20695023 0.3315568 0.08431773 0.11940256 0.015981764 0.13486408

decoder_layer_list.1.weight f4 [15, 15]
00000000: ca7f ae3d 5257 2abe d7b3 84be 1ee9 7a3d
00000010: d7e4 90be 7c97 a73e 08bc 653e 385c 5fbe
00000020: 861c 9a3e c0e6 46be acdd 953e a7b0 0d3e
00000030: 8053 83be 8635 68be f049 6e3e 21b3 e0bd
00000040: f66c 153e 708f 173e 045e 603e b6a5 f93d
00000050: 189b 4bbe 037b 3d3d 59e3 803d 7d09 36be
00000060: 9327 a93e 4251 eabd 2ef1 3abe 40a5 783e
00000070: a531 f23d e6bc 4abe b3b0 98be 333b c2b8
00000080: 8740 ae3d ab3e 3f3d ffca 683d 9306 72be
00000090: 9c0b 3abe b7f6 923e 7ffc 69be 95bf 383e
000000a0: 3fcb 13be e891 7cbe d007 923c 496b 423d
000000b0: 512d 3bbe 4f84 5e3e ad06 40be 5fcd c33c
000000c0: 531e 783e 3bc0 443e a5f0 85bc ae9c 4e3e
000000d0: 194e 11bd c965 53bd 2394 a03d 0cb4 f33b
000000e0: e8f1 c4bd 38e1 7d3d b088 84bc fa65 2fbe
000000f0: ab9c 863e c068 8abe d8d2 93be a730 04be
00000100: a806 8ebe b789 473d 129e bd3c 072e 30be
00000110: c855 8b3e a492 48be 2c1d a13d 470f 453e
00000120: e4c1 90be 5173 89be 3ca0 383d e391 2e3e
00000130: 6429 49be 9085 5abe fda5 043e f679 5abe
00000140: 5da0 973e 9d87 a63e a3f5 27be 2b8f 483e
00000150: 2dde 5fbe 3976 a53e 29bf 5c3e 7ece 18be
00000160: 83f5 283c 6b61 1d3e b06a f1bd 2ea2 953e
00000170: 3613 6f3e e06f 763c 54dd 8e3e 8206 66be
00000180: f209 80bd acda 583e a8b0 5fbe f98b 4f3d
00000190: b9d0 f8bd d53f 27be ba18 943e bdae 6a3e
000001a0: 8c3d e03b 4644 863d ccd9 52be b5e2 c9be
000001b0: 9b8e 29bb a1cd cfbe 7bab 003e b2d2 283e
000001c0: 4f85 e1bd a409 2c3e e7a2 a9be 9ffb d23e
000001d0: 1de4 033e e38c 66be 49b6 bbbe 8d2e f93d
000001e0: 0841 acbd 9a3e 2c3e 65ee 243e d5cf 113e
000001f0: 3353 9f3d dafb 81be 4d56 06bd 55aa 893e
00000200: 63d2 6fbe aff1 da3d 5f1a 64be b8cd 1ebd
00000210: b706 373e 1bf9 693e 00f7 43be 2548 003e
00000220: ed90 6f3e b825 4d3e a052 b13e 8f1b 4a3e
00000230: 43f6 80be f060 17be 91d4 813d 87ee 4bbe
00000240: 973d 3f3e 4ad6 44be d842 56be 2cc0 fe3d
00000250: e7ed 9d3d 2ce5 fcbd f6b0 66bd b5a2 343e
00000260: 2026 783e 3417 913e 97d9 033e 5fd3 6ebe
00000270: bccf ddbd d34d a3bd 5334 57be ee1d e83d
00000280: b61a 4abd 83b0 52be 1c76 433e 5852 423e
00000290: 11ff 7bbe c403 bd3e 01f0 08be 8c6b 8dbe
000002a0: e5c8 da3c 469c a6be cb29 743e ebed 933e
000002b0: ac51 febd 2810 173e e9ce f6bc 250d da3e
000002c0: b219 823d 2751 86be d4cb b2bd 997c 6b3e
000002d0: 3908 f2bd c8da 3a3e 0d6c 0d3d 2d41 0c3e
000002e0: 3348 983d 8cfd 3bbe 11ff ab3a 341f 3e3e
000002f0: 2e1c 8abe dc53 a1bd 2fc9 2abe ebc2 7dbe
00000300: 6e33 c13b 370c fc3d 0c7f 1cbe 72aa 88be
00000310: 73ad 5c3d 6758 263e 3351 b13e 9bc5 153e
00000320: 9366 91be 5c1c 00be d668 a4bd d1ca 97be
00000330: 1c7b 833d 5650 9cbc 923d 1dbe 798d 583e
00000340: b5ae 513e b754 86be 6183 8dbd e38c 603e
00000350: 4c62 2d3e 8a5c 30bc 1139 853b 2fda 32be
00000360: 89d1 06be af95 a63e 816c 46be 1cee 9b3e
00000370: 5ab3 9ebd 6009 1bbe 7d68 523d 5127 733d
00000380: 8bfa b6bd
0.085204676 -0.16634873 -0.25918457 0.061257474 -0.2829959 0.3273276 0.2243501 -0.21812522
0.30099887 -0.19423962 0.29270685 0.13836919 -0.25649643 -0.22676668 0.23270392 -0.10971666
0.14592347 0.14800811 0.21910864 0.1218981 -0.19883382 0.04625989 0.06293363 -0.17777057
0.33038005 -0.1144128 -0.18256065 0.24281788 0.11825875 -0.19798622 -0.2982231 -9.2616676e-05
0.08508401 0.046690624 0.056834217 -0.2363532 -0.18168491 0.28703853 -0.22850226 0.18041833
-0.14433001 -0.24665034 0.01782599 0.047465596 -0.18279006 0.21730159 -0.18752547 0.02390164
0.24230318 0.19213955 -0.0163501 0.20176956 -0.03547487 -0.05161074 0.07840755 0.0074372347
-0.096164525 0.061982363 -0.016178459 -0.17128745 0.26291403 -0.27033043 -0.288718 -0.12909184
-0.27739453 0.04871532 0.023146663 -0.17205058 0.27213883 -0.19587189 0.07866892 0.19244109
-0.28272927 -0.26845792 0.045074686 0.17047839 -0.19644696 -0.21340013 0.12953945 -0.21335587
0.29614535 0.3252534 -0.16402297 0.19585864 -0.21862097 0.3231676 0.21557297 -0.1492252
0.010312441 0.15369193 -0.11787927 0.29225296 0.23347172 0.0150413215 0.27903235 -0.2246342
-0.06251897 0.21177167 -0.21844733 0.050670598 -0.12149186 -0.16332944 0.28925115 0.2291822
0.0068432745 0.06555991 -0.20590895 -0.39430776 -0.0025872353 -0.4058657 0.12565415 0.16486624
-0.11011755 0.16800553 -0.33132097 0.41207597 0.12879987 -0.22514682 -0.3666251 0.12167082
-0.08410841 0.16820756 0.16106565 0.14239438 0.07779541 -0.2538746 -0.032797147 0.26887766
-0.234201 0.10690629 -0.22275685 -0.038770407 0.17873655 0.22848932 -0.19137192 0.12527521
0.23395129 0.2003392 0.3463335 0.19737075 -0.25187883 -0.14783072 0.06339372 -0.1991521
0.18675838 -0.1922237 -0.20923936 0.124389976 0.07711392 -0.123483986 -0.056321107 0.17640193
0.24233294 0.28338015 0.12875973 -0.23322819 -0.10830638 -0.07973828 -0.21016054 0.11333834
-0.04934188 -0.20575146 0.19088024 0.18976724 -0.24609019 0.36916935 -0.13372804 -0.27621114
0.026707122 -0.32541102 0.23844068 0.28892455 -0.124179214 0.14752257 -0.03012796 0.42588153
0.06352557 -0.2623379 -0.087302834 0.22996749 -0.118179746 0.18247521 0.034526873 0.13696738
0.07435646 -0.18358439 0.001312228 0.1856659 -0.26974624 -0.07877323 -0.16678308 -0.24781387
0.0058960235 0.12307017 -0.1528284 -0.2669254 0.05387635 0.1624466 0.34632263 0.14626162
-0.2839857 -0.12510818 -0.08027808 -0.29646924 0.064199656 -0.019081276 -0.15355518 0.21147718
0.20476802 -0.26236507 -0.06909824 0.21928744 0.16932029 -0.0107642505 0.0040656407 -0.17466043
-0.13165869 0.32536075 -0.19377328 0.304551 -0.07749052 -0.15140295 0.05136918 0.059363667
-0.08934506

decoder_layer_list.1.bias f4 [15]
00000000: 974b 943e aea5 623e c5ab e73e 712c f1bd
00000010: 90f2 cf3e 8835 053e db5b 763e 2fe2 ec3e
00000020: 025b 933e 5022 3e3e fc0f 913e a8b5 513e
00000030: 5ec4 a73e 29c3 ba3e e62f 7b3e
0.2896392 0.22133514 0.45248237 -0.11776055 0.40614748 0.13008702 0.24058478 0.46266314
0.2878037 0.18567777 0.28332508 0.20479453 0.32767004 0.3647702 0.2452999

decoder_layer_list.2.weight f4 [15, 15]
00000000: c462 953e 4501 8fbe 037b d2be a580 dc3d
00000010: 1e4b e73d a6eb 8a3e 7ac1 adbe 33f9 023e
00000020: ce05 9dbe 755e 0abe 5811 acbe 4610 903e
00000030: 652a b5be 2863 4ebe ffbd 7bbd df7d 853e
00000040: 32fa 9abe 05e4 c5be cd8e 97bd 12da 9c3e
00000050: 077f 813e ad90 8bbe f82b 983e 5542 5dbd
00000060: ad49 bcbe f731 19be 5dcb 7c3e 76f2 a5be
00000070: af6f 2dbe 0e9b 9dbe cb29 7fbe 1bfc 993e
00000080: 9c31 9d3e eca1 17be 95f0 adbe a007 6fbe
00000090: d8a1 5f3e d813 94bd f860 763e 61a5 8f3e
000000a0: 9ae5 853e c5dd 14be d8f4 db3d 5326 6c3e
000000b0: aaf8 803e 160c 6bbe 7653 5c3e d05f 7b3e
000000c0: d9d6 c23d 5f36 98be aaaa 7cbe 761f 7a3e
000000d0: e5f3 a4be e17a 653e 8510 153e b3f7 9b3e
000000e0: 52fe 84be 289a 513e 9563 993e a86f a13e
000000f0: 0347 88be b8e3 e33d ce4d 863d 3df1 323e
00000100: 0013 c9be ee78 7cbe 2d79 4a3e 5fdf a1be
00000110: 0447 723e 2b8d 5e3e 899a 853e 1b66 65be
00000120: 537d 4e3e 0aae e43e 5b7e cd3e a5d4 5fbc
00000130: c4f7 69bc 0341 dbbb b6f4 933c fd0c 99bc
00000140: 8d95 3ebc 1dc7 91bc 9f31 21bc c857 8bbc
00000150: fb42 3ebb b6ec 14bc 3ba0 23bc f1c8 0c3b
00000160: 0b07 903b b3b1 1ebc 2ff5 e9bc 1ecf a2bc
00000170: 9736 e8bb f746 f3bd 006a ecbc 314a babc
00000180: 0a87 c9bc bb01 ebbc 8db9 10bb 8a2b 30bc
00000190: 4e95 b1bc e65c 93bc 23c4 2dbd 05c7 e33b
000001a0: d219 6bbc fac4 07bd 51c2 15bd 94fc 97bc
000001b0: 876c 12be 8673 5bbd 0b4a fabc 3518 a4bc
000001c0: fd48 49bd e17d d3bc 1c13 b7bc 9a2c 3fbd
000001d0: 9fa9 01bd c064 7fbd 9ad8 95bc b813 46bc
000001e0: 23dc 53bd 0d9e 90bd 6b8e 8cbc b16e 13be
000001f0: 9f7e 79bd c85f 46bd 5315 6cbd 10c3 82bd
00000200: 8c48 6ebd 567b 85bc d96c c63b 4c12 42bd
00000210: 2663 a1bd a0d4 8cbc c4a4 bdbd 65f9 87bd
00000220: e406 19bd 6ed0 33bd 6ccb 8dbe b657 99bd
00000230: 6019 7ebd b83d 4ebd 7c8d a1bd 0d9c 40bd
00000240: ef39 5cbd 8280 b83a ce76 83bd 919f 42be
00000250: 13b7 11bd 734a 4ebd ca47 c93b 19c0 0bbb
00000260: 6491 a9b9 f3bd 5a3d d42b ad3b b0d0 f63b
00000270: 1e13 983b 0adc 743c c81d 8c3c 51bf 633c
00000280: d2dd 9a3b fdd0 0c3c 309a dfbc 144e c93b
00000290: 8187 b6b9 e7d1 96bb dbf4 183b c051 8d39
000002a0: b14f 2d3c 075e a3bb 9469 36ba dacf 97bb
000002b0: 0761 72bb 91f9 0bbb 398e 60bb d8dd 143a
000002c0: 9654 943b 6013 5dbc 5a07 50ba 6e30 5e3c
000002d0: 9f00 823c 2a79 bd3c 6d81 d7ba aa59 c03c
000002e0: bdac ab3c 9afc 0e3c 27fd ff3b 2c26 b23c
000002f0: 820d 553c 3d1d 9b3c a1cf d23b 0e22 673c
00000300: c203 913d bc70 9abb 9d3c 5c3c 601d 0dbd
00000310: 0e9b 1ebd fb09 8cbc 963e f6bd 663b 27bd
00000320: af7a 0bbd 6cc4 46bd a33b ffbc bf19 c43b
00000330: c495 10bd c018 8dbd 7140 17bd 86f6 4fbc
00000340: e684 5cbd 8220 63bd e04c fbbc 17a8 743c
00000350: 3601 90bd 0f93 0fbe 7e86 cdbc 9eb8 0fbd
00000360: 3e09 bdbc 543c adbc fbde fe3b 8d72 90bd
00000370: b490 9cbc 9473 d1bc 14bc cdbb 2d7e 4d3c
00000380: 0ec2 28bd
0.29176915 -0.27930656 -0.41109475 0.107667245 0.11293624 0.2713291 -0.33936673 0.12790374
-0.3066849 -0.13512595 -0.33606982 0.28137416 -0.35383907 -0.20155013 -0.06146049 0.26072595
-0.3026901 -0.38650528 -0.07400284 0.30635124 0.25292227 -0.27258816 0.29721045 -0.054018337
-0.3677496 -0.14960466 0.24686952 -0.32411546 -0.16937135 -0.3078236 -0.24918287 0.30075154
0.3070191 -0.14807862 -0.33972612 -0.23342752 0.21839082 -0.072303474 0.24060428 0.28055862
0.26151735 -0.14537723 0.107400596 0.23061495 0.25189716 -0.22953829 0.21516213 0.24548268
0.09513635 -0.29728982 -0.24674478 0.24426064 -0.32217327 0.22410156 0.14557083 0.30462417
-0.2597528 0.20468962 0.29958788 0.315305 -0.26616678 0.11127418 0.06557809 0.17474838
-0.39272308 -0.24655506 0.19772787 -0.3161573 0.23659903 0.21733539 0.26094463 -0.22402231
0.20164995 0.4466403 0.40135464 -0.013661538 -0.014280263 -0.0066910996 0.018061023 -0.018682951
-0.011632335 -0.01779514 -0.009838491 -0.01700963 -0.0029031623 -0.009089639 -0.009986932 0.0021482075
0.004395371 -0.0096859215 -0.028559295 -0.019874152 -0.0070865857 -0.1187877 -0.028859138 -0.022740455
-0.024600524 -0.028687349 -0.0022083253 -0.010752568 -0.02167764 -0.017988633 -0.04242338 0.006951215
-0.014349418 -0.033146836 -0.036562268 -0.018553056 -0.14299212 -0.05357697 -0.030552885 -0.020031074
-0.049141873 -0.02581686 -0.02234798 -0.046673395 -0.031655904 -0.062351942 -0.01829176 -0.012089662
-0.05172361 -0.07061396 -0.017157754 -0.14397694 -0.06091177 -0.048431188 -0.057637524 -0.063848615
-0.058174655 -0.016294163 0.006055456 -0.04738073 -0.07880239 -0.017191231 -0.09259942 -0.06639365
-0.037360087 -0.043899946 -0.2769426 -0.07487433 -0.06203592 -0.05035183 -0.07888314 -0.04702382
-0.053766187 0.0014076384 -0.064191446 -0.19006182 -0.035574984 -0.05036397 0.006142591 -0.0021324216
-0.00032342516 0.053403806 0.0052847657 0.0075322017 0.004640951 0.0149450395 0.017104045 0.013900594
0.00472615 0.008594749 -0.027295202 0.006143341 -0.00034814703 -0.004602659 0.0023339305 0.00026954524
0.010578082 -0.004985574 -0.00069584814 -0.004632932 -0.0036984102 -0.002135847 -0.0034264459 0.0005678809
0.004526685 -0.013493389 -0.0007935666 0.013561351 0.015869437 0.023129065 -0.001644177 0.023480255
0.020956391 0.008727217 0.0078121605 0.021746717 0.013003709 0.01893484 0.0064334427 0.01410724
0.07080795 -0.004713146 0.013442186 -0.034451842 -0.03872209 -0.017094603 -0.12023656 -0.04082813
-0.034052547 -0.048527166 -0.031156367 0.0059845145 -0.035299078 -0.06889486 -0.03692669 -0.012693053
-0.05383768 -0.055450924 -0.030676305 0.014932654 -0.07031481 -0.14020942 -0.025088545 -0.035088174
-0.023075696 -0.02114693 0.007778046 -0.07053099 -0.019111969 -0.025567807 -0.006278524 0.01254229
-0.04120069

decoder_layer_list.2.bias f4 [15]
00000000: 9eea 893e bf3a 443d ac98 90be aa80 92bd
00000010: 5381 6d3c 9fa5 b1bd 126b 45be 9c88 96bd
00000020: 2044 16be d55f fdbc 8350 fa3d 2523 c43d
00000030: 616d e6bb 903d 0d3d f26e 353e
0.2693681 0.047907587 -0.2824148 -0.07153447 0.014496165 -0.08674168 -0.19279125 -0.07350275
-0.14674425 -0.030929485 0.12222388 0.09577016 -0.007032082 0.03448254 0.17718104
