result/FairOD_weights/under_representation_bias/cluster/seed_126/biasRate_0.05.pt (torch, 5778 bytes, 11 tensors)

encoder_layer_list.0.weight f4 [7, 15]
00000000: 6d33 9fbe 38df c7be 2152 f13e 4e05 b33e
00000010: 70d5 e33e bd54 133e e8b0 fabc 2976 543d
00000020: b2f3 2bbd cefc 1a3e e84b b73d ad1e b6bc
00000030: ad39 6e3e 51d5 a73e 6dff 8a3e 8ee6 f03e
00000040: 09c0 e43e f054 bc3e 5d21 8c3d effb 993e
00000050: dacf c53e 303a 653e a673 483e 3206 0a3e
00000060: 175b 0b3f 2cb4 ce3e 8f30 ea3e b3af c63e
00000070: 1c25 2a3e 63e4 003f a2ca 14be dd24 efbe
00000080: fc76 133f bfac cf3e 9a34 e83e a2f1 2e3d
00000090: 9ecc 213e ac59 a33e 0d9f a5bd 1c37 653e
000000a0: 3737 293e 30c5 f63e b9b6 9b3e ccd2 f03d
000000b0: ce27 183e c538 e0be f60c 0bbe 3943 fb3e
000000c0: 4684 d43e 452d 9e3e d590 8abe 9105 e73b
000000d0: 0246 43bc e8df 03bd 2975 18bc 8e6e a33e
000000e0: ce18 08bd 085b fd3b 278b 0e3c 0584 d7bd
000000f0: 3912 853e 0810 b53e 7b54 bcbd 228d 06bf
00000100: f2a6 09bf 774b aa3e a0aa 873e f1cf b93d
00000110: abb8 173f eb77 153f e27f a03e 00f0 933d
00000120: 9470 473e 2969 203e 937a b93e 76ac 2bbe
00000130: 3218 f0bd 517c 73be 175a 2c3d fa83 4bbe
00000140: 9ae8 a1bd 2ef5 8fbd 0f27 49be 3457 c73b
00000150: 7076 323e ca28 75bc ebe3 463d 003c 33be
00000160: 445f a33d 6242 83be 7c1e f63e 4bc0 713e
00000170: d71a 003e 89b1 933c 0ba4 8b3e 62af 233e
00000180: ff53 c53e 957f e03e daac 103f d683 113f
00000190: 4c08 c93e 96fd ec3e dbd9 873e 649b df3e
000001a0: a076 b13e
-0.31093922 -0.3903749 0.47132972 0.34964985 0.44498777 0.14387794 -0.030601934 0.0518705
-0.041980453 0.151355 0.08950025 -0.022231424 0.23264189 0.32779935 0.27148 0.470509
0.4467776 0.36783552 0.06842301 0.30075023 0.3863514 0.22385478 0.19575366 0.13478926
0.5443587 0.40371835 0.45740172 0.38805923 0.16615719 0.5034849 -0.14530423 -0.46707812
0.5760343 0.40561482 0.45352632 0.042710908 0.15800712 0.31904352 -0.08086977 0.22384304
0.16524969 0.48197317 0.30412844 0.11758956 0.14858934 -0.43793312 -0.13579163 0.49074724
0.41507167 0.30893913 -0.27063623 0.007050224 -0.011918547 -0.032195956 -0.009305277 0.31920284
-0.03322678 0.007731799 0.008700169 -0.105232276 0.25990465 0.35363793 -0.09195801 -0.525591
-0.53770363 0.332607 0.26497364 0.09072865 0.59266156 0.58386105 0.31347567 0.07223511
0.19476539 0.15665115 0.3622633 -0.16765007 -0.11723365 -0.23777892 0.042078104 -0.19874564
-0.07905693 -0.07029186 -0.19643806 0.0060833935 0.17427993 -0.014963338 0.048557203 -0.17503357
0.07977155 -0.25636584 0.48070133 0.2360851 0.12510239 0.018028991 0.27273592 0.15984872
0.38540646 0.43847337 0.5651375 0.5684179 0.39264143 0.4628722 0.26533398 0.4367324
0.34660816

encoder_layer_list.0.bias f4 [7]
00000000: eee6 a53e 1e56 c43e d46e ba3e 373d 673e
00000010: 51cb 45bd 1cf0 073e 66b0 ed3e
0.32402748 0.38346952 0.3641268 0.22581945 -0.0482896 0.13275188 0.46423644

encoder_layer_list.1.weight f4 [3, 7]
00000000: 43bb eb3e db04 873e 93bf 293f 9e49 863e
00000010: 8954 2fbf eb9c fdbd a021 083f 25b1 cebe
00000020: 13bc b73e 0130 a2be 1b25 29bf ae8b 903e
00000030: bb9d 943e a1a8 203f bbf8 e33e f77b e63e
00000040: f970 593e 41dd 0e3f 5bb0 11bf 8cf9 16be
00000050: 1bae f53c
0.46041307 0.26370892 0.66307944 0.2622804 -0.68488365 -0.12383445 0.5317631 -0.40369526
0.35885677 -0.3167725 -0.66072243 0.28231567 0.2902659 0.6275731 0.44525704 0.45016453
0.21234502 0.55806357 -0.5690972 -0.14743632 0.029990247

encoder_layer_list.1.bias f4 [3]
00000000: e8dd 503e 22c2 39bd 0de5 0f3f
0.2039715 -0.045351155 0.5620888

encoder_layer_list.2.weight f4 [1, 3]
00000000: 338a 443f 27de 6cbf ed98 b53e
0.76773375 -0.9252648 0.35468236

decoder_layer_list.0.weight f4 [3, 1]
00000000: 469d 4fbf e26a 4f3f 1414 0a3f
-0.81099355 0.81022465 0.53936887

decoder_layer_list.0.bias f4 [3]
00000000: 2846 b3be c4e3 08be f447 ac3e
-0.35014462 -0.13368136 0.33648646

decoder_layer_list.1.weight f4 [7, 3]
00000000: fee9 04bf 6b9d 293e 7a37 823e b103 293e
00000010: 67cb 85bd a69f 4d3f 6e18 82be 8781 813d
00000020: 6372 df3e 6696 61be de8e e1be 047e 213e
00000030: 4398 b83d ca34 ad3e 979f d53e be35 f43e
00000040: eae6 b6be 62ef 1f3e 1912 a9be 71ec ef3e
00000050: e93a 2d3f
-0.51919544 0.16563956 0.2543295 0.16505314 -0.065329365 0.8032173 -0.25409263 0.063235335
0.43641958 -0.22030029 -0.44054312 0.15770727 0.090134166 0.33829337 0.4172332 0.47697252
-0.35723048 0.15618661 -0.3302162 0.46860078 0.67668015

decoder_layer_list.1.bias f4 [7]
00000000: e25b cdbe 7eaf a3be 1406 323f 01cb 713f
00000010: b9ab 0fbe 4341 3f3f cc1d 7dbe
-0.40109164 -0.31969827 0.69540524 0.94450384 -0.1403035 0.74708956 -0.24718398

decoder_layer_list.2.weight f4 [15, 7]
00000000: 85db 79bd e009 82be 8793 b83d 384c 2a3f
00000010: 9c23 15bd 279a 5f3f 8dc1 e9be 157c 11be
00000020: c48d cabe 80c2 9f3e d9a3 753e 45c8 00bf
00000030: 629d 623f 4055 8bbe 2ee6 6d3c aa9f fe3d
00000040: 0467 10bf e168 02bf 9a31 003f 4f41 1bbf
00000050: c7f8 d53e 2fe8 233f 75b1 2d3f 5b16 1fbf
00000060: d401 86be 7a2e eabd a855 12bf 5234 f83e
00000070: 266f be3d d840 3fbe d12a acbe 8f49 1cbf
00000080: 629d 043f 4a85 fbbe 8d62 0f3f 4e7e 9c3e
00000090: ba3a 4c3d b94e 6b3d b751 9bbe 1659 e0bc
000000a0: d36f 01be f564 74be 4ff2 95bd db7e 89bc
000000b0: 8d3c 2f3e 654b 61bc 346a 10bd 6dd6 1bbf
000000c0: de45 1cbe c181 9d3e 5a7d 803d 8fbf 87be
000000d0: 73a5 133b 9752 a03e 4f63 263e 43d7 45be
000000e0: 99cc 87be f68e af3d a63d a6be 1920 b3be
000000f0: 6b61 d93c 42b5 9a3d 4192 3e3d 7ccc b33e
00000100: 464a bbbe ca11 84bd 82df 49be fea4 bcbe
00000110: 96f9 aabd adcc 933e 26e0 cf3d 50af a83c
00000120: 7a9a 9fbe cefa 113e 1f55 e73b e04d d43c
00000130: 3752 eb3d 48f6 b03e f3ce 86bd d920 4abe
00000140: d326 373e 5265 a33d ff4e 303e 8f3d 6b3d
00000150: c6bd 423d 3cc9 cbbe b715 ea3d bd09 8ebd
00000160: ec6c e23c 080f 543e e990 1a3e c03b 803e
00000170: 334d bd3d 2e47 87bd 8e86 643e 5c0e 62bd
00000180: 6fe4 89be daa7 7abd c3b0 b5be feb7 3e3e
00000190: 2fc5 65be 02fd 843c f57c 93be 0910 edbc
000001a0: d6f2 923e
-0.061000366 -0.2539816 0.090125136 0.6652255 -0.036410913 0.8734459 -0.4565548 -0.1420749
-0.39561284 0.3120308 0.23988284 -0.5030559 0.885214 -0.27213478 0.014520211 0.12432797
-0.5640719 -0.5094128 0.50075686 -0.6064653 0.41791365 0.6402616 0.678489 -0.62143487
-0.2617327 -0.11434646 -0.5716195 0.48477417 0.09298544 -0.1867708 -0.33626416 -0.6104974
0.5180265 -0.4912513 0.5600975 0.30565113 0.049860694 0.057448123 -0.3033578 -0.02738623
-0.12640314 -0.23866637 -0.07321607 -0.016784122 0.17112942 -0.013750886 -0.035257533 -0.6087406
-0.15261027 0.30763057 0.06273909 -0.26513335 0.0022529035 0.3131301 0.1624882 -0.19320397
-0.26523283 0.085721895 -0.3246891 -0.34985426 0.02653571 0.075541034 0.046526197 0.35116947
-0.36580104 -0.064487055 -0.19714168 -0.3684463 -0.08348386 0.28867093 0.10150175 0.020591408
-0.31172544 0.1425583 0.007059708 0.02591604 0.114902906 0.34562898 -0.06582441 -0.19739093
0.17885904 0.0797831 0.17217635 0.057431754 0.047544263 -0.39801967 0.11429923 -0.06935451
0.027639829 0.20708859 0.15094341 0.25045586 0.0924324 -0.06605373 0.22316954 -0.055189475
-0.26932094 -0.061195232 -0.3548642 0.18624875 -0.22438501 0.016233925 -0.28806272 -0.02893831
0.28700894

decoder_layer_list.2.bias f4 [15]
00000000: 0929 a43e ebf0 003f 3b70 fbbd f325 4cbe
00000010: 0318 dcbe ad29 723e da7d 353d f8e2 51be
00000020: 22f8 bb3d 3067 15be 4f00 8c3e 7618 8cbd
00000030: 0fed aabd d871 31be 5f7d 363e
0.32062557 0.5036761 -0.12277266 -0.19936351 -0.4298707 0.2364871 0.044309475 -0.20496738
0.09178187 -0.14590144 0.27343985 -0.06840603 -0.083459966 -0.17328584 0.17821263
