result/FairOD_weights/under_representation_bias/cluster/seed_123/biasRate_0.05.pt (torch, 5778 bytes, 11 tensors)

encoder_layer_list.0.weight f4 [7, 15]
0.22142683 0.14033982 0.034221645 0.19138679 0.20586434 0.074141875 -0.13683094 -0.14716433
-0.008776033 -0.07459687 0.028542452 0.20381856 -0.015196033 -0.016420634 -0.16155514 -0.08850092
0.15954094 0.1286685 0.12740487 -0.1402233 0.17163327 -0.15458575 0.1047506 0.03605741
-0.15206769 0.16290098 0.18610294 0.16321053 0.18940607 -0.0065489365 0.049639292 -0.1955922
-0.18789521 -0.123508744 -0.08758433 -0.19571944 0.21541248 -0.020754294 -0.03076798 0.100015976
-0.21661104 -0.1466191 -0.22318189 -0.17777681 -0.062018216 -0.015020774 -0.10377504 0.024757596
-0.08276965 0.04339015 0.22870405 0.0575301 -0.009050095 0.18101874 0.18915954 0.081515215
0.19150741 0.09526319 0.16850205 0.07316004 -0.022743247 -0.042522285 -0.016212964 0.055513356
0.24501622 0.17395318 -0.19525596 0.019184683 -0.24479866 -0.008149235 0.053770516 -0.16998391
-0.20244871 -0.17729695 0.2124472 -0.07863723 0.033660717 -0.23369147 0.11343962 -0.030651601
-0.24115936 -0.07001315 0.075874254 0.06346409 -0.018312633 -0.107494704 0.18307206 0.12174931
-0.12469828 -0.008487381 -0.06964404 -0.19483037 0.052055992 0.12883353 -0.18282299 -0.1869189
-0.12770395 0.25455976 -0.060565475 -0.052404944 -0.062179007 -0.069041125 -0.17162678 -0.23676541
-0.0047927387
00000000: b7bd 623e 3eb5 0f3e ff2b 0c3d e6fa 433e
00000010: 1ace 523e b2d7 973d 691d 0cbe 3fb2 16be
00000020: 5ac9 0fbc 3ec6 98bd dcd1 e93c d0b5 503e
00000030: c8f8 78bc 9184 86bc b66e 25be f83f b5bd
00000040: b35e 233e adc1 033e 6c76 023e b296 0fbe
00000050: a2c0 2f3e ba4b 1ebe 7c87 d63d efb0 133d
00000060: a2b7 1bbe 84cf 263e c591 3e3e a920 273e
00000070: aaf3 413e 7698 d6bb 9252 4b3d 5249 48be
00000080: 9a67 40be 27f2 fcbd 6a5f b3bd ad6a 48be
00000090: 1795 5c3e e904 aabc 210d fcbc 2dd5 cc3d
000000a0: 49cf 5dbe 5123 16be cb89 64be 200b 36be
000000b0: d006 7ebd b119 76bc 0288 d4bd 71d0 ca3c
000000c0: 2283 a9bd dfb9 313d 6531 6a3e afa4 6b3d
000000d0: da46 14bc fa5c 393e 0ab3 413e 73f1 a63d
000000e0: 851a 443e 5919 c33d cd8b 2c3e eed4 953d
000000f0: 0c50 babc d92b 2ebd 0dd1 84bc f961 633d
00000100: 88e5 7a3e c820 323e 2ef1 47be 3229 9d3c
00000110: 80ac 7abe 5e84 05bc 793e 5c3d 4310 2ebe
00000120: b74e 4fbe 558d 35be c28b 593e 8e0c a1bd
00000130: d2df 093d d14c 6fbe 0853 e83d 1119 fbbc
00000140: 7bf2 76be 0e63 8fbd f663 9b3d 76f9 813d
00000150: 6004 96bc 2f26 dcbd 3e77 3b3e b457 f93d
00000160: d061 ffbd a80e 0bbc 89a1 8ebd 9d81 47be
00000170: aa38 553d f0ec 033e f335 3bbe ab67 3fbe
00000180: d3c4 02be a855 823e 8113 78bd 91a6 56bd
00000190: 6aaf 7ebd 6f65 8dbd eebe 2fbe a272 72be
000001a0: 680c 9dbb

encoder_layer_list.0.bias f4 [7]
-0.24495819 0.0049491 0.22067608 0.030735105 -0.18952662 -0.0182632 -0.012015135
00000000: 52d6 7abe 0f2c a23b e9f8 613e 30c8 fb3c
00000010: 4413 42be b59c 95bc 21db 44bc

encoder_layer_list.1.weight f4 [3, 7]
-0.04583789 0.36346665 -0.02345377 -0.31451443 -0.17164953 0.081491664 0.2646174 0.0038687184
0.30632412 0.12976894 -0.3651058 0.376855 -0.00890022 -0.15709247 0.11514793 0.14811768
0.2910727 -0.3505113 0.1440507 0.286503 0.09787827
00000000: 83c0 3bbd 4d18 ba3e 1f22 c0bc 0908 a1be
00000010: e5c4 2fbe 1ae5 a63d ef7b 873e 538a 7d3b
00000020: 84d6 9c3e 26e2 043e 26ef babe 23f3 c03e
00000030: 3ad2 11bc d9dc 20be aed2 eb3d 29ac 173e
00000040: 7b07 953e 3876 b3be 0782 133e 85b0 923e
00000050: 6774 c83d

encoder_layer_list.1.bias f4 [3]
-0.23944211 0.024090244 0.008804204
00000000: 5030 75be e758 c53c 823f 103c

encoder_layer_list.2.weight f4 [1, 3]
-0.039038178 0.35435602 0.4489833
00000000: 7fe6 1fbd 276e b53e 24e1 e53e

decoder_layer_list.0.weight f4 [3, 1]
0.8986982 -0.799945 0.59937096
00000000: 1611 663f 32c9 4cbf 6070 193f

decoder_layer_list.0.bias f4 [3]
0.38870716 0.21804678 0.013744116
00000000: a004 c73e a847 5f3e 002f 613c

decoder_layer_list.1.weight f4 [7, 3]
0.13744427 -0.21164252 0.018651921 0.034011506 -0.44111922 0.1312762 -0.25988844 -0.50776565
0.37691212 0.42708847 -0.136084 -0.303372 -0.24538657 0.2079766 -0.047880463 -0.067979164
-0.017712316 0.07652922 -0.41616938 0.23928794 0.17112617
00000000: 31be 0c3e d1b8 58be eacb 983c a64f 0b3d
00000010: 61da e1be 456d 063e 1910 85be eefc 01bf
00000020: a0fa c03e 57ab da3e 9b59 0bbe 9353 9bbe
00000030: 9e46 7bbe d1f7 543e 4e1e 44bd a938 8bbd
00000040: 6b19 91bc 5abb 9c3d 2714 d5be e607 753e
00000050: b33b 2f3e

decoder_layer_list.1.bias f4 [7]
-0.19220592 -0.32813817 -0.42462823 -0.34661362 -0.49001324 -0.27763277 0.1537798
00000000: a1d1 44be ba01 a8be df68 d9be 5777 b1be
00000010: 04e3 fabe e225 8ebe 7478 1d3e

decoder_layer_list.2.weight f4 [15, 7]
0.3543001 -0.134459 0.008427528 0.3407487 -0.00236071 -0.22208318 -0.09183898 0.29316577
-0.033308115 0.15098415 0.26487896 -0.015779909 -0.25918937 0.049443163 0.35486084 -0.25684887
-0.23830914 0.34659776 -0.24979752 0.29792377 -0.2857629 -0.115892775 0.19921069 0.29021218
0.28537452 0.3296676 0.33498272 -0.24287814 -0.2669514 0.0056536915 -0.20819296 -0.27699202
0.079079635 -0.19753055 -0.253427 -0.025832009 -0.07769076 -0.26971695 -0.2858269 0.05190088
0.0806227 -0.1767638 0.017107014 0.030157514 0.30718803 0.068373084 0.29797688 -0.15975334
-0.3601775 0.2781734 -0.047852654 -0.008596491 -0.32259187 0.2294111 0.22929183 0.20176032
-0.21230295 0.023757048 0.16199565 0.0021280362 -0.15625337 0.30284935 -0.0470123 0.14327982
0.24026047 -0.11245651 0.36528042 -0.13788098 0.22806399 0.19295458 0.29762945 0.26044613
-0.090177774 0.1075896 0.13892391 0.37382117 0.24416275 0.22662279 -0.11629455 0.19251807
0.36461392 0.059752624 -0.14270459 0.1372299 0.11404454 -0.054927576 0.23520513 0.17085603
0.022052728 0.21419854 -0.3343382 -0.32423595 -0.31830096 -0.28232583 -0.091758594 -0.37705392
-0.270898 0.16831262 0.37723455 -0.3005057 -0.13490632 0.19470495 -0.31443056 -0.23799528
0.13044159
00000000: d366 b53e 9faf 09be 9d13 0a3c 9d76 ae3e
00000010: 24b6 1abb c669 63be 1316 bcbd d319 963e
00000020: 176e 08bd 979b 1a3e 379e 873e de44 81bc
00000030: 78b4 84be ea84 4a3d 52b0 b53e b281 83be
00000040: 5007 74be 4375 b13e ecca 7fbe 7789 983e
00000050: 844f 92be 3159 edbd e3fd 4b3e b196 943e
00000060: 9c1c 923e 31ca a83e db82 ab3e 0cb5 78be
00000070: dbad 88be 9a42 b93b 8930 55be e6d1 8dbe
00000080: 81f4 a13d 7345 4abe 2fc1 81be a69d d3bc
00000090: 551c 9fbd 5718 8abe e757 92be 0496 543d
000000a0: 841d a53d 9201 35be 0224 8c3c e40c f73c
000000b0: c047 9d3e 3007 8c3d 6d90 983e 6196 23be
000000c0: 2f69 b8be be6c 8e3e 2501 44bd 4cd8 0cbc
000000d0: c32a a5be beea 6a3e 7acb 6a3e 429a 4e3e
000000e0: f265 59be 249e c23c 30e2 253e 8676 0b3b
000000f0: e200 20be 120f 9b3e f88f 40bd f2b7 123e
00000100: d706 763e 994f e6bd 0906 bb3e ac30 0dbe
00000110: 9b89 693e e395 453e e362 983e 3259 853e
00000120: 20af b8bd f057 dc3d 1242 0e3e 7d65 bf3e
00000130: cd05 7a3e ce0f 683e d62b eebd 7523 453e
00000140: adae ba3e 2bbf 743d 2721 12be ff85 0c3e
00000150: 2f90 e93d bdfb 60bd 9dd9 703e e2f4 2e3e
00000160: eca7 b43c dd56 5b3e 602e abbe 4102 a6be
00000170: 58f8 a2be 038d 90be eeeb bbbd 360d c1be
00000180: 25b3 8abe 255a 2c3e e324 c13e e2db 99be
00000190: e224 0abe bc60 473e 0bfd a0be 09b5 73be
000001a0: 7b92 053e

decoder_layer_list.2.bias f4 [15]
0.046783213 -0.08133624 0.009243436 -0.003471561 -0.09277254 -0.29750225 -0.23424205 -0.30465364
-0.25356564 -0.28258717 -0.087271996 0.046491224 -0.21307223 0.14302473 0.011705894
00000000: c19f 3f3d 9d93 a6bd c871 173c 2183 63bb
00000010: 88ff bdbd 3752 98be 26dd 6fbe 90fb 9bbe
00000020: 5bd3 81be 44af 90be a9bb b2bd 956d 3e3d
00000030: 9b2f 5abe 1375 123e 14ca 3f3c
