result/FairOD_weights/under_representation_bias/scatter/seed_126/biasRate_0.6.pt (torch, 3512 bytes, 4 tensors)

encoder_layer_list.0.weight f4 [10, 15]
0	0xbe0545fd	-0.1301498
1	0xbe2f3746	-0.17110929
2	0xbe228a75	-0.1587313
3	0xbe376c84	-0.17912489
4	0xbd8d87c9	-0.069106646
5	0xbf08d3ae	-0.53448
6	0x3c6c7d01	0.0144341
7	0xbed1d3ba	-0.40981847
8	0x3eb2f435	0.3495194
9	0xbdad979b	-0.08476182
10	0x3f1a9b53	0.60393256
11	0x3f327699	0.69712216
12	0x3ecfcc7c	0.40585697
13	0x3f12fc1b	0.5741593
14	0x3ece77f3	0.4032589
15	0x3eb4d433	0.35318145
16	0x3eb77d6f	0.35837886
17	0xbeb05a9f	-0.34444138
18	0xbe82cefe	-0.25548548
19	0xbe0837f1	-0.1330259
20	0x3e6d45c4	0.23171145
21	0xbdb6e084	-0.08929542
22	0x3e44be74	0.19213277
23	0xbec182f3	-0.3779522
24	0xbd13cfba	-0.036086775
25	0x3f918e66	1.1371582
26	0x3f441d23	0.7660696
27	0x3f2c879c	0.67394423
28	0x3f0b5efd	0.54441816
29	0xbf74af1d	-0.955797
30	0xbe36bd73	-0.17845707
31	0xbeeabd8e	-0.45847744
32	0x3e394c10	0.18095422
33	0x3f09936e	0.53740585
34	0x3e7b1773	0.24520664
35	0x3d5fbca5	0.054623265
36	0x3e470e03	0.19438939
37	0x3ee1308d	0.43982354
38	0xbc3d42b9	-0.011551552
39	0x3e5dabb7	0.21647535
40	0x3f83823a	1.0274117
41	0x3f6e7443	0.9314615
42	0xbf4c8169	-0.79884964
43	0xbf6d303c	-0.92651725
44	0x3e958e32	0.2921005
45	0x3eea4136	0.45752877
46	0x3ebfaba7	0.37435648
47	0xbe6bd1e9	-0.23029293
48	0xbec68b8f	-0.3877835
49	0x3b63c207	0.00347531
50	0xbdf7624d	-0.12079296
51	0x3ec09e2f	0.37620685
52	0x3e9ffa28	0.31245542
53	0x3f2ffd10	0.6874552
54	0x3efc90b6	0.49329156
55	0xbec06ea0	-0.375844
56	0x3ef5166d	0.47868672
57	0xbe611956	-0.21982321
58	0xbf3fbb05	-0.74894744
59	0xbf23a279	-0.6391979
60	0x3eda627e	0.4265327
61	0x3ed79da3	0.42112455
62	0xbed34cd8	-0.41269565
63	0xbec244f0	-0.3794322
64	0xbe46657f	-0.19374655
65	0x3cc3c1c4	0.023896106
66	0x3ce7641b	0.028245976
67	0x3edd620d	0.4323887
68	0xbd6cf3f0	-0.057849824
69	0x3ea08fef	0.31359813
70	0xbf07f07e	-0.53101337
71	0x3f6cef03	0.925522
72	0x3f07a344	0.529835
73	0xbe15486a	-0.14578405
74	0x3f4393c0	0.76397324
75	0xbedac01d	-0.42724696
76	0xbeb4410a	-0.3520587
77	0x3e8bfeed	0.2734293
78	0x3ec6991a	0.38788682
79	0x3ebeae1c	0.3724221
80	0x3e878008	0.26464868
81	0x3f0975a7	0.5369515
82	0x3ecb43e2	0.39700228
83	0x3e614a7a	0.22001067
84	0x3ea19de9	0.31565788
85	0xbefda16d	-0.4953722
86	0x3e977ce7	0.2958748
87	0x3ed9c994	0.42536604
88	0x3fad87d2	1.3557074
89	0xbf3696ac	-0.7132366
90	0x3f076609	0.5289007
91	0x3f0e2714	0.5552838
92	0xbe80d67e	-0.25163645
93	0xbeebef63	-0.46081075
94	0xbe607f5d	-0.21923585
95	0x3e909825	0.28241077
96	0x3f0e4a91	0.5558253
97	0x3ebe772d	0.372003
98	0x3ec2aee5	0.3802406
99	0x3e3db558	0.18526208
100	0x3f3504ac	0.70710254
101	0xbf8ebe97	-1.1151913
102	0x3f6b5bf7	0.919372
103	0xbf1c71db	-0.6111123
104	0x3d8c48d8	0.06849831
105	0xa6fd7cb9	-1.7589208e-15
106	0x800563d4	-4.94989e-40
107	0x8005c968	-5.31428e-40
108	0x1f5b0c25	4.63851e-20
109	0x8006106f	-5.56908e-40
110	0x80058719	-5.07641e-40
111	0x00057f3d	5.04822e-40
112	0x2522c330	1.4117392e-16
113	0x822a1be8	-1.2497636e-37
114	0xa53df82e	-1.6477223e-16
115	0x198c790f	1.4524556e-23
116	0x873a0efd	-1.3997489e-34
117	0x80059b86	-5.14969e-40
118	0x00058925	5.08376e-40
119	0x0003a3e5	3.34301e-40
120	0x3ee51331	0.44741204
121	0x3ef55867	0.47919008
122	0xbe9d2df4	-0.30699122
123	0xbe3824fb	-0.17982857
124	0xbebfbbba	-0.37447912
125	0x3ea1ef6f	0.31627986
126	0x3e1dc1bb	0.15405934
127	0x3e876411	0.26443532
128	0x3e2ce825	0.16885431
129	0x3ca9c85b	0.02072542
130	0x3efef848	0.497988
131	0xbebe7ebc	-0.37206066
132	0xbf4a4e50	-0.79025745
133	0x3f959857	1.1687115
134	0x3f52b65b	0.823095
135	0xbeb9ecb0	-0.3631339
136	0xbeb6e7ff	-0.35723874
137	0x3ee9b806	0.4564821
138	0x3e802bc8	0.25033402
139	0x3ed1c7e6	0.40972823
140	0x3c84696d	0.016163552
141	0xbcdbe12b	-0.026840767
142	0x3e8d22b9	0.27565554
143	0x3da70348	0.08154923
144	0x3da548c2	0.08070518
145	0x3e1c60b5	0.15271266
146	0x3dbcf4f0	0.092264056
147	0x3f98f7c0	1.1950607
148	0xbef2c6e7	-0.47417375
149	0x3f34b0e8	0.7058244

encoder_layer_list.0.bias f4 [10]
0	0xbe40d688	-0.18831837
1	0xbd4bfb18	-0.04980001
2	0x3ea67214	0.3250891
3	0x3f4377c4	0.7635462
4	0xbd3b49fc	-0.045724854
5	0x3f1a9ec4	0.6039851
6	0x3ee24828	0.44195676
7	0xa684ddc6	-9.219452e-16
8	0x3e8eeaac	0.27913415
9	0xbdb7f753	-0.0898272

decoder_layer_list.0.weight f4 [15, 10]
0	0x3c243d95	0.010024448
1	0x3e68e9e0	0.22745466
2	0xbee470e3	-0.44617376
3	0x3ef066c3	0.469534
4	0x3ef3eec3	0.47643098
5	0xbeea8e4d	-0.45811692
6	0x3d6a71f7	0.05723759
7	0x92b2f5a0	-1.1293931e-27
8	0x3ebf8291	0.37404302
9	0xbed1cca8	-0.40976453
10	0xbcda381b	-0.026638081
11	0x3ec2f9de	0.3808126
12	0xbec40d9b	-0.3829163
13	0x3e128e3b	0.14312069
14	0x3ec3f1c7	0.382704
15	0xbea4238d	-0.32058373
16	0x3f12c14d	0.57326204
17	0x0005a515	5.18398e-40
18	0x3dd3a05f	0.10333323
19	0xbf20a319	-0.6274887
20	0xbe40c205	-0.18824013
21	0xbeb0036d	-0.34377614
22	0x3ec4633a	0.38356954
23	0xbf0af1db	-0.5427529
24	0xbed70f25	-0.42003742
25	0x3ecac8c9	0.39606312
26	0xbc4a1c1a	-0.0123358015
27	0x8740e928	-1.4512993e-34
28	0xbe5444b1	-0.20729329
29	0x3ee4bf83	0.44677362
30	0xbe8feb90	-0.28109407
31	0xbe0b6f00	-0.13616562
32	0x3ed17d52	0.40915924
33	0xbeff660c	-0.49882543
34	0xbec2012a	-0.37891513
35	0x3f02d328	0.5110345
36	0xbebe0cc1	-0.37119105
37	0x236ec69a	1.2944061e-17
38	0xbe97ef9a	-0.2967499
39	0x3e919706	0.28435534
40	0x3d8e744f	0.06955778
41	0xbeb482e6	-0.35256118
42	0x3e7fa001	0.2496338
43	0xbeb05671	-0.3444095
44	0xbf002616	-0.50058115
45	0x3ef760b3	0.48315963
46	0xbea146b9	-0.3149927
47	0x04b136d9	4.166287e-36
48	0xbebfe730	-0.3748107
49	0x3eab24b3	0.33426437
50	0xbf1521e4	-0.5825484
51	0x3e19bd2e	0.15013573
52	0x3d6a8f85	0.057265777
53	0xbea37449	-0.31924656
54	0x3de0d3e3	0.10977914
55	0x3c794fab	0.015216748
56	0x3cc98588	0.024599805
57	0x000599bc	5.14327e-40
58	0x3d2a53b1	0.04158372
59	0xbd626675	-0.055273492
60	0x3e345a8a	0.17612663
61	0xbe255a50	-0.16147733
62	0x3d9393ae	0.07205902
63	0x3d744f48	0.05964592
64	0xbcfc0fa7	-0.030769182
65	0x3e21a218	0.1578449
66	0x3e3d6706	0.18496332
67	0x000577d9	5.02171e-40
68	0xbd543e34	-0.051817134
69	0xbe28847d	-0.1645679
70	0xbf032d75	-0.51241237
71	0x3d8428b2	0.064530745
72	0x3deef739	0.11668248
73	0xbdb1442b	-0.0865558
74	0x3e6b3f17	0.22973286
75	0x3d89c6ed	0.06727395
76	0xbc137075	-0.00899898
77	0x0086ee5a	1.2391461e-38
78	0x3d1145d2	0.035466976
79	0x3d12db77	0.03585383
80	0x3f03706f	0.51343435
81	0xbe7da5ce	-0.2477028
82	0xbe1abbec	-0.15110749
83	0x3ead5c33	0.33859405
84	0xbe799ab4	-0.24375421
85	0xbd2ad017	-0.041702356
86	0x3ae751d7	0.0017648292
87	0x80056989	-4.97036e-40
88	0xbba39811	-0.004992493
89	0x3c8ebbdf	0.017423568
90	0xbceaea6f	-0.02867624
91	0xbc9987bb	-0.01874148
92	0x3d08a7cc	0.03336315
93	0x3d44069a	0.04785786
94	0x3d8cd627	0.06876784
95	0x3d6ebe51	0.05828697
96	0x3be8733a	0.007093814
97	0x033f8ecc	5.629378e-37
98	0xbd16a9b1	-0.036782924
99	0xbcfa9b04	-0.030591495
100	0x3f34b5c0	0.7058983
101	0x3f851c7c	1.0399318
102	0x3f56b9a2	0.83877003
103	0xbf435b15	-0.76310855
104	0xbf6b73f9	-0.91973835
105	0xbf298064	-0.66211534
106	0x3ef52566	0.47880095
107	0x80056903	-4.96849e-40
108	0x3e59fdb9	0.21288194
109	0xbc645533	-0.013936329
110	0x3f57d1e9	0.8430467
111	0x3f0752dc	0.5286081
112	0x3ef0ff7a	0.47069913
113	0x3eae8a38	0.34089828
114	0x3f767e95	0.962869
115	0xbd2cd253	-0.04219277
116	0xbf7c95d6	-0.9866613
117	0x0d18cdc2	4.708629e-31
118	0xbef3105d	-0.47473422
119	0xbe6d584b	-0.23178212
120	0x3f14997e	0.5804671
121	0x3f07646e	0.5288762
122	0xbf6ba91a	-0.92054904
123	0xbf0686de	-0.5254954
124	0x3ef3e5b8	0.476362
125	0x3dd78655	0.10523669
126	0x3f19ad3a	0.6002995
127	0x00057e19	5.04413e-40
128	0xbf79ee8f	-0.97629637
129	0x3f6bc3f0	0.9209585
130	0x3f5270d3	0.82203406
131	0x3e3b6604	0.18300635
132	0xbf49568c	-0.78647685
133	0xbf1e6004	-0.6186526
134	0xbe2dbbd6	-0.16966185
135	0x3f25f8e2	0.6483289
136	0xbf08c52e	-0.5342587
137	0x80041931	-3.76379e-40
138	0x3f2a28c4	0.66468453
139	0xbebbdb9b	-0.36690983
140	0x3f216353	0.6304218
141	0xbf819bb0	-1.0125637
142	0x3e25dec4	0.1619826
143	0xbf5c568b	-0.86069554
144	0x3f6c1391	0.92217356
145	0xbf237b2a	-0.6385981
146	0xbd9ca8c5	-0.07649378
147	0x0b05bb96	2.5755992e-32
148	0x3f5a9716	0.8538679
149	0x3f38a40a	0.72125304

decoder_layer_list.0.bias f4 [15]
0	0x3e552b6d	0.20817347
1	0xbd61ee42	-0.05515886
2	0xbe2103be	-0.15724084
3	0x3e48fe58	0.19628274
4	0x3f0181c2	0.5058862
5	0x3e1bf172	0.15228823
6	0x3d82c45e	0.0638511
7	0xbeb17ad3	-0.3466402
8	0xbe9c90b6	-0.30579156
9	0xbdc87587	-0.097880416
10	0xbe91e1ea	-0.2849267
11	0xbec3c9d8	-0.38239932
12	0xbebbd9e9	-0.3668969
13	0x3d8e46b7	0.069470815
14	0xbe461362	-0.19343331
