result/FairOD_weights/under_representation_bias/scatter/seed_126/biasRate_0.05.pt (torch, 4224 bytes, 4 tensors)

encoder_layer_list.0.weight f4 [15, 15]
000000 39 46 a6 be a1 32 5c be 76 99 4b 3e 99 f3 b7 3e
       -0.3247545 -0.21503688 0.1988276 0.35928038
000010 b3 6d d0 3e c5 68 33 3f 87 a0 02 3d 87 0c 65 3e
       0.40708694 0.7008174 0.031891372 0.2236806
000020 c2 d6 73 3e c0 27 31 bd a0 51 af be 14 1f 7e bf
       0.23812392 -0.0432508 -0.34241962 -0.9926617
000030 9b 13 46 3f 1b af 17 bd f1 ca 0f 3f 24 92 97 be
       0.77373666 -0.037032228 0.5616904 -0.29603684
000040 38 3f 6f bd 05 c8 dd 3e ac 54 d4 3e 96 c5 a9 3e
       -0.0584099 0.43316665 0.4147085 0.3315856
000050 e3 c4 b1 be 9c 77 af 3d c3 66 b8 3e a3 43 8c bd
       -0.34720525 0.085677356 0.360159 -0.06848838
000060 86 6d 18 3e 3e b7 a2 3f cc 26 63 bf 19 8f a2 be
       0.1488553 1.2712171 -0.88731074 -0.317498
000070 61 3c 0b bf f0 f6 47 3f 18 95 e7 3e 9e b2 12 3f
       -0.54389006 0.7811117 0.45230937 0.573038
000080 f8 d4 ad bd e9 c3 09 bf 90 9a b9 bd 94 6b bb 3e
       -0.08487886 -0.5381456 -0.090626836 0.36605513
000090 18 d7 48 3f e8 fb c7 3e f5 29 31 3f fe f8 fc 3e
       0.78453207 0.39059377 0.69204646 0.49408716
0000a0 4f a4 2f be 7f e0 0b bf 42 56 58 3f 2a 47 d7 3e
       -0.17152523 -0.5463943 0.8450662 0.4204648
0000b0 5b 1b 35 bf ab 74 37 be 5d 9b 24 be 47 f9 15 3f
       -0.70744866 -0.17915599 -0.16074891 0.5858349
0000c0 f8 8f 62 3e 1c 07 e7 3e c2 16 34 3e 3d 7f ae 3e
       0.22125232 0.45122612 0.17586806 0.3408145
0000d0 aa 31 94 3e 7c f9 9e 3e c0 3f 85 3e ca 47 51 bd
       0.2894414 0.31049716 0.260252 -0.051093854
0000e0 82 5c 51 bc 58 ab 63 bf de ce 56 3f aa 2c 48 bf
       -0.012778403 -0.88933325 0.83909404 -0.7819315
0000f0 7f 12 aa bd a9 94 f3 bd 08 21 06 3e 03 b1 cc bc
       -0.08304309 -0.11893589 0.13098538 -0.02498675
000100 1c 57 f6 bd d4 c7 96 bd 65 56 69 be 41 03 1e be
       -0.120283335 -0.07362333 -0.22786863 -0.15430929
000110 bc af 30 3e 13 bb 18 be ca 1f f6 3d 86 46 9e bd
       0.17254537 -0.14915113 0.12017782 -0.07728295
000120 03 43 14 be a5 39 48 be 0f 51 d0 3d b7 cf 1b 3e
       -0.14478688 -0.1955324 0.10171711 0.15215956
000130 ab 31 15 3f 44 08 14 bf b8 0e 0a be ef c8 b0 be
       0.5827891 -0.5782511 -0.13482177 -0.345283
000140 26 5d 05 3f 14 3b 91 3e 31 8b e2 3e 6f 66 b6 3e
       0.5209526 0.28365386 0.4424682 0.35625026
000150 3a 77 a8 3e f9 20 20 3f 6f 12 ea 3e 0a d5 a2 3d
       0.32903463 0.6255031 0.4571719 0.0795079
000160 32 5c 67 bc 97 11 72 3f a3 13 34 3e c4 86 c5 bd
       -0.014121102 0.9455809 0.17585616 -0.09644845
000170 6e 57 8a bd d4 05 54 3e f1 e1 5f be fd 02 7b 3b
       -0.06754957 0.20705348 -0.21863534 0.0038301342
000180 33 3e 70 3d f1 2f c3 3b 78 9a d8 3d 6d 69 eb bd
       0.058653068 0.005956643 0.105763376 -0.11494718
000190 62 ba 4d be 1a 92 7c bd 38 79 73 be 2e ed ba bd
       -0.2009063 -0.06166277 -0.2377671 -0.0912727
0001a0 b5 30 41 be ca 55 1e be 33 f5 5b be 97 0c 94 3e
       -0.18866237 -0.15462413 -0.21480255 0.28915855
0001b0 11 c4 ee 3e e6 61 a0 3e e7 4a 0f bf b3 8a cb bd
       0.46633962 0.3132469 -0.55973667 -0.09938564
0001c0 e4 15 ca 3d 76 b5 f6 bd 9b d2 b7 be e5 d8 19 3f
       0.098674566 -0.1204633 -0.35902867 0.6009658
0001d0 28 c4 ec 3e df e4 8c 3f a6 2a 88 3f cc d9 77 be
       0.46243405 1.1007346 1.0638015 -0.24204177
0001e0 97 fa 5d 3e 9d 0c c3 bd d4 0b 3a be 8b 20 43 bd
       0.21677624 -0.0952389 -0.18168575 -0.047638457
0001f0 47 f1 53 be 15 e1 0a bc b9 41 77 be 3d f3 bc 3b
       -0.20697509 -0.008476515 -0.24146165 0.005766301
000200 f5 dc 05 be 21 dd 32 3e 37 7e 54 bd 2b 8d 68 3e
       -0.1307257 0.17467166 -0.05187818 0.22710101
000210 0f f9 61 be 33 06 58 bd b0 e5 71 be 3b e9 06 bf
       -0.22067665 -0.052740287 -0.23622775 -0.5269963
000220 aa e5 bc be eb fc 8e 3e 2a 3b a4 3d 2b 3b b4 3d
       -0.3689397 0.27927336 0.08019097 0.08800348
000230 24 ca c4 3e 6e 60 61 3d e0 31 3e be 85 72 d8 3e
       0.3843547 0.055023603 -0.18573713 0.4227487
000240 4a 26 8d bd a1 4d 60 be 97 de 44 3f ed 63 bf be
       -0.06892069 -0.21904613 0.76902145 -0.37380925
000250 7c 2a 04 3f 9b 77 80 3f d5 14 75 be de 00 f8 be
       0.51627326 1.0036501 -0.23933728 -0.48438162
000260 db be 97 3e a2 52 7f 3e ab 73 c7 3e ee 80 f9 3e
       0.296378 0.24933866 0.38955435 0.48731178
000270 cd 58 c8 3e c4 8c 57 3e e0 91 32 3f e4 7c 9a 3e
       0.3913025 0.21049792 0.6975384 0.3017341
000280 11 f9 23 3f 85 b2 42 3f 1c 76 c6 3e 0a 36 b2 bf
       0.6405192 0.7605365 0.38761985 -1.3922741
000290 05 b3 62 bf 06 32 b5 bd a1 ca a1 bc 84 d9 c3 3e
       -0.8855441 -0.08847432 -0.019749941 0.3825189
0002a0 df 00 08 3f 80 81 a6 3e 0d d4 3b be e0 61 07 3e
       0.5312633 0.32520676 -0.1834261 0.1322093
0002b0 a6 23 8c 3e 00 29 7d be dd fd ae 3e 41 fa 6a bf
       0.27370948 -0.24722672 0.34178057 -0.9178811
0002c0 2d 30 40 3f 8d 3a 89 3e 2e d9 93 be 61 28 08 3f
       0.7507351 0.26802483 -0.28876632 0.53186613
0002d0 6d 4a 29 bc b0 b2 9d bc e0 5d b2 bd dc c8 4b bd
       -0.010332686 -0.019250244 -0.087093115 -0.0497521
0002e0 13 98 66 3d ab 00 e4 3d 30 5e d2 3d 41 54 2f be
       0.056297373 0.1113294 0.10271871 -0.17121984
0002f0 63 f2 50 be 4d 72 08 be d6 08 52 3e b9 56 9a bd
       -0.20404963 -0.13324852 0.20511183 -0.07536072
000300 19 5d 3b be 76 02 4a 3d 2c 54 cf 3d 1c 4c 2a bd
       -0.18297233 0.049318753 0.101234764 -0.04157649
000310 04 ac 5d 3d ea 33 db bc 86 0e 59 3e f7 c4 1f be
       0.054119125 -0.026758153 0.21196947 -0.1560248
000320 7e a8 6b be 06 be 5c bd e9 3a 09 be 14 37 5d be
       -0.23013493 -0.053892158 -0.13401379 -0.21603042
000330 78 82 8e 3d e0 d9 ef bd bc f7 63 3e 94 12 cd 3d
       0.06958479 -0.11711478 0.22262472 0.10013309
000340 a2 be 2d bd 42 90 36 be fc 72 b6 3d cf 2b 2a 3e
       -0.04241813 -0.17828467 0.0890865 0.16618274
000350 7f 14 58 3d d0 a2 1e 3d 8e 09 39 bd 76 50 44 3e
       0.05275392 0.03872949 -0.045175128 0.19171318
000360 40 03 32 be dd cd 1f be f5 00 00 be 37 8d 68 be
       -0.17384052 -0.15605874 -0.12500365 -0.22710119
000370 0c a1 c7 bb 11 15 3e bc c4 b7 90 3d 47 f8 6b 3d
       -0.0060921963 -0.011601702 0.070663005 0.057609823
000380 3d 58 ad 3d
       0.08464096

encoder_layer_list.0.bias f4 [15]
000000 f9 1d 6b 3e 44 af b4 3e 1f 4d e8 3e f3 29 cd 3e
       0.22960652 0.35289967 0.4537134 0.40071067
000010 3c b3 7d be 92 1b 21 3f 4c 33 f1 bd 9a 1a 89 be
       -0.24775404 0.62932694 -0.11777362 -0.26778108
000020 49 e7 4f be 2d 22 00 3e d1 79 31 3e ef 3e aa 3c
       -0.20303072 0.12513037 0.17331626 0.020781962
000030 c9 88 02 be 66 e3 02 be ec 84 5d be
       -0.12747492 -0.12782058 -0.21632737

decoder_layer_list.0.weight f4 [15, 15]
000000 ff a9 e8 be 02 6d 8c be 67 e2 b9 3e 94 c2 95 be
       -0.45442197 -0.27426916 0.36305544 -0.29250014
000010 df c6 46 3c 17 35 0a 3f 19 4a d6 bd 61 c4 b4 be
       0.0121323755 0.5398726 -0.10463352 -0.35306075
000020 91 fe 80 be 77 59 c7 be a2 44 d3 be aa 5c 54 bd
       -0.2519422 -0.38935444 -0.412633 -0.051846184
000030 5b e6 69 bd 8f a7 11 be 49 39 83 be 8a 16 1a bf
       -0.05710445 -0.14224075 -0.25629643 -0.6019064
000040 80 ab 4a be 83 a3 d9 3e 02 c9 dc be d3 a3 66 be
       -0.19791985 0.42507562 -0.43122107 -0.22523431
000050 ca 57 ff 3e cf 6d 52 bd 7d d8 4e be f8 33 82 3e
       0.49871665 -0.051374253 -0.20199771 0.25430274
000060 31 8d 00 be 81 ac b0 be 98 2e da be 6d a6 f2 bd
       -0.1255386 -0.3450661 -0.42613673 -0.118481494
000070 12 2c 01 3e f9 c7 17 be 93 87 d3 3e c9 08 94 3e
       0.12614468 -0.14822377 0.41314372 0.28912953
000080 fa df 9d be de d0 e3 3e 58 5c 70 be e3 3f 09 bf
       -0.30834943 0.4449529 -0.23472726 -0.5361311
000090 4b 61 1e 3e 98 3a 46 3e 5e 2e 80 bd 20 e2 23 3e
       0.15466802 0.19358289 -0.06258844 0.16004229
0000a0 e7 bc 5d 3e cf 00 b7 3e 26 08 29 3e 57 37 2e 3c
       0.21654092 0.35742804 0.16507015 0.010633311
0000b0 fd 85 fa bd f7 0a b8 3e 1c f1 83 3e 1d 82 17 bf
       -0.122325875 0.35945866 0.2576989 -0.5918291
0000c0 11 71 c1 3e a6 e6 5a bd 9c 2c eb be 2f 15 50 be
       0.37781575 -0.05344262 -0.45932472 -0.20320581
0000d0 9a 8e e3 3e 41 4f c9 3d 51 95 0b 3e c5 d5 aa 3e
       0.44444734 0.098295696 0.13631178 0.33366218
0000e0 e4 0e 4e 3e d1 79 32 3e 48 95 18 be 47 7a 64 bd
       0.20122868 0.17429282 -0.14900696 -0.055780675
0000f0 7b 68 c0 3e 17 69 e8 3e 32 27 00 bf da 01 df 3e
       0.37579712 0.45392677 -0.5005981 0.435561
000100 14 e4 d9 3d 67 d4 f4 be 46 22 8a bd 2d 94 03 3f
       0.106392056 -0.478183 -0.067448184 0.51397973
000110 9f aa 40 be 5a be f2 3d a4 d0 31 3e 9b fc 59 3e
       -0.18815087 0.11852713 0.17364746 0.21287768
000120 97 8f 46 3e af 82 39 3d ed f2 af 3d 2e 5e 0f 3f
       0.19390713 0.045290645 0.08591256 0.5600308
000130 ed 8e dd be 81 20 c4 bc 0e ce 76 3d e6 4c 6d be
       -0.43273106 -0.02394128 0.060255103 -0.23173866
000140 ef 3a cf 3c d1 e8 58 be 43 d9 d4 be 2f 4a 9e bd
       0.025296656 -0.21182562 -0.41572008 -0.07728993
000150 e5 fc c1 3e 9f 42 83 3e 46 eb ea be 79 12 bb 3d
       0.37888256 0.25636765 -0.45882624 0.09134383
000160 f5 f7 cd bd 24 f5 c7 3d 5c 84 9d bd 0f 1f 76 3d
       -0.1005706 0.09763554 -0.07691261 0.060088214
000170 7c ec 94 3e d7 94 8f 3d 9f fd 72 be 10 10 a6 bd
       0.29086673 0.07010811 -0.23729561 -0.081085324
000180 2c 8d 67 bd 45 84 ed bd ee 22 67 3e d6 b8 61 3e
       -0.056531116 -0.11597494 0.22571918 0.22043166
000190 29 c5 b6 3d 95 5b da bb b3 37 26 3e f0 c5 00 3e
       0.08924324 -0.0066637495 0.16232185 0.12575507
0001a0 99 d8 58 bd 89 fe 2a bd 40 74 e6 3d fa 45 ad 3b
       -0.05294094 -0.04174665 0.11252642 0.005287883
0001b0 af b5 b0 3d 25 39 67 3e e6 c0 18 3e b0 7a 79 bd
       0.086284034 0.22580393 0.14917335 -0.06090802
0001c0 af 18 d4 3d 7d 1e 82 3e fc c4 77 be 85 17 b9 bd
       0.103562705 0.25413886 -0.24196237 -0.09037689
0001d0 dd a5 84 3e 1c 6a 76 3e 72 eb 57 be 79 17 7e 3e
       0.25907794 0.24063915 -0.21085909 0.24813642
0001e0 9d c4 3a 3e d5 ee 31 be f2 b4 08 3e 41 13 9f 3c
       0.18239065 -0.17376263 0.13350275 0.01941836
0001f0 f0 ee 2b 3e 01 37 12 bd c6 69 61 bc 71 9c 18 be
       0.16790366 -0.035696987 -0.0137581285 -0.14903428
000200 51 dd 2d 3e cd b0 d5 3e 65 f1 70 3e 5d ee ec be
       0.16978957 0.4173645 0.23529585 -0.46275607
000210 e8 c4 bc bd 9c 85 dd bd 05 9a bd bd db d4 95 bd
       -0.092172444 -0.108164996 -0.092578925 -0.073159896
000220 54 ff 70 bc 8c 9b 34 3d ff a3 bf 3c 0d 8f 7c 3e
       -0.0147093125 0.044093654 0.02339363 0.24663945
000230 88 23 34 be 4b 27 55 3e 53 f9 4b be a1 0f 12 3e
       -0.17591679 0.2081577 -0.19919328 0.14263774
000240 f8 63 ec bc 0e df 1d 3d 0f 3a a2 3d a7 dd 00 bd
       -0.028856263 0.0385428 0.0792123 -0.031461384
000250 19 b6 eb 3d 98 8d 7d be 4f 9d 29 bf 2a 18 79 3f
       0.11509342 -0.24761045 -0.6625566 0.97302496
000260 0b 33 c0 be c1 41 01 be e0 0f 79 be f3 b5 be 3e
       -0.37538943 -0.1262274 -0.24322462 0.3724819
000270 54 28 ef bd b1 ca 2c 3f 56 80 99 bd 3e 44 81 be
       -0.11677614 0.6749678 -0.07495181 -0.25247377
000280 69 c2 b6 3e 19 00 90 bf 3f d0 4a 3d 96 1d 08 be
       0.35695198 -1.125003 0.049515005 -0.13292536
000290 5e a0 58 be af 8f 9e bf a0 99 4b bf 8f 09 dc be
       -0.21154925 -1.2387599 -0.7953129 -0.42976043
0002a0 85 c5 8a be 21 41 12 3d 0f 52 9e 3e e5 e2 5a 3e
       -0.2710382 0.035706643 0.3092198 0.21375616
0002b0 e7 2f d3 3e 87 6e e7 bd 53 67 1c 3f b6 1d 1b 3f
       0.41247484 -0.11300378 0.6109516 0.6059221
0002c0 a6 82 29 3f 77 80 64 3e 77 ce 37 3e b4 bf 82 3e
       0.6621498 0.2231463 0.17949854 0.25536883
0002d0 b6 e7 5f 3f d8 15 02 bf b8 0b d0 3e cc eb b4 bf
       0.8746294 -0.5081458 0.4063394 -1.413446
0002e0 fd 21 03 ba d3 ce 86 be f2 54 a1 bd cf 6b 91 3f
       -0.0005002318 -0.2632967 -0.0787753 1.1361026
0002f0 ca b0 4f 3e 97 fb bf be a1 50 9a 3e d1 fb 5e 3e
       0.20282283 -0.37496635 0.3013964 0.21775748
000300 d5 ae 6e bd 30 c3 38 3e e4 30 5a be 54 07 06 be
       -0.0582722 0.18043208 -0.21307713 -0.13088733
000310 d3 3f 9b be 80 0f 2c 3e db f3 59 3f 67 4c 6e 3e
       -0.30322132 0.16802788 0.8513772 0.23271333
000320 67 3b 54 be de 34 8b bd dc 3a 57 3f f4 2c c3 bd
       -0.20725785 -0.06797193 0.8407419 -0.095300585
000330 ba fe 96 3e 61 96 9b bf 9a 7b 89 be d1 b9 e5 3d
       0.29491216 -1.2155267 -0.26852113 0.11217082
000340 a1 a7 d6 3d 58 48 a5 bd cf 34 0f 3f 4c fb d3 3e
       0.104811914 -0.08070439 0.55939955 0.41402662
000350 6f 42 1e bf c9 06 5e bf d8 de 6b bd 95 ee 06 3f
       -0.6182012 -0.86729103 -0.057585567 0.527078
000360 8c 0b d9 3d 38 7c 8f be cc 08 d0 3d 01 2d 38 3f
       0.105979055 -0.2802446 0.10157928 0.7194367
000370 13 4a 45 bf 39 4b b4 3e e7 1a f3 bd 85 41 7a be
       -0.77066153 0.3521364 -0.118703656 -0.24439056
000380 66 c2 1f be
       -0.15601501

decoder_layer_list.0.bias f4 [15]
000000 0f c7 ae 3e 7e 0b a4 3e 28 e1 87 be 3c eb 1b 3d
       0.34136245 0.32040018 -0.26538968 0.038066134
000010 24 fd 77 be a1 42 c2 bc 90 66 e0 bc f9 79 df bd
       -0.24217659 -0.023713412 -0.027392656 -0.10911936
000020 b3 08 e1 be 94 83 a8 3d 0a 3d 52 be a6 4b ef 3d
       -0.4395195 0.082282215 -0.20531097 0.11684351
000030 46 9b 8e be a9 99 18 3d 61 24 02 bd
       -0.2785284 0.037255917 -0.031772975
