result/FairOD_weights/under_representation_bias/cluster/seed_125/biasRate_0.05.pt (torch, 5778 bytes, 11 tensors)

encoder_layer_list.0.weight f4 [7, 15]
00000000: fd61 693e fa72 36be 6ae1 e4bd 662a be3d
00000010: 2762 713e d40d 9d3c 03ae f73d 8bfe 6abe
00000020: 0bfa 14bd 9c82 c23d b474 593e c605 24be
00000030: 802a 373e 8155 6e3e 626e 453e 7d4f 82bd
00000040: a448 0c3e 7f8c 453e bb0c db3d f7c6 3ebd
00000050: 3d71 05be 6c66 9d3d 8c16 41be 024b 313e
00000060: 6e9e f43d f519 593e 2413 c8bd cb24 25be
00000070: 8b9c 0fbe 84b3 933d 524f 573e 73b2 9ebd
00000080: c14c c1bd adb5 44be 3a21 143e 5920 7c3e
00000090: bb48 8a3d d900 3bbd 98be 7ebe a159 503e
000000a0: 627e d23d 2d70 6c3d 638e 83be 14af 1e3c
000000b0: c5b9 3bbe 2338 5e3e 34f6 053e f524 aebd
000000c0: 5f3e 9e3c 579c c0bd aa65 923d 1797 99bd
000000d0: 8501 773d 6d94 91ba 2273 703c d7a4 263e
000000e0: 5174 04be 8d70 053d fd30 3fbd 4afb 66be
000000f0: 4e5c cfbd f7ff f83d 0955 ddbc dbfb 6cbe
00000100: 1dce e43d 2445 35be 2dba 833e f4d0 813e
00000110: e260 7e3e 571a 2ebe d1b1 063d 9dbb 513e
00000120: 4483 3fbe dc8f 333e 5231 2abe 4a49 76be
00000130: 34cc eebc 243f 2e3e 409e 34be ba03 7a3e
00000140: 3c6c fa3d 3aba f6bd be6e 33bc acee 4cbe
00000150: 0073 553e 6bb3 3b3e 8f20 18bd 7322 7bbe
00000160: 2d7e 0abe ac6e e3bd 4121 bbbd 09e6 173e
00000170: a399 afbd 841c d0bd d2c7 a73d ad1b 69be
00000180: 9d94 3d3b d2e8 1fbe 76c7 3d3e c87b b6bd
00000190: 661e 43be 786f 403e ecfe 1a3e 982e 043e
000001a0: 3f0e 99bd
0.22791286 -0.17817298 -0.11175807 0.092854306 0.23572598 0.019171633 0.12093737 -0.22948663
-0.036371272 0.09497568 0.21235925 -0.16017827 0.17887306 0.23274805 0.19280389 -0.063628174
0.13699585 0.19291876 0.106957875 -0.046576466 -0.13031478 0.07685551 -0.18856257 0.1731377
0.119442806 0.21201308 -0.09769276 -0.16127317 -0.1402456 0.07211974 0.21026352 -0.0774888
-0.09438468 -0.19209929 0.144658 0.24621715 0.067521535 -0.045655105 -0.24877393 0.2034669
0.10278012 0.057724167 -0.2569457 0.009685297 -0.18332584 0.21701102 0.130822 -0.08503143
0.01931685 -0.094048195 0.07148297 -0.07499521 0.060304184 -0.0011106856 0.014675887 0.16273819
-0.12934996 0.03257804 -0.04667758 -0.22556797 -0.101250276 0.121581964 -0.027018087 -0.2314295
0.111721255 -0.17702156 0.25727978 0.2535473 0.24841645 -0.17002235 0.032884423 0.20481725
-0.18702418 0.17535347 -0.16620377 -0.24051395 -0.029150106 0.17016274 -0.17638493 0.24415484
0.12227675 -0.12047239 -0.010951696 -0.20012921 0.2084465 0.18330161 -0.037140425 -0.2452486
-0.13524695 -0.11105093 -0.09137202 0.14833845 -0.08574226 -0.10161689 0.081924096 -0.22764464
0.0028927692 -0.15616158 0.1853312 -0.08910328 -0.19054565 0.18792522 0.15136307 0.12908399
-0.0747342

encoder_layer_list.0.bias f4 [7]
00000000: 0f19 383e 010b 99bd 5b07 d33d 4b84 36be
00000010: 2a9c 5abe 822d 18be e29f dd3d
0.17978309 -0.07472802 0.10304137 -0.17823903 -0.21348634 -0.1486111 0.10821511

encoder_layer_list.1.weight f4 [3, 7]
00000000: 84d2 79bd 42d8 68be cfe0 663e dcd0 133e
00000010: 0c17 8f3e a120 063e 9f6b 87be c89b cabc
00000020: caf1 0dbe 8950 c13e a91b ac3e 1726 1f3e
00000030: f874 c5bb e166 613e 4ca1 753e ae43 883e
00000040: b577 383e 5dcd 3f3c 2988 bd3e 60b4 f4bd
00000050: 8ce6 d0bd
-0.06099178 -0.22738746 0.22546695 0.14435142 0.2794727 0.13098384 -0.26449296 -0.024732485
-0.13861766 0.37756756 0.33614853 0.15541874 -0.0060259067 0.22011901 0.23987311 0.26614136
0.18014415 0.011706677 0.37017944 -0.11948466 -0.10200223

encoder_layer_list.1.bias f4 [3]
00000000: 7754 64be 4bbb d4bc 637d b03e
-0.22297846 -0.025968214 0.34470662

encoder_layer_list.2.weight f4 [1, 3]
00000000: 259e b6be 6680 113f f716 ae3c
-0.3566753 0.56836545 0.021251185

decoder_layer_list.0.weight f4 [3, 1]
00000000: 50cc 85be e8a9 7d3f 0c94 493f
-0.2613244 0.9908738 0.78741527

decoder_layer_list.0.bias f4 [3]
00000000: a616 183f c9ea ed3e e8da 77be
0.5940956 0.4646819 -0.242046

decoder_layer_list.1.weight f4 [7, 3]
00000000: dae8 a63e 229e 083f 7421 9ebd 08bf 803e
00000010: 11f3 e83e 24c0 553e fae7 973e 8dfc 37be
00000020: 84a6 873e c42b 7dbd ba56 603e 8049 aebe
00000030: 6767 b53e 6d32 d33e 139e 6cbd 8af2 7a3e
00000040: 8e00 cebe 53f4 14be c67e 25bd 8e9c 46bd
00000050: b286 28be
0.32599527 0.5336629 -0.077212244 0.25145745 0.45497945 0.20874077 0.29669172 -0.17967434
0.2649423 -0.061809316 0.21908084 -0.3404045 0.35430452 0.4124941 -0.05776794 0.24506584
-0.40234798 -0.14546327 -0.040404104 -0.048489146 -0.16457632

decoder_layer_list.1.bias f4 [7]
00000000: ce86 c33e cddb f53e a1f2 fb3d a7e6 263c
00000010: 746c 3dbd 005c 80bd 12cf cf3d
0.38188785 0.48019257 0.12302137 0.010186828 -0.046246007 -0.062675476 0.101469174

decoder_layer_list.2.weight f4 [15, 7]
00000000: bcdf 4c3d 10a1 b4bb 6667 e03d b038 0d3e
00000010: bcc6 f53b 8993 49be 93ef 2bbc 28d1 2ebd
00000020: 350e 083d cb04 39be 3575 16be a9ee 843e
00000030: 22e0 29be 1a2b 1dbe 87cc 06be 6b19 d5bd
00000040: cab8 9dbe ae47 39be fb24 9cbe 9e64 953c
00000050: e47b 7b3e 8c36 1cbe 2b32 1f3e 308b 9fbd
00000060: a6c9 bb3d 7040 c43d 7ca2 893e 92a7 e4be
00000070: d456 f7bd 2092 1b3e af1f fdbc 2ee2 313d
00000080: 5cef babe 2f0e 223e cd60 603e 730f 50be
00000090: c2bc 6e3d c805 87be 3f6b 20be e3b3 99bd
000000a0: 55e3 253b e340 c0bd eb8f 8cbe d606 4ebe
000000b0: f578 c7bd bd33 873e f770 6a3e 3005 abbe
000000c0: 60f6 7b3e 0a9b 663e 71fb 51be f73e b73d
000000d0: e738 9c3d 0e6d a0bd 57c1 2c3e aa7e 243e
000000e0: f168 1dbe 64ef d9be 4963 213e bfd0 17be
000000f0: e6cd ba3d bd37 c4bd adbc 7dbe c409 74be
00000100: 9fe6 9fbe 5e57 c8be c59b c0bd 4386 133e
00000110: 06e4 953e 6e45 79bd ced2 c8bd 75a9 a8be
00000120: 00f6 cbbc 91a3 07be 138c 163d c188 6f3e
00000130: ebff 37be 1017 793e e562 5abe 9a65 abbe
00000140: 98f0 923e 9639 2c3e 86ce 953e ae7b 1f3e
00000150: 55a6 3a3e 92f3 033d 405b 6c3e 8821 8cbe
00000160: fa70 ddbd a73f e23c 99fe 59be f5f6 97be
00000170: f4a0 bb3e d019 1cbd 2d83 19bc b7f3 b6be
00000180: 5f44 8cbe 6ad5 4d3e 7128 a13e fe98 7cbe
00000190: 9047 87be c066 593e ce35 d13d 24d7 213d
000001a0: ce36 9fbe
0.050018057 -0.005512364 0.10957222 0.13791156 0.0075004976 -0.19685186 -0.010494131 -0.042679936
0.033216674 -0.18068235 -0.14693148 0.25963333 -0.16589406 -0.15348473 -0.13163958 -0.10405239
-0.30805045 -0.1809375 -0.30496964 0.018236455 0.2455898 -0.15255183 0.15546481 -0.0779022
0.09169321 0.09582603 0.26881778 -0.44659096 -0.12077108 0.15192461 -0.030898897 0.043428592
-0.36510742 0.15825723 0.21911927 -0.20318393 0.058285482 -0.26371598 -0.15665911 -0.07505014
0.0025312502 -0.09387376 -0.2745355 -0.20119795 -0.097398676 0.2640666 0.22894655 -0.33402395
0.24605703 0.2252008 -0.20506074 0.089475565 0.07628041 -0.078333005 0.16870628 0.16063944
-0.15372063 -0.42565453 0.1576053 -0.14825724 0.09121303 -0.09580944 -0.24779005 -0.2383185
-0.31230637 -0.39129156 -0.09404711 0.14406686 0.2927553 -0.06085723 -0.09805833 -0.32941785
-0.024897575 -0.1324599 0.03675468 0.23392011 -0.17968719 0.24325204 -0.21326788 -0.33475953
0.28699183 0.16818842 0.29259127 0.15574524 0.18227513 0.03221471 0.23081684 -0.27369332
-0.10812564 0.027618242 -0.21288528 -0.296806 0.36646235 -0.038110554 -0.009369654 -0.35732815
-0.27395913 0.20100942 0.31476167 -0.24667737 -0.26421785 0.21230602 0.102153406 0.039511815
-0.310965

decoder_layer_list.2.bias f4 [15]
00000000: bee2 11be 1607 45bd 0411 b33e f998 0338
00000010: 3ef7 9c3d 5271 1fbe 50e1 a1be 36e8 dbbe
00000020: 7310 90bc 6f63 7ebc 43da 903e 8894 3fbc
00000030: 399e 7cbe 0653 673d 556a a1bd
-0.14246652 -0.04810246 0.3497392 3.13753e-05 0.07664345 -0.15570572 -0.31617212 -0.429506
-0.017585969 -0.0155266365 0.2829152 -0.011693127 -0.24669732 0.05647566 -0.07881609
