result/FairOD_weights/variance_shift/scatter/seed_123/biasRate_3.pt (torch, 3432 bytes, 4 tensors)

encoder_layer_list.0.weight f4 [10, 15]
0.6005488 0.5030091 -0.45406607 -0.6681273 -0.41415808 0.43916276 -0.083202966 0.48040944
0.30589628 0.40321967 0.40661436 0.28984815 1.0545443 -0.92467445 0.76742995 -0.08795929
-0.0389929 0.17371087 -0.17615885 -0.2390034 -0.0607331 -0.06876282 -0.13918133 0.09642657
0.25632533 -0.22512545 -0.24140283 -0.13660914 -0.14307241 -0.06730315 0.3635295 0.35391694
-0.45700803 -0.41438782 -0.27264288 0.018460495 0.56458455 0.3656073 0.02434514 0.05285449
0.65652955 -0.37808678 -0.5326828 1.0944604 -0.28101763 -0.20567372 0.08639659 0.2032142
0.18650258 -0.25867346 0.21553464 -0.09067665 -0.23752038 -0.22039492 -0.008773027 0.1706536
-0.16810076 0.039112985 0.16640855 -0.20531274 -0.41621476 -0.48357403 0.292168 0.2673344
0.57009083 0.39750347 0.21689768 -0.032923967 -0.5755486 0.091555804 0.093045905 0.13586682
-0.44002438 0.15365592 0.95995843 -0.45897034 -0.5099653 0.49159867 0.3104843 0.32823083
0.15566534 -0.20019467 0.34935367 0.9341374 -0.17831007 -0.39336222 -0.49219087 0.6260587
0.5156816 -0.077410735 -0.23160934 0.014096356 -0.26457852 0.022263926 0.03085688 -0.101522274
-0.23710757 0.0777837 -0.28125036 -0.032338046 -0.037032988 0.77407146 0.5847789 0.79622453
-0.1931542 -0.1662439 -0.4518478 0.16531494 0.37791812 0.4766678 -0.0029471868 0.41977265
0.0018750095 0.046906002 0.5543661 1.1691083 0.30687934 0.35056615 -0.38549876 -0.85962814
-0.029623436 0.09004806 -0.019925335 -0.25056437 -0.041092694 -0.09513933 0.003554656 0.031893253
-0.112141766 -0.13028541 -0.11076477 -0.13053624 0.15524665 0.17807506 0.03401721 0.07724903
0.2433475 -0.07024936 -0.25015616 -0.054087516 0.017495615 -0.20747095 0.17361721 -0.22756067
-0.15522584 0.01734261 -0.1919167 0.021461673 -0.18332848 -0.022880463
00000000: 91bd 193f 34c5 003f 597b e8be 640a 2bbf
00000010: 870c d4be f1d9 e03e 5166 aabd 3af8 f53e
00000020: 709e 9c3e cf72 ce3e c22f d03e fa66 943e
00000030: 4ffb 863f 77b7 6cbf 4a76 443f 0024 b4bd
00000040: 05b7 1fbd 43e1 313e fc62 34be 4fbd 74be
00000050: 45c3 78bd 85d3 8cbd 8d85 0ebe 4b7b c53d
00000060: 133d 833e 4987 66be 4e32 77be 44e3 0bbe
00000070: 9381 12be 3cd6 89bd 8a20 ba3e 9a34 b53e
00000080: f5fc e9be a42a d4be d997 8bbe 773a 973c
00000090: 9d88 103f e130 bb3e 766f c73c f37d 583d
000000a0: 5212 283f 9794 c1be e65d 08bf 4717 8c3f
000000b0: 8be1 8fbe 229c 52be b2f0 b03d 6217 503e
000000c0: 88fa 3e3e d970 84be 1db5 5c3e aeb4 b9bd
000000d0: 8b38 73be 35af 61be bebc 0fbc d1bf 2e3e
000000e0: 9b22 2cbe f034 203d 0167 2a3e 813d 52be
000000f0: 1a1a d5be 0497 f7be 0b97 953e 0ee0 883e
00000100: 79f1 113f 9385 cb3e 6d1a 5e3e 48db 06bd
00000110: 2757 13bf 9c81 bb3d da8e be3d ac20 0b3e
00000120: e04a e1be fa57 1d3e d6bf 753f 29fe eabe
00000130: 168d 02bf d2b2 fb3e ccf7 9e3e df0d a83e
00000140: bc66 1f3e d5ff 4cbe 7cde b23e a123 6f3f
00000150: ea96 36be c666 c9be 7100 fcbe 6245 203f
00000160: b603 043f 8589 9ebd 002b 6dbe 67f4 663c
00000170: d676 87be d662 b63c 91c7 fc3c e9ea cfbd
00000180: 54cc 72be 0f4d 9f3d 0c00 90be e674 04bd
00000190: e7af 17bd 8c29 463f 12b4 153f 5fd5 4b3f
000001a0: 37ca 45be d73b 2abe 9858 e7be 5248 293e
000001b0: 7c7e c13e cd0d f43e 9725 41bb 71ec d63e
000001c0: e1c2 f53a 8220 403d f0ea 0d3f 57a5 953f
000001d0: 4a1f 9d3e 687d b33e 1860 c5be 9710 5cbf
000001e0: d9ac f2bc 1e6b b83d 753a a3bc f949 80be
000001f0: d050 28bd 69d8 c2bd 3bf5 683b 80a2 023d
00000200: 95aa e5bd 8a69 05be a4d8 e2bd 4bab 05be
00000210: faf8 1e3e 4f59 363e a155 0b3d bd34 9e3d
00000220: 1630 793e e5de 8fbd 7814 80be df8a 5dbd
00000230: f752 8f3c 4473 54be b6c8 313e aa05 69be
00000240: 86f3 1ebe 1712 8e3c d085 44be 64d0 af3c
00000250: 76ba 3bbe cf6f bbbc

encoder_layer_list.0.bias f4 [10]
0.293688 -0.14182183 0.47908223 -0.083001636 0.2668743 0.3159858 -0.06561857 -0.09345877
-0.19211486 -0.1456507
00000000: 465e 963e be39 11be 444a f53e c3fc a9bd
00000010: c0a3 883e e4c8 a13e 0763 86bd 5067 bfbd
00000020: c2b9 44be 7525 15be

decoder_layer_list.0.weight f4 [15, 10]
0.38149709 0.0057575065 0.47912782 0.17197202 -0.68594825 -0.2506525 -0.23125374 -0.59042543
-0.30518895 -0.035020515 0.4178035 0.23094817 0.37068036 -0.02840932 -0.46512493 -0.57769567
0.15761767 -0.52059305 -0.24732587 -0.009203227 -0.44219857 -0.15826558 -0.45951355 -0.14795066
0.5357287 0.7345129 -0.068336084 0.22764581 -0.29481003 0.17949982 -0.5102301 -0.08489832
-0.4410779 0.14400816 0.5692466 0.36108413 -0.18642941 0.493713 0.08645944 0.18522382
-0.30715337 -0.114539176 -0.4567393 -0.07989871 0.5687022 0.5067266 0.026260678 0.46865478
0.15012217 0.06610223 0.07004269 -0.08620427 -0.08850242 0.08070644 0.2081627 -0.06311925
-0.083003156 -0.13375834 -0.065844685 0.2704268 -0.17855489 -0.06179083 0.35052225 0.1255867
0.16834608 -0.2874102 -0.41496268 0.27771512 -0.04450583 -0.19819327 0.11653961 -0.08766873
0.06213937 -0.12513396 -0.036922082 0.23605224 -0.09266697 -0.014671682 0.0789118 -0.05587552
0.12649386 -0.14406449 -0.04736438 0.080327824 -0.7647384 0.88579863 -0.5114259 -0.04016288
0.16049877 0.17687751 0.07626169 0.2617555 -0.07137079 -0.12602402 0.08209772 -0.25783914
-0.04870407 0.29780507 0.100645125 0.027486524 -0.09861952 -0.12904494 0.42103666 0.26691532
-0.070592515 -0.58077323 -0.25361976 1.1481202 0.31464994 -0.06338252 0.1276783 0.29588574
-0.5019081 0.13687864 0.07609684 -0.5342838 1.3516296 0.23124792 -0.29903445 0.047545478
0.58351237 0.27688858 -0.894498 0.30626544 -0.8506212 0.6195474 1.0625943 0.18528984
-0.14648144 0.041496646 -0.7693693 0.13902442 0.96190846 -0.28572398 0.037339035 0.24518977
1.0803831 -0.49282068 0.012785072 0.13387543 0.42491806 0.13739659 -0.41091806 -0.06801359
1.22766 -0.20422155 -0.26376748 -1.0545758 0.2391244 0.27715668
00000000: 9653 c33e 77a9 bc3b 3e50 f53e 6f19 303e
00000010: 4e9a 2fbf 8655 80be c8cd 6cbe 1f26 17bf
00000020: ba41 9cbe ac71 0fbd 57ea d53e ad7d 6c3e
00000030: d1c9 bd3e aaba e8bc db24 eebe dde3 13bf
00000040: 8766 213e 9645 05bf fe42 7dbe 22c9 16bc
00000050: da67 e2be 5f10 22be 5c45 ebbe 6180 17be
00000060: 8425 093f 0a09 3c3f caf3 8bbd fc1b 693e
00000070: 57f1 96be cdce 373e 719e 02bf 2cdf adbd
00000080: f6d4 e1be e076 133e 25ba 113f 05e0 b83e
00000090: 5ae7 3ebe f3c7 fc3e a611 b13d 50ab 3d3e
000000a0: 3543 9dbe 8493 eabd bcd9 e9be efa1 a3bd
000000b0: 7896 113f d6b8 013f a220 d73c 85f3 ef3e
000000c0: a0b9 193e 9b60 873d 8b72 8f3d dd8b b0bd
000000d0: c240 b5bd 6b49 a53d 9a28 553e aa44 81bd
000000e0: 8ffd a9bd f2f7 08be 94d9 86bd 6275 8a3e
000000f0: 18d7 36be 6218 7dbd a777 b33e cd99 003e
00000100: ea62 2c3e 6e27 93be fd75 d4be ad30 8e3e
00000110: bf4b 36bd 2df3 4abe 52ac ee3d aa8b b3bd
00000120: da85 7e3d 1e23 00be 9c3b 17bd aeb7 713e
00000130: 2ec8 bdbd 7f61 70bc 839c a13d bbdd 64bd
00000140: 9b87 013e a485 13be 2701 42bd ea82 a43d
00000150: e5c5 43bf b3c3 623f cfec 02bf d581 24bd
00000160: ca59 243e 611f 353e 172f 9c3d d104 863e
00000170: d92a 92bd 710c 01be d922 a83d 7e03 84be
00000180: eb7d 47bd e879 983e 081f ce3d 6b2b e13c
00000190: 08f9 c9bd 5b24 04be 1e92 d73e 20a9 883e
000001a0: cf92 90bd 8ead 14bf 73da 81be 9af5 923f
000001b0: cc19 a13e b2ce 81bd 1abe 023e 567e 973e
000001c0: 0d7d 00bf ea29 0c3e a9d8 9b3d d3c6 08bf
000001d0: 3302 ad3f 41cc 6c3e 0b1b 99be 0cbf 423d
000001e0: 1161 153f 57c4 8d3e d2fd 64bf d3ce 9c3e
000001f0: 50c2 59bf a99a 1e3f 1703 883f 9fbc 3d3e
00000200: 3bff 15be 63f8 293d 63f5 44bf 6b5c 0e3e
00000210: a23f 763f 6a4a 92be d1f0 183d 0713 7b3e
00000220: fe49 8a3f fe52 fcbe 7b78 513c a416 093e
00000230: dc8e d93e b1b1 0c3e da63 d2be b64a 8bbd
00000240: f623 9d3f 741f 51be 880c 87be 57fc 86bf
00000250: 07dd 743e 7be7 8d3e

decoder_layer_list.0.bias f4 [15]
0.26417416 -0.020280087 -0.13985857 0.21178032 -0.46989685 -0.10335571 -0.0014972835 0.1444008
-0.33428636 0.0052003027 -0.66858816 0.08347428 -0.5138145 -0.05003965 -0.10130062
00000000: d641 873e 6d22 a6bc 1637 0fbe f1dc 583e
00000010: 5296 f0be 29ac d3bd 7f40 c4ba cedd 133e
00000020: 9527 abbe 4d67 aa3b 9828 2bbf 90f4 aa3d
00000030: 5989 03bf 60f6 4cbd b376 cfbd
