result/FairOD_weights/sample_size_bias/cluster/seed_124/biasRate_0.05.pt (torch, 10578 bytes, 12 tensors)

encoder_layer_list.0.weight f4 [15, 15]
0	0xbde115ba	-0.10990472
1	0x3a788c59	0.00094813626
2	0x31054328	1.9392221e-09
3	0xbbf76fe9	-0.0075511825
4	0x802fac4f	-4.378081e-39
5	0xa62142be	-5.594855e-16
6	0x3ccb513b	0.024819007
7	0xb139b6db	-2.7024984e-09
8	0xbdc06e85	-0.0939608
9	0xbd5b7815	-0.053581316
10	0xbcd2c822	-0.025730196
11	0xbd44e2ef	-0.048067983
12	0x20edca43	4.0283207e-19
13	0xb2812abf	-1.5037015e-08
14	0x3a6e31e3	0.0009086413
15	0xbe072fdd	-0.13201852
16	0xbe1bc6e1	-0.15212585
17	0xbd59b111	-0.05314738
18	0x3e9d2ccf	0.3069825
19	0x3e0a6ac6	0.13517293
20	0xbe0aaa0e	-0.13541433
21	0x3a37e655	0.0007015218
22	0x3dea6c8f	0.11446487
23	0x3dafcd05	0.08584026
24	0xbddfea09	-0.109333105
25	0x3e397b35	0.18113406
26	0x3bd8548f	0.006601877
27	0x3d67568d	0.056479026
28	0xbd33fc64	-0.04394187
29	0x3dc12422	0.0943072
30	0xbebb9f14	-0.36644804
31	0xbe4b4da6	-0.1985384
32	0x3bfda849	0.0077410084
33	0x3d8b7e82	0.06811239
34	0x3e01f1bb	0.12689869
35	0x3e980602	0.29692084
36	0xbe5899c8	-0.21152413
37	0x3d257909	0.04039863
38	0x3e23b4bd	0.15986915
39	0x3df61683	0.120160125
40	0x3e92b93f	0.28656957
41	0xbdaafeac	-0.08349356
42	0x3e950d2e	0.29111618
43	0x3de73327	0.112890534
44	0x3bee60d4	0.0072747264
45	0xbdf30315	-0.11865822
46	0x3ea70ef4	0.32628596
47	0xbe8ac5ec	-0.27104127
48	0xbe5d938e	-0.21638319
49	0xbe34c03c	-0.17651457
50	0x3e77588c	0.24154872
51	0x3da7ea8b	0.081990324
52	0x3d8072c7	0.06271892
53	0x3dd981af	0.10620438
54	0x3e85fdac	0.261701
55	0x3db00f7d	0.08596704
56	0xbda66dbb	-0.08126398
57	0x3e822864	0.2542144
58	0x3e1c3e1b	0.15258066
59	0x3e032e53	0.1281064
60	0x062a73ea	3.2058607e-35
61	0xbd04d80d	-0.032432605
62	0x3d031537	0.032002654
63	0x3d2da92c	0.042397663
64	0x3afa78ee	0.0019109526
65	0xbcb9587f	-0.022625206
66	0x33d09dc7	9.714454e-08
67	0xbd1431f3	-0.036180448
68	0xbbe422b9	-0.006962147
69	0xb47ef8e1	-2.3746135e-07
70	0xbddc60b7	-0.107606344
71	0xbb18a5aa	-0.0023292103
72	0xbb401f0e	-0.0029315385
73	0xbd931218	-0.071811855
74	0xbd0c951f	-0.0343219
75	0x3e849743	0.25896654
76	0xbd6a0534	-0.05713387
77	0x3e1af69f	0.15133141
78	0xbbd90d50	-0.0066239014
79	0x3ec2f2fc	0.38076007
80	0xbdd8630d	-0.105657674
81	0x3e0541d3	0.13013391
82	0xbd0a804e	-0.033813767
83	0x3e78d361	0.24299385
84	0xbe120475	-0.14259513
85	0x3e922d44	0.2855016
86	0x3e59d389	0.212721
87	0xbd118a7b	-0.035532456
88	0x3e9b29b6	0.3030526
89	0xbd97f526	-0.07419805
90	0x3e05f8a7	0.13083135
91	0xbcac8ebc	-0.021064155
92	0x3ea436ff	0.3207321
93	0x3e825e8f	0.25462767
94	0x3dd9ee49	0.106411524
95	0xbdbfcb34	-0.0936493
96	0xbd85041b	-0.06494924
97	0xbe50ec59	-0.2040266
98	0xbe37a3b6	-0.17933545
99	0xbda7fed3	-0.08202901
100	0x3e136b9e	0.14396521
101	0x3e7b074b	0.24514501
102	0x3e5abaaa	0.21360269
103	0x3ca182a3	0.019715613
104	0x3e519143	0.20465569
105	0x3db4f2ec	0.08835396
106	0x3d1a8177	0.037721124
107	0x3dcb1862	0.0991676
108	0xbc5b101c	-0.01337054
109	0xbcbfa056	-0.023391884
110	0x3dd3342e	0.10312687
111	0x3daa63e1	0.08319832
112	0x3dd8e1da	0.10589953
113	0x3df569aa	0.119830444
114	0xbb5d9ffc	-0.0033817282
115	0x3e794759	0.24343623
116	0x3df64dd8	0.12026566
117	0x3e6c51a4	0.23078018
118	0x3e17b305	0.14814384
119	0x3dadc66e	0.08485113
120	0x3e32bdc8	0.17455208
121	0x3e8b5bed	0.2721857
122	0x3e0ff4ae	0.14058182
123	0xbe462fce	-0.19354174
124	0xbe8f6164	-0.2800399
125	0xbd63d09f	-0.05561888
126	0xbe13b5ae	-0.14424774
127	0x3d745bfb	0.059658032
128	0x3b5e2742	0.0033897911
129	0x3d9b77c1	0.075912006
130	0x3e882f0a	0.26598388
131	0x3e51de6b	0.20495002
132	0x3d750613	0.059820246
133	0x3e1dde11	0.15416743
134	0xbd33f65c	-0.04393612
135	0xbe1a6bc5	-0.15080173
136	0x3c054cae	0.008135958
137	0x3eb5929f	0.35463426
138	0x3e213873	0.1574419
139	0xbce7bd3e	-0.02828848
140	0xbe405595	-0.18782647
141	0x3e248f10	0.16070199
142	0xbd5ddb98	-0.0541645
143	0xbe1719a5	-0.14755876
144	0x3e478d24	0.19487435
145	0x3cd908a3	0.026493376
146	0x3dadcaca	0.084859446
147	0x3d187f12	0.03723056
148	0x3dcbeac2	0.09956886
149	0x3e23acc0	0.15983868
150	0xbc1d9d3d	-0.009620008
151	0x88f45a06	-1.470638e-33
152	0xbce20d03	-0.027594095
153	0xbd83e6f1	-0.06440533
154	0x3c3f1a1a	0.011663938
155	0xbdb4cffb	-0.088287316
156	0xbd16b392	-0.036792345
157	0x3d0fc55e	0.035100333
158	0xbbbc5263	-0.005747126
159	0xbb80a771	-0.0039262106
160	0xbc5ec13b	-0.013595874
161	0x3bcce9d4	0.0062534604
162	0xb84592e3	-4.710526e-05
163	0xbdd99376	-0.10623829
164	0xbd20da34	-0.039270595
165	0xbe6bd669	-0.2303101
166	0xbdecaca6	-0.115563676
167	0x3e11dff8	0.14245594
168	0x3ecc4cfc	0.39902484
169	0x3e66d4be	0.22542092
170	0xbd82018e	-0.06347953
171	0xbe19bbfa	-0.15013114
172	0x3ea603a4	0.32424653
173	0x3d7b3086	0.061325572
174	0x3e24b55c	0.16084808
175	0x3dae0d98	0.084986866
176	0x3e89e783	0.26934442
177	0x3c8b9108	0.01703693
178	0x3e0caa7b	0.13736908
179	0xbd489b35	-0.048976142
180	0x3e04abe2	0.12956193
181	0x3ea73be7	0.3266289
182	0xbd6f5fb2	-0.05844087
183	0xbe1e4770	-0.15456939
184	0xbb5daea8	-0.0033826027
185	0xbd82eaee	-0.063924655
186	0x3d5604ac	0.05225055
187	0x3dc58e73	0.09646311
188	0x3d1cc34c	0.038272187
189	0xbd95a195	-0.0730621
190	0xbd6c00c7	-0.05761793
191	0x3ddd9d5b	0.10821029
192	0x3de65c60	0.11248088
193	0x3d6b95b8	0.05751583
194	0x3e8a8e90	0.27061892
195	0xbc992c82	-0.01869798
196	0xb2993703	-1.783656e-08
197	0x16817632	2.0915666e-25
198	0xbc212725	-0.009835993
199	0xbd952743	-0.07282879
200	0x34af373c	3.2636478e-07
201	0xbdd8c233	-0.105839156
202	0xbc8bc010	-0.017059356
203	0xbc33b349	-0.010968038
204	0x3dada556	0.08478801
205	0xb7af448e	-2.0893549e-05
206	0xb0c51903	-1.4340745e-09
207	0xbddb743b	-0.107155286
208	0xba9ce364	-0.0011969623
209	0x3aa93261	0.0012908691
210	0xbe697589	-0.22798742
211	0xbd8f3a38	-0.06993526
212	0x3e40a04a	0.18811145
213	0x3de5107f	0.11184787
214	0x3e19b583	0.15010647
215	0xbd657f04	-0.056029335
216	0x3e050c9a	0.12993088
217	0x3e44d168	0.19220507
218	0x3dd3e22b	0.103458725
219	0x3da953bf	0.082679264
220	0xbdbe8e52	-0.09304489
221	0x3d86f7e6	0.065902516
222	0x3dada428	0.08478576
223	0x3e9c70da	0.3055485
224	0xbcb38f90	-0.021919042

encoder_layer_list.0.bias f4 [15]
0	0x884e268a	-6.2036173e-34
1	0x3dd503df	0.10401129
2	0x3e10db00	0.14146042
3	0x3e108136	0.1411179
4	0xbddccbbd	-0.107810475
5	0x3ed90637	0.42387554
6	0x3ea8353c	0.32853115
7	0x3df51d43	0.11968472
8	0x3e3d91d1	0.18512656
9	0x3da76edb	0.08175441
10	0xbdc9c6cb	-0.0985237
11	0x3e094675	0.13405783
12	0x3e224056	0.15844855
13	0xae1c96ae	-3.5604124e-11
14	0x3e9bcf4f	0.304316

encoder_layer_list.1.weight f4 [15, 15]
0	0x3d297bb7	0.04137775
1	0xbe8cccd0	-0.2750001
2	0xbe502d1d	-0.2032971
3	0x3ea23687	0.31682226
4	0x800573ad	-5.00674e-40
5	0x3ec06aa3	0.37581357
6	0x3eb81fd5	0.35961786
7	0x3dd36226	0.10321455
8	0x3ecbffbd	0.3984355
9	0xbe008b6b	-0.12553184
10	0xba267b4c	-0.000635077
11	0x3d4cc62f	0.04999369
12	0x3e3eabbf	0.18620203
13	0xbd1f5cf1	-0.038906995
14	0xbd2ecf10	-0.04267794
15	0x3c4f96a5	0.012670194
16	0xbd73cde9	-0.059522543
17	0x3dc6b75a	0.0970294
18	0xbe3f116b	-0.18658988
19	0xbce63913	-0.028103387
20	0x3ee1653f	0.44022557
21	0x3e52f0a9	0.20599617
22	0x3dc5d817	0.096603565
23	0xbe277ed9	-0.16356982
24	0x3ea205c8	0.31645036
25	0x3d0b1254	0.033953026
26	0xbd496b48	-0.049174577
27	0xbe02035c	-0.12696594
28	0x3dc057bf	0.09391736
29	0x3e8aa385	0.2707788
30	0xbdd8e09a	-0.10589714
31	0x3e9461a9	0.2898076
32	0x3ecef3ad	0.40420285
33	0xbe00615a	-0.12537137
34	0x3cabc63d	0.02096855
35	0x3e6c6c20	0.23088121
36	0x3ec81d7b	0.39084992
37	0x3e585861	0.21127464
38	0x3d8b0e46	0.06789832
39	0xbda9139d	-0.08255694
40	0xbd840c06	-0.06447606
41	0x3e80f0cf	0.25183722
42	0xbe9238b0	-0.28558874
43	0x3b506e19	0.0031803905
44	0x3e308721	0.17239048
45	0xbd65ca61	-0.056101207
46	0x3e833b5b	0.25631222
47	0x3daf468c	0.085583776
48	0xbe0eab8f	-0.13932632
49	0xbdceea60	-0.10103297
50	0x3ec6002b	0.38672003
51	0x3ea4ca4a	0.32185584
52	0x3e308fcc	0.17242354
53	0xbda60ccb	-0.08107909
54	0x3e285e79	0.16442288
55	0x80406df0	-5.91691e-39
56	0x3e583654	0.21114475
57	0x3e340f97	0.17584072
58	0x360a3d56	2.0599305e-06
59	0x3ec9d773	0.39422187
60	0x800568fd	-4.9684e-40
61	0xbe48fe82	-0.19628337
62	0xbde7427c	-0.11291978
63	0x3eab0564	0.3340255
64	0xbd1b2d1a	-0.03788481
65	0xbbc15c9c	-0.0059009325
66	0xbd6d10e1	-0.057877425
67	0x3e57c482	0.21071056
68	0x3d88a7e6	0.06672649
69	0xbde50960	-0.11183429
70	0xbdb71c2e	-0.08940922
71	0xbd6d3f32	-0.057921596
72	0x3d2ee651	0.042700116
73	0xbdbf72a1	-0.093480356
74	0x3e8da31c	0.27663505
75	0xb9329be4	-0.00017033477
76	0x3bf57240	0.0074904263
77	0x3eae812d	0.34082928
78	0x377cbc1b	1.5064167e-05
79	0xbdb239ba	-0.08702417
80	0xbdfea338	-0.12433475
81	0x3e7b23a5	0.24525316
82	0x3da8a308	0.08234221
83	0xbe1091e0	-0.14118147
84	0x3ddbba3f	0.10728883
85	0xb755b9aa	-1.2739018e-05
86	0xbc82050d	-0.015871549
87	0xbddeaccc	-0.10872802
88	0x3dc1e578	0.09467596
89	0x3e94f49b	0.2909287
90	0x3c05158b	0.008122812
91	0x3c0be5f7	0.008538715
92	0xbe8691eb	-0.26283202
93	0x3e05e608	0.13076031
94	0xbc066a81	-0.008204103
95	0x3eb9998d	0.36249962
96	0x3dce8349	0.100836344
97	0x3e03fef9	0.12890233
98	0x3e0d9a89	0.13828482
99	0xbdec5a5a	-0.11540671
100	0x3d0e8afc	0.034800515
101	0xbdbe0c4a	-0.09279688
102	0x3d98a0da	0.07452555
103	0x3090e114	1.054135e-09
104	0xbe14d957	-0.14536034
105	0x3a6fffd4	0.0009155248
106	0xbeaa7ae9	-0.33296898
107	0xbe60c3e2	-0.21949723
108	0xbd208cab	-0.03919665
109	0xbdad3181	-0.08456708
110	0x3e906b88	0.2820704
111	0xbe3c29bb	-0.18375294
112	0x3e564552	0.20924881
113	0x3ea04254	0.31300604
114	0x3c073e1d	0.008254555
115	0xa8af6af1	-1.9475281e-14
116	0x3cd619ee	0.026135411
117	0x3e8298fd	0.25507346
118	0x00056fea	4.99325e-40
119	0xbd034cc7	-0.032055642
120	0x3bcc90ca	0.006242846
121	0x3dadd8a2	0.08488585
122	0x3e9e140a	0.30874664
123	0xbe9c34d3	-0.30509052
124	0x80055f0b	-4.93272e-40
125	0x3e246ddd	0.16057535
126	0x3ea3cf58	0.31994128
127	0xbc947bd1	-0.018125447
128	0xbeb019b3	-0.34394607
129	0x3ea7776a	0.32708293
130	0x3cf2ded8	0.029647276
131	0x3e508167	0.20361863
132	0xbe2d9b72	-0.16953829
133	0x065c3f75	4.1424022e-35
134	0x3e16cca3	0.147265
135	0xac61f82c	-3.2112186e-12
136	0x3d580b6f	0.05274528
137	0x3d1ecb46	0.038768075
138	0x3db4f537	0.088358335
139	0x16467df9	1.6034063e-25
140	0x3dd181f6	0.10229866
141	0xbe10de8f	-0.141474
142	0x3d3b1399	0.045672987
143	0x3dac1ab0	0.08403528
144	0xbde54c6f	-0.11196219
145	0x3da33f0d	0.0797101
146	0x3da9cd6e	0.08291136
147	0xbe0a83e8	-0.1352688
148	0xbd9434e8	-0.072366536
149	0x3daad7f0	0.08341968
150	0xbd6f5bb4	-0.058437064
151	0xbd173cc3	-0.03692318
152	0xbd6e204c	-0.05813627
153	0xbd9ff9bb	-0.07811304
154	0xbd6e320c	-0.058153197
155	0x3b84811e	0.0040437123
156	0xbbe75f57	-0.007060926
157	0xbd7f921c	-0.0623952
158	0x29bc32ba	8.357677e-14
159	0xbd578ac3	-0.052622568
160	0xbb802b1a	-0.003911388
161	0xbb962298	-0.0045817606
162	0xbd850d34	-0.06496659
163	0xbdc29daf	-0.09502732
164	0x3b2ddb82	0.0026528542
165	0x2b45ad3d	7.0228876e-13
166	0x3eaf1d13	0.3420187
167	0x3e9e9717	0.30974647
168	0xbe9239b5	-0.28559652
169	0x3cf3058a	0.029665727
170	0x3ebabb67	0.36471102
171	0xbc615aab	-0.013754527
172	0x3d24cf64	0.040236846
173	0xbe041c5c	-0.12901443
174	0xbc703ec9	-0.014663407
175	0xbca26034	-0.019821264
176	0xbb83037e	-0.003998219
177	0xbe81770e	-0.25286144
178	0xbdd7ad21	-0.105310686
179	0x3db9a72b	0.09065088
180	0x337c9cab	5.881581e-08
181	0x388e18a3	6.7756766e-05
182	0xbddd6214	-0.108097225
183	0x2c86cd9b	3.831336e-12
184	0x3cb959c1	0.022625806
185	0xbdc31ae7	-0.095266156
186	0xbdae8989	-0.085223265
187	0x800563f4	-4.95034e-40
188	0xa2dc0695	-5.963809e-18
189	0xb66e6785	-3.552502e-06
190	0x3a2cd771	0.00065933826
191	0xbd28c1b3	-0.04120035
192	0xbd667acb	-0.05626945
193	0x3af4d212	0.0018678328
194	0xbd9dbe51	-0.077023156
195	0x3c903a33	0.017605877
196	0x3e024410	0.12721276
197	0xbdb17353	-0.086645745
198	0xbeabf351	-0.33584073
199	0xb97ae097	-0.00023925524
200	0xbd7f0b73	-0.06226678
201	0x3e46df85	0.19421203
202	0xbdd92ba4	-0.10604027
203	0x3dc576ef	0.096418254
204	0x3ea19e7d	0.3156623
205	0x3dc6bb3a	0.097036794
206	0x3ebf365a	0.37346154
207	0xbda6d718	-0.081464946
208	0x80056677	-4.95935e-40
209	0x399c8915	0.00029856773
210	0xbceeefae	-0.029167023
211	0x3e862aec	0.26204622
212	0x3ec913e7	0.39272997
213	0x3dc6d2af	0.097081535
214	0x3d696471	0.056980554
215	0x3e98172d	0.29705182
216	0x3e2a3f84	0.16625792
217	0x3dfb617d	0.12274454
218	0xbe074340	-0.13209248
219	0x3e2c837b	0.16847031
220	0xac984fff	-4.328981e-12
221	0x3e889ec1	0.2668362
222	0xbbea7f51	-0.0071562906
223	0x39e624a8	0.0004389633
224	0x3ec12254	0.37721503

encoder_layer_list.1.bias f4 [15]
0	0x3dfd1e3c	0.123592824
1	0x3defde33	0.11712303
2	0x3cdac2c4	0.0267042
3	0xbc971a1f	-0.018445073
4	0x3e80d7f4	0.2516476
5	0xbd299627	-0.041402962
6	0x3e6ad399	0.2293228
7	0x3e8d594a	0.27607185
8	0x3b17aa94	0.0023142444
9	0xbda4c212	-0.080448285
10	0xbdd09a9b	-0.10185739
11	0x3e475361	0.194654
12	0xb99bd232	-0.00029720512
13	0x3ce82d6b	0.02834197
14	0xbcb0b4f5	-0.021570662

encoder_layer_list.2.weight f4 [15, 15]
0	0x3d5504a3	0.052006375
1	0xbd9dbb69	-0.07701761
2	0xbde23698	-0.11045569
3	0xb3176e83	-3.5257937e-08
4	0x3d4ad24c	0.04951696
5	0xbddfa5b5	-0.10920278
6	0xb9d5e57f	-0.00040797514
7	0xbd8563a1	-0.06513143
8	0x3cb83165	0.02248449
9	0x3dc17f9e	0.09448169
10	0x80056c90	-4.98122e-40
11	0xbcef17a3	-0.029186076
12	0xbcaecf3b	-0.02133905
13	0x3dbec99b	0.09315797
14	0xba98ed6e	-0.0011667439
15	0x3e62eb05	0.22159965
16	0x3ebfe67a	0.37480527
17	0x3e2f3c95	0.17112954
18	0x3eda973f	0.42693517
19	0xbcfaa9eb	-0.030598601
20	0xbc31c824	-0.01085094
21	0xbcc16e18	-0.023612067
22	0xbe48a7dc	-0.19595283
23	0x3eb99149	0.36243656
24	0x3d094c16	0.033519827
25	0x00055982	4.91287e-40
26	0x3d4e599e	0.050378434
27	0xbdbec16f	-0.09314238
28	0x3e460bb6	0.19340405
29	0x3e349ccb	0.17637937
30	0xbe31391e	-0.17306945
31	0x3d7df1b1	0.061998073
32	0x3e7a1bcf	0.2442467
33	0x3dda52a3	0.10660293
34	0xbe447ef2	-0.19189051
35	0x3ec7fd0f	0.39060256
36	0xbe5d9d65	-0.21642072
37	0xbd2e69b9	-0.042581294
38	0x3df52aeb	0.119710766
39	0x3dc251f9	0.09488291
40	0x00057af8	5.0329e-40
41	0x3e1079a8	0.14108908
42	0x3dd649ad	0.10463271
43	0x3e8a49b6	0.27009362
44	0x3ed1a3b7	0.40945217
45	0xbdedf0da	-0.116182044
46	0xbc8adbf8	-0.016950592
47	0x3e4d9d0a	0.20079437
48	0x3d3d120b	0.046159785
49	0x3e1edeb0	0.15514636
50	0x3e50445f	0.20338582
51	0xbe6bee92	-0.23040226
52	0xbe8b9a6e	-0.27266258
53	0x3e8dc890	0.2769208
54	0x3dca833b	0.098883115
55	0xbde152a0	-0.110020876
56	0x3e09704d	0.13421746
57	0x3c84bfcf	0.016204743
58	0x3d46e954	0.048562363
59	0x3ed3accf	0.4134278
60	0xbe340394	-0.1757949
61	0x3e8070a3	0.25085935
62	0x3eac6cda	0.33676797
63	0x3e050d86	0.1299344
64	0xbdbc4e15	-0.091945805
65	0x3e97a534	0.29618227
66	0xbe44bd85	-0.19212921
67	0xbdb50ccf	-0.08840334
68	0x3dd8bd29	0.105829544
69	0x3d8bfcec	0.068353504
70	0xbd9b557f	-0.075846665
71	0x3e9ddd6c	0.30832994
72	0xbc31a84a	-0.010843346
73	0x3ea8f993	0.3300291
74	0xbd8a1376	-0.06741993
75	0xbe8853f4	-0.2662655
76	0x3e98aa15	0.29817262
77	0x3e8feea4	0.28111756
78	0x3e9a1ed1	0.30101636
79	0xbeaad8b3	-0.33368453
80	0xba01d1e5	-0.0004952236
81	0xbde06c34	-0.10958138
82	0xbdb4d3ac	-0.08829436
83	0x3ea45983	0.32099542
84	0x3d58552b	0.052815598
85	0x3dcec36c	0.100958675
86	0x3ecc3898	0.39886928
87	0xa8f206fa	-2.6870423e-14
88	0x3e7bb7bf	0.24581812
89	0x3e1872f7	0.14887606
90	0x3d35a6e4	0.044348612
91	0x800567ec	-4.96458e-40
92	0xbd3f2920	-0.04667008
93	0x39cf2d6f	0.00039515967
94	0xbdc8336e	-0.097754344
95	0xbd0bba1e	-0.034113042
96	0x000569ed	4.97176e-40
97	0xbde30fb5	-0.1108698
98	0x39b348a3	0.0003419566
99	0x301c4039	5.6843735e-10
100	0x3c920eee	0.017829385
101	0xbd5d916e	-0.05409377
102	0x3c940bc4	0.018072017
103	0x3914dfc2	0.00014197736
104	0x00056074	4.93778e-40
105	0x3eb6a6aa	0.3567403
106	0x3edd89c6	0.43269175
107	0x3dad6a3a	0.08467527
108	0x3ed8663e	0.42265505
109	0x3cacfd0f	0.021116761
110	0xbd9a0b83	-0.07521727
111	0x3de5c771	0.11219681
112	0xbbd6c51b	-0.0065542585
113	0x3d8eb2b9	0.069676824
114	0x3c80bd84	0.015715368
115	0x3d843a10	0.06456387
116	0x3e90b9da	0.28266793
117	0x3d06c1dd	0.032899726
118	0x3df95c7e	0.121758446
119	0x3e22c1d0	0.15894246
120	0x3e72fbd7	0.23728882
121	0xbd3dc22d	-0.04632776
122	0x3da1566f	0.07877814
123	0x3e817f8a	0.25292617
124	0x3e412c3b	0.18864529
125	0xbe94201e	-0.28930753
126	0x3e8148ac	0.25250757
127	0x3eddaf52	0.4329782
128	0xbe923d0c	-0.285622
129	0xbe2120cf	-0.15735172
130	0xbb12dd38	-0.0022409689
131	0x3d3901f3	0.045167875
132	0x3caec50b	0.021334192
133	0xbe59657a	-0.21230116
134	0x3e12830b	0.14307801
135	0xbe3eb386	-0.1862317
136	0x3e3c6efd	0.18401714
137	0x3dc61e06	0.09673695
138	0x3dd008a1	0.10157896
139	0xbdae0ee1	-0.08498932
140	0x3ddc8406	0.10767369
141	0xbd110db1	-0.035413448
142	0xbddbcca3	-0.10732391
143	0x3de76a62	0.11299588
144	0xbd2ff9f7	-0.042962994
145	0xba6512f2	-0.000873848
146	0x3e396860	0.18106222
147	0x3dd37929	0.10325844
148	0x3ec54138	0.3852632
149	0x3db3a84b	0.08772334
150	0xbe8e4a91	-0.27791265
151	0x3cbd1f68	0.023086265
152	0x3e8bf346	0.2733404
153	0x3eb78690	0.3584485
154	0xbe0e63bd	-0.13905235
155	0x3ea0724e	0.31337208
156	0xbe4826ab	-0.19546
157	0xbe523a82	-0.20530131
158	0x3d3278bf	0.043572184
159	0xbdbde04f	-0.09271299
160	0x3d20fce4	0.039303675
161	0x3eb10f6d	0.3458208
162	0x3c1c42e6	0.009537434
163	0x3ea5f91b	0.32416615
164	0x3e9088a5	0.28229252
165	0x3e9f094d	0.31061783
166	0xbdfc338f	-0.123145215
167	0x3e870792	0.26372963
168	0x3e8ec619	0.27885512
169	0x3eac9bad	0.3371252
170	0x3cca2d19	0.024679707
171	0x3e232ae3	0.15934329
172	0x3d929b69	0.071585484
173	0xbddef422	-0.108864084
174	0x3d825992	0.063647404
175	0x3cca4c39	0.024694549
176	0xbdffce1b	-0.124904834
177	0xbb0e396c	-0.0021701707
178	0xbe87c8cb	-0.2652038
179	0xbc7eec56	-0.015559277
180	0xbc09242c	-0.00837044
181	0xbdb51f6b	-0.08843883
182	0x3d77d667	0.060507204
183	0x3b834a5f	0.0040066685
184	0xb9d18518	-0.0003996275
185	0x3a007a24	0.0004901013
186	0x1499094a	1.5452716e-26
187	0xbdd7f46e	-0.10544668
188	0xbd86c3f0	-0.06580341
189	0xbbc94646	-0.0061424104
190	0x3c901a2b	0.017590603
191	0x3c4da676	0.012551894
192	0xbcf43db0	-0.029814571
193	0xbd55cd4e	-0.052197747
194	0xb58e1d50	-1.0588356e-06
195	0x3d46dc72	0.048550077
196	0xba0868e2	-0.0005203617
197	0xbc0defb7	-0.0086631095
198	0xbdab1e34	-0.0835537
199	0xbdb16c7e	-0.08663271
200	0xbdd406b0	-0.10352838
201	0xba9fe3c9	-0.0012198623
202	0x3dc4f779	0.09617514
203	0xbd5cc054	-0.053894356
204	0xbcbc046b	-0.022951325
205	0x3cda192c	0.026623331
206	0xbc40cb1e	-0.011767177
207	0xbdc5de69	-0.09661562
208	0x397b62cc	0.0002397403
209	0xb7843b45	-1.5763226e-05
210	0xba5759a8	-0.0008214959
211	0x3c65063f	0.01397854
212	0xbd021e84	-0.031767383
213	0x3c8b677e	0.017017122
214	0x22938fd0	3.9996697e-18
215	0xbcec8265	-0.02887077
216	0xbcd50a37	-0.026005847
217	0xbb4bffaf	-0.003112774
218	0xb9a60258	-0.00031663734
219	0x391a245b	0.00014700128
220	0x3da56e25	0.08077649
221	0xb293aa65	-1.7190539e-08
222	0x3da3f3bd	0.08005474
223	0x3da5c88a	0.080948904
224	0x00055ff7	4.93603e-40

encoder_layer_list.2.bias f4 [15]
0	0xbd91edb2	-0.07125415
1	0x3db88da1	0.090113886
2	0x3cbe21c7	0.023209466
3	0x3d48252a	0.048863567
4	0x3de92345	0.1138368
5	0x3d964738	0.07337803
6	0x1293979d	9.31438e-28
7	0x3e95529b	0.29164585
8	0x3ead85ef	0.33891246
9	0x3d39fb6e	0.045405798
10	0x3dbfbbe4	0.09362009
11	0x3ea24ca2	0.3169909
12	0xbb034458	-0.002002975
13	0xbdcdd626	-0.10050611
14	0xbd1e713e	-0.038682215

decoder_layer_list.0.weight f4 [15, 15]
0	0x3bef0a1e	0.0072949072
1	0x3e6e54ef	0.23274587
2	0x3cf12c18	0.02943997
3	0xbe31ef80	-0.17376518
4	0x3e5f2d2a	0.21794572
5	0xbde80447	-0.11328941
6	0xba843e0b	-0.0010089291
7	0x3e4ffb94	0.20310813
8	0xbe56e11a	-0.20984307
9	0x3e5854a8	0.21126044
10	0x3daa54da	0.083169654
11	0xbe79fcb0	-0.24412799
12	0x39dfdcf2	0.00042698492
13	0x3d292a72	0.041300245
14	0x3dae7159	0.08517713
15	0xbc5eacc0	-0.0135909915
16	0x3e6a2471	0.22865464
17	0xbe10d941	-0.14145376
18	0xbd2035be	-0.039113753
19	0x3e8f22b2	0.27956158
20	0xbd68e45d	-0.05685841
21	0x23e34ab3	2.4643026e-17
22	0x3ebf7878	0.37396598
23	0xbd602384	-0.05472137
24	0x3d357ca9	0.04430834
25	0x3cded301	0.027200224
26	0x3e9990f2	0.29993397
27	0xbc16dd56	-0.009208044
28	0x3d5e2b2f	0.0542404
29	0x35e43f8c	1.7005818e-06
30	0xae1c20a5	-3.5499288e-11
31	0x3dd6cf5a	0.10488768
32	0x3d976bfa	0.07393642
33	0x3ddc0bcb	0.10744437
34	0xbd870c66	-0.06594162
35	0xbd9ac942	-0.07557918
36	0x3d55ea1e	0.052225225
37	0xbda6b6d9	-0.08140344
38	0xbc496f2f	-0.012294575
39	0x3caffc39	0.021482574
40	0xbd19e01b	-0.03756724
41	0xba968ccd	-0.0011486054
42	0x3d0988fe	0.03357791
43	0x3cbf539f	0.023355303
44	0xbd898354	-0.06714502
45	0x3d80f21d	0.062961794
46	0x3a013451	0.0004928755
47	0x3ec0e1d9	0.37672308
48	0x3e8ba8f5	0.2727734
49	0xbe097e63	-0.13427119
50	0x3e919630	0.28434896
51	0xb7233228	-9.727235e-06
52	0x3a8e8608	0.0010873685
53	0xbdd43179	-0.10360999
54	0x3e9590ff	0.29212186
55	0x3e904d19	0.2818382
56	0x3e025ed7	0.12731491
57	0xbaa5e51d	-0.0012656782
58	0xbddd0c80	-0.107934
59	0xabd4eb26	-1.5128773e-12
60	0xbd8a68cf	-0.06758272
61	0x3eca58d8	0.39520907
62	0x3e443700	0.19161606
63	0x3e8970e9	0.26843956
64	0x3ecba653	0.39775333
65	0x3ec851db	0.3912495
66	0x347cbbe7	2.3537687e-07
67	0x3d86a063	0.0657356
68	0xbe596759	-0.2123083
69	0xbbf193e2	-0.0073723653
70	0x3ed138f3	0.4086376
71	0xbdfe91a9	-0.12430126
72	0xbc9b5692	-0.018962178
73	0x38e7d627	0.00011054827
74	0x12cb1c09	1.2818012e-27
75	0x3a0e340b	0.0005424625
76	0x3e75bf57	0.23998772
77	0x3d857cec	0.065179676
78	0x3ce41731	0.02784309
79	0xbe945c3e	-0.28976625
80	0xbe925f8c	-0.2858852
81	0xb629eabb	-2.5319594e-06
82	0x3e3a01bd	0.18164726
83	0x3e9d80ef	0.3076243
84	0xbe6e5ab0	-0.23276782
85	0xbe5df67c	-0.21676058
86	0x3e1e733c	0.15473646
87	0x3d1b426d	0.037905145
88	0x0215565b	1.0971574e-37
89	0xbc22b0a5	-0.009929811
90	0x3d2380dc	0.03991781
91	0x3ea6bdb3	0.32566604
92	0x3e5cca95	0.21561654
93	0xbc967df4	-0.018370606
94	0x3c866509	0.0164056
95	0x3e60db84	0.21958739
96	0x3c516231	0.012779758
97	0x3ccff5e8	0.025385812
98	0xbcb53f3e	-0.022124883
99	0x3eb3ba3a	0.35103017
100	0x3e89a1ba	0.268812
101	0xbe850e22	-0.25987345
102	0xbb145dc0	-0.0022638887
103	0xbd324eab	-0.043532055
104	0x00a4a203	1.511914e-38
105	0x8122c703	-2.9897485e-38
106	0x3e061ba8	0.13096488
107	0xbe0e01ad	-0.13867827
108	0x3e58e931	0.21182705
109	0x3d310fe3	0.04322804
110	0x3e930812	0.28717095
111	0xbdcd3909	-0.10020644
112	0x3eec56f6	0.46160096
113	0x3e0bfcd8	0.13670671
114	0x3e88bd29	0.26706818
115	0x3e1e2cd4	0.15446788
116	0xbcc44f0a	-0.02396347
117	0xba5208d0	-0.00080121774
118	0xb5b8e408	-1.3775434e-06
119	0x0000045a	1.561e-42
120	0xbc83e935	-0.016102413
121	0xbda63efa	-0.081174806
122	0xbb56312e	-0.0032683122
123	0x80af988f	-1.612594e-38
124	0x3d90cb83	0.07070067
125	0xbcdc0418	-0.02685742
126	0x3d3a0a7b	0.04542015
127	0xbdd89bef	-0.10576617
128	0xbde29a89	-0.110646315
129	0x31f0138a	6.9871406e-09
130	0xbdc33b74	-0.09532824
131	0x3083983d	9.574773e-10
132	0xbcdb6d03	-0.02678538
133	0x0fa04e44	1.5807365e-29
134	0x3de23cc9	0.1104675
135	0xbd837a7d	-0.06419847
136	0xbd4089cf	-0.047006425
137	0xbcc997c6	-0.024608504
138	0x3e3a9e8a	0.1822454
139	0x3dcb7a06	0.099353835
140	0x3e21d921	0.15805484
141	0x3dd7bcef	0.10534083
142	0x3e8a2054	0.2697779
143	0xbd962e2c	-0.07333025
144	0x3bddc82c	0.006768247
145	0x3db7436a	0.08948405
146	0x3cfc6e5f	0.030814348
147	0xbc9188af	-0.017765371
148	0x3d3c1a4e	0.045923524
149	0x00055880	4.90925e-40
150	0x3d87eacb	0.0663658
151	0x3a048494	0.0005055156
152	0xbcfa3ec0	-0.0305475
153	0xbe0bde8f	-0.13659118
154	0xbccacd4c	-0.024756096
155	0x3d35170e	0.04421144
156	0xbcdae4d7	-0.026720447
157	0x3ecdcb66	0.40194243
158	0x3e742911	0.2384379
159	0x3d38a57d	0.045079697
160	0xbe281280	-0.16413307
161	0x3e1a8347	0.15089141
162	0xbd4a591b	-0.049401384
163	0x3d2e4029	0.042541657
164	0x80055be8	-4.92147e-40
165	0x2b6f7a66	8.507972e-13
166	0xbc68c088	-0.014206059
167	0xb10e8336	-2.0738304e-09
168	0x3d61878b	0.055060904
169	0x3d515cc4	0.05111386
170	0xbdc38867	-0.09547501
171	0xadfdb266	-2.8841995e-11
172	0x0005615d	4.94105e-40
173	0xbd80f938	-0.06297535
174	0xb631d1bf	-2.6497144e-06
175	0x00026acb	2.21981e-40
176	0x3c11793e	0.008879004
177	0xb3c10c6a	-8.989521e-08
178	0xb921930d	-0.00015408937
179	0xbd6d721b	-0.057970148
180	0xbd354fad	-0.044265438
181	0x3eaa9f7b	0.333248
182	0xbe4da73d	-0.20083328
183	0xbe2cce9f	-0.16875695
184	0x3e1a1ef2	0.15050867
185	0x3c48d85a	0.0122586135
186	0xbc835246	-0.016030442
187	0x3e2e6e1f	0.17034195
188	0x3e4cdd97	0.20006405
189	0x3d885b81	0.06658078
190	0x3e8da884	0.2766763
191	0xbbc6f33e	-0.006071477
192	0xbd976d74	-0.073939234
193	0xbdda3e35	-0.10656396
194	0x3dd361c5	0.103213824
195	0x3c1f63db	0.009728397
196	0x3eb77de6	0.3583824
197	0x3e964ea1	0.29356864
198	0x3ea228c2	0.3167172
199	0x3eb506ef	0.35356852
200	0x3e83b32a	0.2572263
201	0xbd1dfe22	-0.038572438
202	0x3e4e7877	0.20163141
203	0xbdb13577	-0.08652776
204	0x3e4f4121	0.20239688
205	0x3e715d64	0.23570782
206	0xbe7eb47c	-0.24873537
207	0xbd71c802	-0.059028633
208	0xbcc98475	-0.024599293
209	0x3c1ed9f8	0.0096955225
210	0xbdc34d42	-0.0953622
211	0x3e801656	0.2501704
212	0xbe93a390	-0.28835726
213	0xbea02b69	-0.3128312
214	0xbe21b54d	-0.15791817
215	0xbe4af1bc	-0.19818777
216	0x39ac2143	0.00032831178
217	0x3e9d16eb	0.30681548
218	0x3eaaa312	0.33327538
219	0x3db321e1	0.08746696
220	0xbe14782c	-0.14498967
221	0x3e507ae2	0.20359376
222	0xbccb07f8	-0.024784073
223	0xa5461f2d	-1.7184325e-16
224	0xbb1f835e	-0.0024339776

decoder_layer_list.0.bias f4 [15]
0	0x3d6a6da7	0.05723348
1	0x3ea8115c	0.32825744
2	0xbd548d30	-0.05189246
3	0xbd038238	-0.03210661
4	0x3ce208c2	0.027592067
5	0x3e8194de	0.2530889
6	0xbb46ce1c	-0.0030335253
7	0x3ea8a727	0.32940027
8	0x38cb87fe	9.705125e-05
9	0x3e9e1c33	0.3088089
10	0x3eadd00d	0.33947793
11	0xbdc5d5be	-0.09659909
12	0x3ebc572d	0.3678526
13	0xbdf95da9	-0.121760674
14	0x3ea7db35	0.3278443

decoder_layer_list.1.weight f4 [15, 15]
0	0xbe3115e8	-0.17293513
1	0xbd3807db	-0.044929367
2	0x3d279a40	0.04091859
3	0xbe9a0a73	-0.30086097
4	0xbd82aa9d	-0.06380198
5	0x3de6d2ea	0.112706974
6	0x3dd73d12	0.10509695
7	0xbdf6a6da	-0.12043543
8	0xba2fa660	-0.0006700512
9	0xbd0936f7	-0.033499684
10	0xbdf3a281	-0.118962295
11	0x1214acc2	4.6913506e-28
12	0xbe687049	-0.22699083
13	0xbd88191f	-0.066454165
14	0xbe2c2cba	-0.16813937
15	0x83ed8340	-1.3959742e-36
16	0xba246602	-0.0006271304
17	0xbd67cd1f	-0.056592103
18	0x9bf5f38e	-4.0689244e-22
19	0xbdc06fd5	-0.0939633
20	0xb9e84380	-0.0004430078
21	0x3cadc15c	0.021210365
22	0xbdca045f	-0.09864115
23	0xbd1dfa14	-0.03856857
24	0xbda3ff14	-0.08007637
25	0xb3264312	-3.8710887e-08
26	0xbd5da26f	-0.054109987
27	0xbddd9f91	-0.108214505
28	0xb86d06b3	-5.6511442e-05
29	0xacba1c69	-5.289592e-12
30	0xbd986855	-0.07441775
31	0x3e85fdad	0.26170102
32	0x3d88432c	0.06653437
33	0xbd2e250a	-0.042515792
34	0xbe7e55eb	-0.24837463
35	0x3e9712c0	0.29506493
36	0xbe38a1d0	-0.18030477
37	0x3e807ce1	0.25095275
38	0x3cd19e97	0.025588317
39	0x3e9b2337	0.30300304
40	0xbb438348	-0.0029832888
41	0xbad46485	-0.0016204274
42	0x3d0c0663	0.03418578
43	0xbde017d8	-0.10942048
44	0x3d909d51	0.07061256
45	0xbe11f33b	-0.14252941
46	0xbce7360d	-0.028224016
47	0x3d134d2c	0.03596227
48	0xbd0ba35d	-0.034091342
49	0x3e111a1f	0.1417012
50	0x3e56a3a6	0.20960864
51	0x3d99b35c	0.07504913
52	0xbd939700	-0.07206535
53	0xbdd2f33a	-0.10300298
54	0xbe7db9ee	-0.24777958
55	0xbe0a16e3	-0.13485293
56	0xb536e384	-6.813136e-07
57	0xbe388827	-0.18020688
58	0x3def9393	0.116980694
59	0xbd856de8	-0.065151036
60	0x3e65f144	0.22455317
61	0x3e3c4239	0.18384637
62	0x3cf7f3e7	0.030267669
63	0x3e855d35	0.26047674
64	0x3ea388e0	0.31940365
65	0xbde77e6c	-0.1130341
66	0xbe334c13	-0.17509489
67	0xbc007cb1	-0.007842229
68	0x3cf7e038	0.030258283
69	0xbe2191cc	-0.15778273
70	0x3dbaba25	0.091175355
71	0xbc027af7	-0.007963887
72	0x3d31e754	0.043433502
73	0xbc1f3e7c	-0.009719487
74	0xbe03978a	-0.12850776
75	0xbc80c961	-0.015721025
76	0xbe9cd52f	-0.30631396
77	0xba23fdd2	-0.0006255779
78	0x3e928a46	0.2862112
79	0x3d085374	0.033282712
80	0x3d91b07e	0.07113741
81	0x3ea16685	0.3152353
82	0x3e508c52	0.20366028
83	0xb49e104b	-2.9441648e-07
84	0xbcfc3758	-0.030788109
85	0xbe7b5fbf	-0.24548243
86	0xbdbacad0	-0.09120715
87	0x3e7c96fc	0.24666971
88	0x3deb38df	0.11485457
89	0x3d7ec06b	0.062195223
90	0xbcc96c1d	-0.024587685
91	0xbdce1ba6	-0.10063867
92	0xbc9f314b	-0.019432684
93	0xbcb152bb	-0.021645894
94	0xbd48013a	-0.048829295
95	0xbdc26174	-0.09491244
96	0xbdd342dd	-0.103154875
97	0xbdd21850	-0.102585435
98	0x3dd21e75	0.102597155
99	0xbd8507b6	-0.06495611
100	0xbd3e88d3	-0.046517204
101	0x3dc525dc	0.09626362
102	0x3dc24ff4	0.09487906
103	0x3c47ed54	0.0122025795
104	0xbbe54d8e	-0.0069977706
105	0x3e9b82af	0.3037314
106	0x3dba9281	0.09109975
107	0x3dd3acfd	0.10335729
108	0xbc8650b3	-0.016395902
109	0x3e50ab5b	0.20377867
110	0xbeb31bdf	-0.349822
111	0x3e8ed2ba	0.27895147
112	0x3e6812a6	0.22663364
113	0xb82d2c3b	-4.1287607e-05
114	0x3cd867f3	0.026416754
115	0xbd76fb29	-0.06029812
116	0x25524014	1.8236307e-16
117	0x3df514cf	0.119668595
118	0x3c3b1f94	0.011421103
119	0xbe948a85	-0.29011932
120	0xbe1efeca	-0.15526882
121	0x3e7031b1	0.23456456
122	0x3d641d83	0.055692207
123	0xbe8e3e08	-0.277817
124	0x3c9caece	0.019126322
125	0x3e6cf507	0.23140346
126	0xbe130c21	-0.14360096
127	0x3db458c6	0.08805995
128	0xbdb92ba0	-0.09041524
129	0xbdc052d7	-0.093908004
130	0x3ebf3f1e	0.37352842
131	0x3da2b999	0.07945556
132	0x3e8d42a4	0.27589905
133	0xbd07e201	-0.03317452
134	0x3ec7adf4	0.38999903
135	0xbba36c7d	-0.004987298
136	0xbb92209d	-0.004459454
137	0xb807020a	-3.2188407e-05
138	0x3c393a9a	0.011305476
139	0x3cf27fea	0.02960201
140	0xbd4e44c2	-0.05035854
141	0xbc860a91	-0.01636246
142	0x3d17c220	0.037050366
143	0x33016d95	3.0134817e-08
144	0xbc27492b	-0.010210316
145	0x3bb6a955	0.005574385
146	0x3d07be00	0.033140182
147	0x3d78bf55	0.060729343
148	0x3bf72e23	0.0075433417
149	0xbde4a7d8	-0.11164826
150	0x3ded0ee0	0.11575103
151	0x3e5eae48	0.2174617
152	0xbde05bcd	-0.109550096
153	0x3e8ab734	0.27092898
154	0x3e9956cb	0.2994903
155	0xbc93f4af	-0.01806101
156	0x3e3df8de	0.18551967
157	0xbcf0b642	-0.029383782
158	0x3dc18adb	0.09450313
159	0x3e6a236c	0.22865075
160	0x3e0380af	0.12842058
161	0xb5928140	-1.0915464e-06
162	0xbd931e44	-0.07183507
163	0x3ec53e4d	0.38524094
164	0xbe8644da	-0.26224405
165	0xbd96a9b8	-0.0735659
166	0x3db76ff5	0.08956901
167	0xbdd02c5f	-0.10164713
168	0xbd9bc637	-0.07606166
169	0xbd756f39	-0.059920523
170	0x3ce1d6d6	0.027568262
171	0xbd899114	-0.067171246
172	0xbcf8953f	-0.030344604
173	0xb185a090	-3.8890633e-09
174	0xbcb7d28c	-0.022439264
175	0xbd0c86d9	-0.03430829
176	0xbdcc8a39	-0.099873014
177	0x3d3fada0	0.04679644
178	0xbd5ae673	-0.05344243
179	0xbc8cdbbf	-0.017194627
180	0x3d1ec83e	0.038765185
181	0x3de03c57	0.10949009
182	0xbdb0dada	-0.086354926
183	0xbe34e893	-0.17666845
184	0xbe1616bd	-0.14657111
185	0x3ec0c788	0.3765223
186	0x3e399235	0.1812218
187	0x3eccc601	0.39994815
188	0x22ea5e50	6.3525684e-18
189	0x3ec7d0b9	0.3902643
190	0x3d7e4b87	0.062083747
191	0x3d83feda	0.064450935
192	0x3e7b9343	0.24567895
193	0xbe509059	-0.20367564
194	0x3ec1141b	0.37710652
195	0x3e9b13dd	0.30288592
196	0x3d1d53c6	0.03840997
197	0x36b53a1d	5.4009856e-06
198	0x3e8631fa	0.26210004
199	0x3e94f488	0.29092813
200	0xbdabca08	-0.08388144
201	0xbbb6c046	-0.00557712
202	0xbe499170	-0.19684386
203	0xbb5acec2	-0.0033387397
204	0x3dfb2d00	0.122644424
205	0xbd51d551	-0.051228825
206	0x3d8c0b65	0.06838111
207	0x3e856c1a	0.26059037
208	0x3eaffd13	0.34372768
209	0x3d9c2bee	0.076255664
210	0xbd7ae303	-0.06125165
211	0x3df3b265	0.118992604
212	0x3ae0577b	0.0017115915
213	0x3dee2ae1	0.11629272
214	0x3ea7b755	0.3275706
215	0xbe2318db	-0.1592745
216	0x3e12ccba	0.1433591
217	0x3e6b3f8b	0.22973458
218	0xb8a3da84	-7.8131474e-05
219	0x3e59278f	0.21206497
220	0xbcf15574	-0.029459693
221	0x3d891f87	0.066954665
222	0xbc859aca	-0.01630916
223	0x3e143476	0.14473137
224	0xbe7d7652	-0.24752167

decoder_layer_list.1.bias f4 [15]
0	0x3e4af252	0.19819
1	0xbc82633a	-0.015916456
2	0x3e618091	0.220217
3	0x3d93f056	0.07223575
4	0x3c2e3478	0.010632627
5	0xbdfa5056	-0.12222354
6	0xbcc0f442	-0.023553971
7	0x3e4d006c	0.20019692
8	0x3eabc5c8	0.33549333
9	0x3bbf9855	0.005847017
10	0xbd044a2c	-0.0322973
11	0xbdca9338	-0.09891361
12	0x3eb725a5	0.35770908
13	0xbe189ed4	-0.14904338
14	0xbda681c4	-0.081302196

decoder_layer_list.2.weight f4 [15, 15]
0	0xbdf7f3c0	-0.121070385
1	0x322301f8	9.488296e-09
2	0x3ec6eb6f	0.38851497
3	0x3e0084cd	0.1255066
4	0xbe61e0b8	-0.2205838
5	0xbe26b949	-0.16281618
6	0x3cae1482	0.021250013
7	0x3e3d9249	0.18512835
8	0x3db329d9	0.08748216
9	0xbd3a094b	-0.04541902
10	0xbe88cee5	-0.26720348
11	0xb599dc9f	-1.1463598e-06
12	0x3e999585	0.29996887
13	0xbe0fb67f	-0.1403446
14	0xbe8874bb	-0.26651558
15	0x3c38e9ee	0.011286242
16	0xbdb5729e	-0.08859752
17	0xbd187dfa	-0.037229516
18	0x3df1fd48	0.11815888
19	0xbd8cd3ee	-0.0687636
20	0x3d2c1212	0.04200942
21	0xba2031fd	-0.00061109645
22	0xbe40558b	-0.18782632
23	0x3e71f68e	0.2362921
24	0xbdc11b48	-0.094290316
25	0xbdeb9cae	-0.11504494
26	0x3c7ddbc4	0.015494291
27	0x3e1c09d7	0.15238129
28	0xbd3774ae	-0.04478901
29	0xbeb72b90	-0.35775423
30	0xbdba9dbe	-0.09112118
31	0x36dcce90	6.580558e-06
32	0xbeba8544	-0.364298
33	0xbe047394	-0.12934715
34	0xbde18691	-0.11011995
35	0x3eb00573	0.34379157
36	0xb6bb02db	-5.5733667e-06
37	0xbd3ab779	-0.04558513
38	0xbe74d87b	-0.23910706
39	0xbddd3d04	-0.108026534
40	0x3eafaab7	0.34309933
41	0x3ce4fc47	0.027952326
42	0xbdb13543	-0.08652737
43	0x3e313aaf	0.17307542
44	0x3af9bc5f	0.0019053331
45	0x3e6e53bb	0.23274128
46	0xbda471d4	-0.080295235
47	0xbd5d4ccc	-0.054028317
48	0xbd7c5cab	-0.061611813
49	0xbd4452f0	-0.047930658
50	0x3e9741a0	0.29542255
51	0xbbd63dea	-0.0065381425
52	0x3e84aa5c	0.25911224
53	0xbe44890d	-0.19192906
54	0x3e10d0dc	0.14142174
55	0xbcab7905	-0.02093173
56	0x3d9cf84e	0.07664548
57	0xbe7fc5b8	-0.24977767
58	0x3e4bbfae	0.19897339
59	0x3e4a8067	0.19775544
60	0x3e5221db	0.20520727
61	0x3aeb95e1	0.0017973745
62	0xbe2cdca0	-0.16881037
63	0x3b820a26	0.003968495
64	0x3ded81a5	0.11596993
65	0x3e07bc3b	0.13255398
66	0xbdba577c	-0.090987176
67	0xbd42a6fd	-0.047522534
68	0xbebf213e	-0.3733005
69	0xbd85ff6e	-0.0654286
70	0x3e0e9138	0.13922584
71	0xbbd34cb7	-0.006448354
72	0xbd91ea6e	-0.07124792
73	0x3e92fc46	0.28708094
74	0x3e2d59bd	0.16928764
75	0x3dd60630	0.10450399
76	0x3c43f092	0.011959212
77	0xbd06cd98	-0.032910913
78	0x3c37e235	0.011223366
79	0xbd807ee2	-0.06274201
80	0xbe369fdd	-0.1783442
81	0x2fc36c23	3.554713e-10
82	0xbdbf9fa0	-0.09356618
83	0x3d3d2137	0.046174254
84	0x3c195393	0.009358305
85	0x3e8ccafd	0.27498618
86	0xb6477ad3	-2.9724804e-06
87	0xbe56687b	-0.20938294
88	0xbe156dff	-0.14592741
89	0xbc0a8b2e	-0.008456035
90	0x3d45498b	0.04816584
91	0x3ca043a3	0.019563502
92	0xbe3b9c38	-0.18321311
93	0x3d365040	0.044510126
94	0xbe71f3f9	-0.23628224
95	0x3e4ac5d6	0.19802031
96	0xbdd1ca64	-0.10243681
97	0xbe2bea04	-0.16788489
98	0xbb3f38e5	-0.00291782
99	0xbd0ba782	-0.034095295
100	0x3e532342	0.20618919
101	0xbda77290	-0.08176148
102	0x3d88b05f	0.06674265
103	0xbe63997b	-0.22226517
104	0x3d23c513	0.039982866
105	0x3cc107e0	0.023563325
106	0xbdaaf783	-0.0834799
107	0xbcda025f	-0.026612459
108	0x395accb7	0.00020866362
109	0x3e605bf6	0.2191008
110	0xbd9372b6	-0.07199614
111	0x3cb66723	0.022265976
112	0xbe2aa134	-0.16663057
113	0xbd99fbde	-0.07518743
114	0xbde2b95e	-0.11070512
115	0x3d622ea2	0.055220254
116	0xbd446b49	-0.047953878
117	0xbb56d53e	-0.003278091
118	0x3e0985c4	0.13429934
119	0xbe2a2eba	-0.16619387
120	0x3e38d243	0.18048958
121	0xbb61f174	-0.0034476193
122	0x3d9fd07d	0.07803438
123	0x3dcfc360	0.10144687
124	0x3d7c4a4e	0.0615943
125	0xbc5dffa1	-0.013549716
126	0x3d95bed6	0.0731179
127	0xbe6b41ca	-0.22974315
128	0x3d0db73e	0.03459858
129	0xbd7780e9	-0.060425673
130	0x3b870f37	0.004121687
131	0x3c516a99	0.0127817625
132	0xbdc5bf60	-0.096556425
133	0x3d8e44d8	0.06946725
134	0x3dfaf88f	0.1225444
135	0x3e52e6ac	0.20595807
136	0xbcc8f254	-0.024529614
137	0x3d2ca9db	0.042154174
138	0x3d98bdfd	0.074581124
139	0xbd3fb868	-0.046806723
140	0x3d3aa6ce	0.045569234
141	0x3cabd8da	0.020977426
142	0x3e28f2c4	0.16498858
143	0x3c8a4922	0.016880576
144	0x3c86524a	0.01639666
145	0xbe46f1ab	-0.19428127
146	0x379212a1	1.7413231e-05
147	0xbe357229	-0.1771933
148	0xbe4e00d0	-0.20117497
149	0x3e8f8a86	0.28035372
150	0xbe3e2e60	-0.18572378
151	0xbab15c4f	-0.0013531538
152	0x3eb04e18	0.3443458
153	0x396d0b16	0.00022606211
154	0xbdd8e27f	-0.10590076
155	0xbe49533a	-0.19660655
156	0xbc6bc5f7	-0.01439046
157	0x3e34e923	0.1766706
158	0xbe0ca6cd	-0.13735504
159	0xbc1a700e	-0.00942613
160	0xba5c4b41	-0.00084035477
161	0xbda71721	-0.08158708
162	0xbe132bdb	-0.14372198
163	0x3e2b72b3	0.16742973
164	0xbd7609fd	-0.06006812
165	0x3e68e4a7	0.22743474
166	0xbbdd0759	-0.0067452607
167	0x3bcc4bf4	0.0062346403
168	0x3c69e39b	0.014275457
169	0x3d53094b	0.051522534
170	0x3e0230aa	0.12713876
171	0x3d8db9f6	0.06920235
172	0xbe3d684c	-0.18496817
173	0xbe104608	-0.14089215
174	0x3c962031	0.018325897
175	0xbe07492b	-0.13211505
176	0x3bc64c9e	0.006051614
177	0x3d7721bc	0.060334906
178	0x3d214426	0.039371632
179	0x3de7268f	0.11286651
180	0xbe58ecb1	-0.2118404
181	0x3ddec5a2	0.10877539
182	0x3d04711d	0.032334436
183	0x3d36e93e	0.04465603
184	0xbdba0864	-0.09083632
185	0xbe83340c	-0.25625646
186	0x3d2dd1c5	0.04243638
187	0xbe893bd6	-0.26803464
188	0xbe8509e1	-0.259841
189	0x3b39999b	0.0028320316
190	0x3d9e421d	0.07727454
191	0x381237eb	3.486119e-05
192	0x3e28475e	0.16433474
193	0x3e2d7a37	0.16941153
194	0x3dc5a95f	0.096514456
195	0xbe2db9eb	-0.16965453
196	0x3c12ba77	0.0089555895
197	0x3e72ed06	0.2372323
198	0x3de243ec	0.11048111
199	0x3d5d00e3	0.053955924
200	0x3de1399c	0.10997316
201	0x8f8911b9	-1.351607e-29
202	0xbe4cedb6	-0.20012555
203	0xbd3aef35	-0.04563828
204	0x3d4865c2	0.04892517
205	0x3dea879a	0.11451645
206	0x3763c603	1.3576358e-05
207	0xbd9b02c2	-0.075688854
208	0x3e1d1913	0.15341596
209	0xbe28de19	-0.16490974
210	0xbcd9e16d	-0.02659675
211	0xbc3d8478	-0.011567228
212	0xbd7da3a2	-0.06192363
213	0xbcf1ea6e	-0.02953073
214	0xbe06eb29	-0.13175644
215	0x3d3601b2	0.04443521
216	0x1c354104	5.9971907e-22
217	0x3bc5cb25	0.0060361796
218	0x3d88c63a	0.06678434
219	0x3e08a307	0.1334344
220	0x3d1a90fb	0.03773592
221	0x3d0a6a1a	0.033792593
222	0xbe4d1723	-0.20028357
223	0x3d94ace3	0.07259538
224	0xbde8cc38	-0.11367077

decoder_layer_list.2.bias f4 [15]
0	0x3c93884b	0.018009325
1	0x3e2b274f	0.16714214
2	0xbe1e7341	-0.15473653
3	0xbe7cb18c	-0.24677104
4	0xbdc0a74c	-0.09406909
5	0x3d5e0649	0.054205213
6	0xbe2d2c68	-0.16911471
7	0xbd89b6ae	-0.067242965
8	0xbe864c0c	-0.26229894
9	0x3cc2754d	0.023737574
10	0x3e3d8c47	0.18510543
11	0x3d93066c	0.07178959
12	0x3e3bd1df	0.18341778
13	0x3d82d789	0.06388766
14	0x3e1d5ecb	0.15368192
