result/FairOD_weights/obfuscation_bias/cluster/seed_124/biasRate_0.1.pt (torch, 5506 bytes, 11 tensors)

encoder_layer_list.0.weight f4 [6, 15]
00000000: a9e4 2fbf 7d13 63be 78b4 093e 539f 923e
00000010: da24 133e e306 313f 5442 c33e 4a71 333f
00000020: 9e30 eb3e a807 693f 47e7 17bc 4b34 123e
00000030: a7a8 9e3e 4c53 0ebe 626f 88bd 2ffb 883e
00000040: a9ca 423f 86cc 81bf 04a4 54bf cefa 4ebf
00000050: 5435 863e 3454 303e fb1e 0f3f fec1 e33d
00000060: 5440 b23e 8d11 473e 8398 853e ea7c 933e
00000070: 8452 103e 15bc 8e3e 698e 22bf 1405 87be
00000080: dd44 c43d 28d1 113e 6027 e13e fa85 883e
00000090: b99a 073f aecd e33e a7d9 813e 03fc d93e
000000a0: ebce 1d3e b547 613e e006 123e 6593 aa3d
000000b0: 72f6 b13d 09ec 393e fead 06bb 707b 51be
000000c0: f3dd 28be 23af 24be fe43 98be deb8 a5bc
000000d0: 6dea 69be 245b b1bb 2ba7 51bd 88d2 cfbd
000000e0: f907 5c3d 6aeb 7a3d 0263 2f3c ed7d 7e3e
000000f0: 2a13 e1be 6303 bfbe 5eca d23e c63c a03e
00000100: e321 c83e d293 1e3f effc a53e 3ab9 ea3e
00000110: 8153 cf3e c5a2 2f3e 3b4e 3ebe b2cf 7b3e
00000120: bf2b 8bbc 8ff2 cb3d ee32 423e 1405 34bf
00000130: ff4e 16bf aa8e a93e 0757 b63e bcd4 953e
00000140: 22c1 0b3f 2e48 373f 5352 f43e fae2 d83e
00000150: 29df 373f 711d 943d 9ad3 7e3d 0694 933e
00000160: 7c8c 44be 7304 6f3c
-0.6870828 -0.22175403 0.1344775 0.2863718 0.14369527 0.69151133 0.38136542 0.7009474
0.4593553 0.9102731 -0.009271449 0.1427776 0.30988047 -0.13898963 -0.066618696 0.26754138
0.76090485 -1.0140541 -0.8306277 -0.8085145 0.2621256 0.17219621 0.5590665 0.111209854
0.34814703 0.19440289 0.2609292 0.2880624 0.14093977 0.2787787 -0.6349855 -0.26371062
0.09583447 0.14239943 0.43975353 0.26664716 0.52970463 0.4449286 0.25361368 0.42575082
0.15410964 0.2200001 0.14260435 0.083288945 0.08689584 0.18156447 -0.0020550485 -0.20457244
-0.16490917 -0.16082434 -0.29739374 -0.020229753 -0.22843333 -0.005412476 -0.051184814 -0.101475775
0.05371854 0.061259665 0.010704758 0.24852724 -0.43959934 -0.3730727 0.4117002 0.31296366
0.39088354 0.61944306 0.32419536 0.45844442 0.40493396 0.17151935 -0.1858453 0.24590948
-0.016988633 0.09958374 0.1896474 -0.7032025 -0.5871429 0.33116657 0.35613272 0.29263866
0.5459157 0.7159451 0.47719058 0.4236067 0.7182489 0.07232178 0.062213518 0.2882387
-0.19194216 0.014588463

encoder_layer_list.0.bias f4 [6]
00000000: 61df 20be 9957 ce3d 301b 35be 45ba 4abe
00000010: 66ff 08bd 7064 d93d
-0.15710212 0.10075302 -0.17686152 -0.19797619 -0.033446692 0.1061486

encoder_layer_list.1.weight f4 [2, 6]
00000000: 4289 093f 9a9a 80bf e57c 8c3f 172a eb3d
00000010: a95e 243f 82c1 7a3f 4a08 833e db62 623f
00000020: 2fda 0bbe 3122 9f3e 6e9f 14be a9c6 b03d
0.53725064 -1.0047181 1.0975615 0.114826374 0.6420694 0.9795152 0.25592262 0.8843209
-0.13657449 0.31080773 -0.14513943 0.086316414

encoder_layer_list.1.bias f4 [2]
00000000: 5262 a4be 8c89 d6be
-0.32106262 -0.41901815

encoder_layer_list.2.weight f4 [1, 2]
00000000: c0d8 9c3f 6be5 abbf
1.2253647 -1.3429388

decoder_layer_list.0.weight f4 [2, 1]
00000000: 2dc2 cfbe c438 613f
-0.40577832 0.8797724

decoder_layer_list.0.bias f4 [2]
00000000: d68b a83f 3695 123e
1.3167675 0.14314732

decoder_layer_list.1.weight f4 [6, 2]
00000000: 33c9 f1be df77 333f 1c6e a53f 8124 aabd
00000010: 7c8b 11bf 06fa b2be 21dc 8bbe 3abb d7be
00000020: 2f2c 933f e4fc a3bd e6e2 c5bc f68c a53e
-0.47223815 0.70104784 1.2924228 -0.08307744 -0.5685346 -0.34956378 -0.27316383 -0.4213503
1.1497859 -0.080072194 -0.024156045 0.32334107

decoder_layer_list.1.bias f4 [6]
00000000: a7ea ecbd 4f97 c53e fe10 afbe 34d7 a8be
00000010: 0623 e23e 175a b7bf
-0.11568194 0.38592002 -0.34192652 -0.32976687 0.44167346 -1.4324368

decoder_layer_list.2.weight f4 [15, 6]
00000000: a8bd efbe 613c d13e d229 ab3e e892 a8bd
00000010: 5334 0b3f 3740 193f 19dd a5be 7338 133f
00000020: 2094 863d 2f11 92be 3f21 3c3f 7b1f 173f
00000030: 1288 b93e e9df 2dbf b2dd 4c3e b62f 38be
00000040: 4d58 eabe 58b2 3cbf c3df cd3e 3a5c 4cbf
00000050: 27c4 4c3e c170 80bd 4d12 67be cc08 4bbf
00000060: b6da b83e 69fa 0ebf fc36 323e 2671 4d3d
00000070: c3c5 d6be 7233 04be 7986 60be 7d54 6abe
00000080: 0220 053d e8c9 9abd 3960 133e f84e e03f
00000090: d487 cbbd d1d7 e4bd c9a1 90be b5c1 3ebe
000000a0: a798 8c3e 83c9 e13f 7f44 bcbc ddad df3d
000000b0: 2d8d 37bd 0fc4 453e 71ba 143e ce77 c03f
000000c0: 645c 2cbe 5b2a 8f3e 358c c0bc c4c1 0d3e
000000d0: 2e9c b8be d0d6 ab3f cc5f f7bd c1f8 5b3e
000000e0: 7148 c13e a385 c5bc 39b0 0ebe 8178 db3f
000000f0: 48b2 8ebd 65b7 92be b457 a93e de77 0bbe
00000100: 550e 823e 61f5 123f 445b 4dbd ecfe 973e
00000110: 1fda 563e 9079 903c c4f1 9bbe 5436 1b3f
00000120: 59b7 a4bd e3df 333d 1926 3f3e 6395 853e
00000130: b350 1abd b601 4a3f 1834 973c 6753 1ebe
00000140: b379 9abe 177e 85be b15f 563e fb42 933c
00000150: 2ec3 e9bd e6bd 513e 3a5a 28be 6013 453d
00000160: e737 aabe 33cc 243f
-0.46824384 0.40866378 0.33430344 -0.08231145 0.54376715 0.5986361 -0.32395247 0.5750801
0.06571221 -0.28528735 0.7348823 0.5903241 0.36236626 -0.67919785 0.20006445 -0.1798695
-0.45770493 -0.7370963 0.4020978 -0.79828227 0.19996701 -0.06271506 -0.22565575 -0.793103
0.36104363 -0.55850846 0.17403787 0.050156735 -0.41947755 -0.1291025 -0.21926297 -0.22883792
0.03250123 -0.07558042 0.14392175 1.7524099 -0.099380165 -0.11173976 -0.28248432 -0.18628581
0.27460214 1.7639621 -0.02298188 0.10921834 -0.04481237 0.19313072 0.14524247 1.5036561
-0.16832119 0.27962002 -0.023504356 0.13843447 -0.36056656 1.342493 -0.12078819 0.21481611
0.3775058 -0.024111575 -0.13934411 1.714615 -0.06967598 -0.28655544 0.33074725 -0.13619944
0.2540156 0.5740567 -0.050135866 0.29686677 0.20981644 0.01763609 -0.3045789 0.60629773
-0.08042783 0.043914687 0.18666877 0.26090536 -0.037674617 0.7890886 0.018457457 -0.15461503
-0.30170974 -0.2607276 0.20934941 0.017976275 -0.11414181 0.20482597 -0.16440669 0.04811418
-0.33245775 0.64374083

decoder_layer_list.2.bias f4 [15]
00000000: f7dc 75be b78e 46bf 4ede 0e3f 5e5c 8f3e
00000010: ec31 c43e 60a0 9fbe e6f2 21bf 8d3b 4fbf
00000020: 7250 52be d536 23bf 238f d33d 00db 70be
00000030: c951 153d cfaa 913d 7efd 2ebe
-0.24010073 -0.77561516 0.5580796 0.28000158 0.38319337 -0.31177044 -0.6326126 -0.8095024
-0.205385 -0.6375554 0.103300355 -0.23521042 0.03645495 0.07112657 -0.17088887
