result/FairOD_weights/under_representation_bias/cluster/seed_127/biasRate_0.01.pt (torch, 5778 bytes, 11 tensors)

encoder_layer_list.0.weight f4 [7, 15]
00000000: 3f76 0f3f 47b9 033f 4ca6 d9be c1f1 ddbe
00000010: 7ab4 1cbe 2820 c73d 25f2 713d 410e 79bd
00000020: 2720 753d b267 ad3d 0b40 3e3c 0260 72bd
00000030: 1ac8 623d 345c 11bd c93a ed3d b6e2 f53d
00000040: 8818 5cbe 616f 923d 9927 82be 739a c43d
00000050: 65bc 3abd 1b0c 0dbe 2215 783e 0761 0dbe
00000060: ca16 493d 2e52 4cbe c69d 0a3e 3637 64be
00000070: 84f6 c43d 35a1 6d3b ebc8 f93e 0460 203f
00000080: 39f7 a0be 9a11 f1be 20b7 c8be bf3d 6b3d
00000090: 0b23 0a3e e989 eb3d d133 a8bc 06af 643b
000000a0: 8047 393e 4652 983d c6cc 82bd 4615 403e
000000b0: a7bc 1c3e bdd0 0c3f ce81 f83e 2f50 e4be
000000c0: ee3b d3be 0f05 a5be ede8 a13c ced1 b33c
000000d0: d829 633e 0afa 603e 8cf2 9a3d f3c1 543e
000000e0: a6cb c73d 0d58 5b3c 3d9d f03d 6db4 00be
000000f0: 4d94 4ebe 8f09 5fbe ee63 8bbc 9304 fbbd
00000100: 8319 623e 8102 41be 229d 47be 9fa9 a53c
00000110: 6abc 5fbc 53ea 193d bbaa 58be a8eb 72be
00000120: 16ce 7fbd 4526 48be 76a8 393e c29e 813e
00000130: b6cc 12be 0fb0 5fbe 1063 24bd ed9e 13be
00000140: 06ee cfbd 092c 2ebe 0edb aabd 6e0f 263e
00000150: 589a 93bd 0be7 c5bd b9db 5cbe 9ed6 a33d
00000160: c0b5 33bd 5506 32be 4d04 163f 7456 013f
00000170: cdc4 4dbe 9b45 02bf 1a4f 09bf 915c e93d
00000180: bb52 893e eabe 8e3e a409 1d3e 061f 853e
00000190: 3f27 5d3d ec84 393d d80f 08be 0784 e53b
000001a0: 3d70 fe3d
0.56039804 0.51454586 -0.42509687 -0.43348506 -0.15303221 0.0972293 0.059068818 -0.06080461
0.059845116 0.08467044 0.011611949 -0.05917359 0.055366613 -0.035488322 0.11583478 0.12006132
-0.21493733 0.0715015 -0.25420836 0.09599771 -0.045589823 -0.13774149 0.24226812 -0.13806544
0.049094 -0.19953224 0.13536748 -0.22286686 0.096173316 0.0036259417 0.487861 0.6264651
-0.31438616 -0.4708374 -0.39202213 0.057431933 0.1348993 0.11500914 -0.02053252 0.003489436
0.18093681 0.074375674 -0.06386714 0.18758115 0.1530634 0.5500601 0.48536533 -0.44592425
-0.4125666 -0.32230422 0.019764388 0.021950629 0.22183931 0.21970382 0.075657934 0.20777111
0.0975564 0.013387692 0.11748741 -0.12568827 -0.2017376 -0.2178099 -0.017015424 -0.12256732
0.22080044 -0.18848611 -0.19493535 0.020222483 -0.013655761 0.037576985 -0.21158879 -0.23722708
-0.0624524 -0.19545849 0.18130669 0.25316435 -0.14335904 -0.21844505 -0.040133536 -0.14416094
-0.10152821 -0.17008986 -0.083425626 0.16216823 -0.07207173 -0.096632086 -0.21568193 0.07999919
-0.043874502 -0.17385228 0.5860031 0.5052254 -0.20094605 -0.5088746 -0.53636324 0.11394609
0.2682093 0.2788003 0.15335709 0.26000232 0.053992506 0.04529278 -0.13287294 0.0070042643
0.124237515

encoder_layer_list.0.bias f4 [7]
00000000: 0f28 d23e a21c 513d 4225 823e 9a1d 873e
00000010: f6a7 d83d ff54 fabd 02cf d93d
0.41046187 0.051052697 0.2541905 0.26389772 0.10578911 -0.12223243 0.10635187

encoder_layer_list.1.weight f4 [3, 7]
00000000: 6e96 e83e 53e1 b2be 326c 213f fdee 103f
00000010: c430 af3e 63f1 9f3d 2b8b 363f f009 aa3e
00000020: 29a8 58bd 9837 153e 5fe2 ac3e 0166 993e
00000030: 44ad b73e 9493 0b3f 7f29 ff3d 3fd0 a43d
00000040: 7271 0a3d 2c3a debc 53d4 65be 6605 da3d
00000050: 32ee 86be
0.4542727 -0.34937534 0.6305572 0.5661467 0.34216893 0.07809713 0.71306103 0.33210707
-0.052894745 0.14571989 0.33766457 0.29960635 0.3587438 0.5452206 0.124590866 0.08047532
0.033799596 -0.027127348 -0.22444277 0.10645561 -0.26353604

encoder_layer_list.1.bias f4 [3]
00000000: 9ea9 553e c434 5e3e b010 a5bd
0.20865485 0.21699816 -0.080598235

encoder_layer_list.2.weight f4 [1, 3]
00000000: ddb8 613f 8867 2f3f 968d d63e
0.88172704 0.6851735 0.41904896

decoder_layer_list.0.weight f4 [3, 1]
00000000: c768 823f 9422 a63e cc7b 2bbf
1.0188226 0.32448256 -0.66985774

decoder_layer_list.0.bias f4 [3]
00000000: 4cfe 7a3e 5ed6 52bf 82aa 1dbf
0.24511069 -0.8235835 -0.615883

decoder_layer_list.1.weight f4 [7, 3]
00000000: 477d 1b3f 95cb 513f 6e6a fbbd b0b0 9abe
00000010: 124b 0ebf bb97 ad3e 82ca c3bd 01c3 11bf
00000020: 5e40 a53d 8a6a 073f 5fd9 88be ecbf 003f
00000030: f95b 573f 02f0 a6be 2192 a1be ce84 adbe
00000040: d816 e6be 0137 403e 8ff0 cebe 92eb d8bd
00000050: e782 c83e
0.60738033 0.81951267 -0.12276159 -0.30212927 -0.555833 0.33904824 -0.0956011 -0.5693818
0.08068918 0.5289694 -0.2672834 0.5029285 0.84124714 -0.32604986 -0.315568 -0.33890384
-0.44939303 0.18770982 -0.40417907 -0.105918065 0.3916237

decoder_layer_list.1.bias f4 [7]
00000000: 8c98 e3be b2c5 f0bd a54c 933f 98ba 33be
00000010: 457c b4be 3123 00bf 8b31 d4be
-0.44452322 -0.117564574 1.1507765 -0.17551649 -0.3525106 -0.500537 -0.41444048

decoder_layer_list.2.weight f4 [15, 7]
00000000: bbfb 4d3e d538 003e eda1 67bf 211b b73e
00000010: b215 df3e ed1f 2f3d f35b b53d 9475 cd3e
00000020: af71 b73d 8671 6cbf 25da 0a3d 25a3 f23e
00000030: 25a2 0e3e 3c7a ce3d 82c4 ebbd 9e9e 5e3d
00000040: 222a 773f c86c 10be 5ade 20bf 2f65 0fbe
00000050: 532d 7abe e19a d9be 6733 493e 21d2 123f
00000060: d438 91be 2e8d a1be 7317 78be 59d2 bdbe
00000070: 9bbb 8ebe bba1 b03d 0270 753f 9a94 0cbf
00000080: a002 65be afd9 5fbe 3f76 6dbe 5745 063f
00000090: 7519 723e fa21 a0be 9309 f8be dc48 39be
000000a0: 2926 8ebd 7877 9a3d 0c2d ab3e 796c acbe
000000b0: 6c61 88be 6e7a 29be 3bb0 5bbe a594 ad3e
000000c0: eea9 45bd ee67 1d3e d089 13be 116a bdbe
000000d0: 5cb6 fc3d 61d8 88be ea3a 9a3e c587 b3bd
000000e0: 3ab6 c03e 24dd 993e df36 eabe 7da7 f2bd
000000f0: 6af0 9cbe 551e b4be f57b b1be 5970 9e3e
00000100: d16f 1bbd fef1 70be daa0 f2bd 0518 59be
00000110: 91ad b3be af97 93be 28ed 523c 2dfe 84be
00000120: 84a7 e6bd 76fa e5bd 0b71 153d 07dd 5cbe
00000130: 042d b1be 93cb 79bd cce9 a13e b293 203d
00000140: 5d0d 353e c7f7 54bd 89ba acbe d37d 2abc
00000150: 2d61 09be 7b78 bebe 1b09 cc3d 0768 b0be
00000160: 6a3a b43e aea6 08be 3128 19be 9f38 cdbd
00000170: 0e70 373e 7bb2 3d3d f8e6 363e eff5 f7bb
00000180: 2f66 6f3d 19a8 b23e c1c1 1abc cbb1 20be
00000190: 9c34 87bd 9cf5 cbbe c8f3 823e 8936 d0bc
000001a0: 3cbf a5bd
0.20115559 0.1252168 -0.90481454 0.35762885 0.4357124 0.042755056 0.088554285 0.40128767
0.0895723 -0.92360723 0.033899445 0.47390094 0.1392904 0.10081908 -0.1151209 0.054350488
0.96548665 -0.14103997 -0.6283928 -0.14003442 -0.24431352 -0.42500976 0.19648515 0.5735188
-0.2836367 -0.31553024 -0.24227695 -0.37074545 -0.27877507 0.08624598 0.95874035 -0.5491425
-0.22364283 -0.21860383 -0.23189639 0.52449554 0.23642524 -0.31275922 -0.48444805 -0.180942
-0.06940872 0.07542318 0.33432806 -0.33676508 -0.26636827 -0.1655061 -0.21453945 0.3390247
-0.04825776 0.15371677 -0.1440804 -0.36994985 0.1233947 -0.26727584 0.30123073 -0.0876613
0.37639028 0.3005153 -0.45744988 -0.11848352 -0.3065217 -0.35179392 -0.34664884 0.3094509
-0.037948433 -0.23529813 -0.11847086 -0.21200569 -0.35093358 -0.28826663 0.012873925 -0.2597517
-0.1126242 -0.11229412 0.03648476 -0.2156869 -0.34604657 -0.06098516 0.31623685 0.039203353
0.17680879 -0.05199411 -0.33736065 -0.010405975 -0.13415976 -0.37201294 0.09962674 -0.34454367
0.35200816 -0.13344833 -0.14956738 -0.10020565 0.17913839 0.04631279 0.17861545 -0.0075671594
0.05844706 0.34893873 -0.009445609 -0.15692823 -0.06601831 -0.39835823 0.25576615 -0.02541663
-0.08093116

decoder_layer_list.2.bias f4 [15]
00000000: 8b1c c3be b367 e3be ec68 9b3e d629 0b3f
00000010: a145 9d3e 9ab9 89bd 9b18 00be 87ed 60bd
00000020: 3110 e13d 3fdc 2dbe 12fa e73c dd4f cfbd
00000030: 5a89 59bd 5a72 04be 97c2 b13d
-0.38107714 -0.44415054 0.30353487 0.5436071 0.30717185 -0.06724854 -0.12509386 -0.054914024
0.109894164 -0.16978548 0.028317485 -0.101226546 -0.053109504 -0.12934247 0.08679693
