result/FairOD_weights/under_representation_bias/cluster/seed_127/biasRate_0.8.pt (torch, 10562 bytes, 12 tensors)

encoder_layer_list.0.weight f4 [15, 15]
00000000: ca21 9c3e c3c3 3e3e c2fd bf3d f6fa f1bd
00000010: 4697 e03c 7c32 3c3d 823c 0a3e 75f7 2e3e
00000020: 9a81 973d 04b6 bc3b 3dce 213d ca0a 613c
00000030: 823d d43e ec44 403d 6c57 433d 3a97 443d
00000040: b1d0 943b dcd5 683e ca22 b93d ebe7 1b3e
00000050: 872d d0bc 84ad ecbd 6cf7 e6bd 878a f0bd
00000060: 3e5b 45be 1a69 b73d dae4 d1bd 2b52 38bc
00000070: 1d01 babd c10a 7cbc dc37 f83c 23d5 0e3d
00000080: cb67 cabc c326 dd3c 349e b7bd 573e f7bc
00000090: 8aef 723c 4f36 bcbd c84f 07bd 929e cabc
000000a0: 6a2f 32bd ae4a b9bd 1079 a73b 0f93 bcbc
000000b0: 57f6 9c3d f8e4 55bd 9940 1ebe 4e36 d13e
000000c0: 0032 203e 1a2e 8f3e 3d4e 0ebc 3d70 4e3e
000000d0: d268 853e e1e1 2a3e 3e23 9d3e 7fff c93d
000000e0: c83c c93d 9610 163e 449c 593e 674f a33c
000000f0: 6311 893e a7b2 08bd 349d 9cbe 7dbc 5fbd
00000100: e931 9bbe f926 c13e 7009 b0bc de61 813d
00000110: d7a6 293e 3d94 4d3e 8419 183e b130 f5bc
00000120: 7eb2 18bb 61ce 473e 0eb5 a63d 5afa 9e3e
00000130: d607 9b3e b65f 40be a07c 43bc 3a32 0cbe
00000140: 113f 323e df26 303e 39b9 21bc 5c2d 9a3e
00000150: c89c ca3e d2d5 94bd 9029 6e3e 622c 6b3d
00000160: 6be8 9c3e 67b6 543d 3db2 5d3e 17d1 9b3e
00000170: d17a a03d 08c3 95be 26a3 8fbb efc3 323e
00000180: 79c0 8d3e 5bf2 883e 72b9 fabd 8a7c 9ebd
00000190: 346b 93bd 8789 193e dc5f d7bd 31fa e5bd
000001a0: 8d0b 913d 5a9d a8bd ee0d 943c 0fb2 bcbb
000001b0: 00ea 803d b3fc e1bd 5562 3abc 61ae 9db7
000001c0: d6b4 db16 c4d0 a9bd 2fc7 7dbb 9846 12b8
000001d0: 8e26 9e3a a168 c03d 80de 0638 5807 e6bc
000001e0: 9a38 2a3e 0048 ad3e 9c93 8cbe b28a 59be
000001f0: 58f7 d63c 2318 9b3e 4cdb 9b3e fa88 2c3e
00000200: b19b 9e3e e5b7 8a3b 4126 513d 81a9 74bd
00000210: 1aca 573d 3245 293e 2d8f a33e 0951 80be
00000220: 412a 18be 049a fc3d ba65 36bd bd5d e9bd
00000230: 64a7 143e 985f 0e3e 3752 8c3e c168 b73d
00000240: 65ff 8b3e c793 653d db75 893d da58 14be
00000250: ab39 153d f156 3ebe 9de2 4ebe 7153 91be
00000260: 1846 9d3e 4f80 643d 3ab1 2f3d 5ad3 453e
00000270: 4a34 c23d fab6 dd3c 2faf 4e3e 8da9 033e
00000280: dc9b 1a3e 3975 8ebd 12f9 ee3c a1dd 7c3e
00000290: a494 b83e bb76 02be 480c 953e a322 173e
000002a0: 3fc0 c23d 2f56 a93e f5dd 343e b38f 883e
000002b0: c0d2 aa3e 3ee1 ba3e 9630 963e b901 90bd
000002c0: 2b01 be3e 46fe b63e 3844 113e e736 a3bc
000002d0: 9688 a8ba cfea 80ba 42db ca3d 0272 cebd
000002e0: d061 e13d f3e7 99ba 1c0d 9abc 7800 393d
000002f0: ff05 e4bd 8659 86bc def1 b4bd 559c a4bb
00000300: c761 b8bc c372 3c3c 58c3 d0bd aa57 7dbe
00000310: 3d66 3bbe 0b24 ad3e 340e 9b3e 9827 053e
00000320: 9792 1c3e 5c55 603e ed35 ee3d e6ee bb3c
00000330: 2f77 a83e 65fb b63e a898 273e 392b 973d
00000340: 995f 073e 0cf0 393c 3a76 da3d 01a8 92bd
00000350: e7ed 0cbe ed09 8f3d aa5e 323d 4e8d e6bb
00000360: 9221 da3c b963 69bd da46 24bd 93e9 95bd
00000370: c070 fabd b326 043d 49ed 0ebd b1ee 823c
00000380: f6ff 06bd
0.3049453 0.18629365 0.09374572 -0.11815445 0.027415883 0.045946583 0.13499644 0.17086585
0.073977664 0.0057590026 0.039503325 0.0137354825 0.41453177 0.04694073 0.047690794 0.047995783
0.0045414795 0.22737831 0.090398386 0.15225188 -0.025412334 -0.11556533 -0.11277661 -0.11745172
-0.19273087 0.089555934 -0.10248728 -0.011250059 -0.090822436 -0.015383423 0.030300073 0.03487123
-0.024707695 0.026996022 -0.08965722 -0.030181093 0.014827618 -0.09190046 -0.03303507 -0.024733815
-0.04350225 -0.09047447 0.0051108673 -0.023019342 0.07664173 -0.052220315 -0.1545433 0.40861744
0.15644073 0.2796486 -0.008685646 0.20160003 0.26056534 0.16687728 0.3069095 0.09863185
0.09826046 0.14654765 0.21251017 0.019935323 0.26771078 -0.0333735 -0.30588686 -0.054623116
-0.30311516 0.37725046 -0.021488875 0.06317495 0.1656755 0.2007608 0.14853483 -0.029930444
-0.002329975 0.19512321 0.08140002 0.31050378 0.30279416 -0.18786511 -0.011931568 -0.13691035
0.1740687 0.17202328 -0.009870821 0.3011273 0.3957274 -0.072673455 0.23258042 0.057415374
0.3064607 0.051931765 0.21650024 0.3043296 0.07835925 -0.2925036 -0.0043834625 0.17457555
0.27685907 0.26747403 -0.12242402 -0.07738598 -0.07198182 0.14993869 -0.105163306 -0.11229361
0.07082281 -0.082331374 0.018073048 -0.005758531 0.06294632 -0.11034527 -0.011375983 -1.879706e-05
3.5495482e-25 -0.08291772 -0.003872346 -3.4874858e-05 0.0012065934 0.093949564 3.215531e-05 -0.028079674
0.16623154 0.33843994 -0.27456367 -0.21244314 0.02624099 0.30291852 0.30440748 0.16849127
0.30978158 0.0042333477 0.051061872 -0.059731964 0.052682973 0.16530302 0.31945172 -0.25061825
-0.14859869 0.12334064 -0.044530608 -0.11394832 0.1451698 0.13903654 0.27406475 0.08955527
0.27343288 0.056049135 0.06711932 -0.14487019 0.03643195 -0.18587853 -0.20203634 -0.28383973
0.3071754 0.055786427 0.042893626 0.19318905 0.094826296 0.02706479 0.20184015 0.12857647
0.15098518 -0.06955952 0.0291715 0.2469392 0.36050904 -0.12740605 0.29110932 0.14759307
0.09509324 0.33073565 0.17662795 0.26672134 0.33363914 0.3649997 0.29333943 -0.070315786
0.37110266 0.3574087 0.1418618 -0.01992364 -0.0012858089 -0.0009835603 0.09905101 -0.10080339
0.110049844 -0.00117421 -0.01880508 0.045166463 -0.11133956 -0.01640011 -0.08835195 -0.005023519
-0.022507561 0.011501971 -0.10193509 -0.24740472 -0.1830072 0.3381656 0.30284274 0.13003385
0.15290295 0.21907562 0.11631379 0.022941064 0.3290343 0.35738674 0.16366827 0.07381291
0.13220061 0.011348736 0.10667081 -0.071609505 -0.13762628 0.06984315 0.04354731 -0.007035888
0.026627336 -0.05697987 -0.04010663 -0.07319941 -0.122285366 0.03226347 -0.03489426 0.015982958
-0.032958947

encoder_layer_list.0.bias f4 [15]
00000000: 0643 d53e 5196 8b3d 2a54 e83d d3aa 6b3d
00000010: 8125 773e 0c4c 603e ff5b dc3d ef96 1ebc
00000020: dc31 17be c1cb 9ebd c5ef 233e c289 a23e
00000030: 3076 1abc 2668 293e 7166 0a3e
0.41652697 0.0681578 0.11344178 0.057535958 0.241354 0.2190401 0.10759734 -0.00967954
-0.14765114 -0.07753707 0.16009434 0.31745726 -0.009427592 0.16543636 0.13515641

encoder_layer_list.1.weight f4 [15, 15]
00000000: cc87 82bd 4d65 d4bb a39d 4ab4 2a41 32bc
00000010: b3fd 863b 55fe 96ba 241d 5c3c 52fb dcbc
00000020: de51 62bc 4a12 133d 1c98 c4bd df61 aebb
00000030: bc82 b93d 3d8b 2ebd 99ae 2a30 cfb4 2dbe
00000040: 7dc1 49bd 269d 70bd 5f03 833e 5d4e 26be
00000050: 8e1b c0bd 782c 70be f85f d6bd c5e9 7bbd
00000060: e119 34be 93ca 663e 8090 4a3e ab9a 0ebd
00000070: d382 873e ef07 abbc 3de5 dc3d 2666 7a3c
00000080: 9219 e5bc 6532 1d3e 98ae 38bd 23bb 8f3e
00000090: 803e 653e 7c4e 9a3d 754a b13d 81c9 343e
000000a0: 652e 9f3e f670 003e d869 f1ba 92ff a33e
000000b0: bac4 abbd c576 48bd 6d05 1cbe f1e3 1ebd
000000c0: 1301 fe3d 625c 163e 1a8e 6bbd f8cb 14be
000000d0: 7c10 d33d ed4b bf3d 67d4 6d3e 32e1 eebc
000000e0: f174 9f3d ce64 93ba 2d0e 0f3e b367 d4bd
000000f0: 8643 4d3e fa00 62be 04b3 283d da6c 1c3e
00000100: c3e1 c93d a396 c53e 5f5e b03d 4b66 1d3d
00000110: 47ba a33e 88b6 a13d b5b1 b53e 1806 943e
00000120: e63f 87bb 8432 273d deaf 063c ba3f 3bbe
00000130: 066e 673e 52a0 4ebd 3851 ad3d 0cdd 56be
00000140: 2db1 18bc f11f 1abd 4bbf 28bd c91d b3be
00000150: c37f 22be ca8a 3d3e f35a 9e3e 606c 823b
00000160: 1cb7 c43e f018 aabc b7b2 3abd 185b 403e
00000170: b709 303d 351f 713e bdf9 d5be 9872 08be
00000180: 7ec9 4cbe a1e8 933d 5a87 94be 155a 6cbe
00000190: 0cf8 353e c96e d53d 87a4 673c 8fcf 2b3e
000001a0: 253a a7bc 98ff 2c3e f2d8 89bb 77e1 7e3d
000001b0: f2f2 5dbe 36c7 dd3e 5b94 ce3e 60b4 373d
000001c0: 732e c0bd 1288 da3e d9d3 833e 49a8 14be
000001d0: be1b 443e 9ff1 863d c8ac 873d 07a4 6bbd
000001e0: 7be1 d93b f42b 7a3e 823c f9bd 32cc a63e
000001f0: 4af6 c3be d647 bbbc c80a 9abe c760 0500
00000200: a2b0 85be a837 8cbe bdc3 873e ce26 bb3d
00000210: 2a6a ab3b 6ff1 d13e 8d32 15be 38e1 8d3e
00000220: 0f89 13be 6944 d6bd 7888 cd3e f4ca 3a3e
00000230: 7661 4c3d f2f9 5abe 08ac 2b3b 5b92 83be
00000240: f503 ddbd 1e11 9b3e 1be9 503e 73a4 66ba
00000250: 3909 dd3e bc49 24bb d843 843d 1ff1 1e3e
00000260: 1be8 92bc ac44 d43d 16fa dcbd f309 e4bd
00000270: 5e5a 15be adc8 c0bd 51cc 7abe fea6 1fbe
00000280: 92e2 ff3c 2adf 493c fad7 6d3d 0b44 1f3a
00000290: 60c7 cebd 34d8 22bd dd03 653e a740 adbb
000002a0: f891 ab3e 7e40 b0be 6eab 7fbe a8fe d53c
000002b0: 97f9 babb 04a1 dbbe a45d f0bd 23ee 933e
000002c0: fe77 263e 24f3 153b 37f2 cd3d 7a7f bf3c
000002d0: f6bb ba3e 4eaf 7ebe 0215 653d 305e 77be
000002e0: 98b4 393e 6068 a93e 5127 a83e 0c2b 80bd
000002f0: a136 b43e 1799 5e3d 7d1e 87be 8246 b23e
00000300: 1325 5bbc df14 3bbe d133 94bd eada 23be
00000310: 19aa 3ebd ab92 a0bd b9c5 1cbe 9664 0d3e
00000320: b499 cbbd ea95 86bc e0e6 5a3c 3c9d 03bd
00000330: 933f 183c f493 a93c d72b 143e 32bf 083d
00000340: 8a72 e4bd 1e53 f93d 8fd4 853e 0d68 823c
00000350: a59b 82bd 7f5e dc3e 5db2 0dbe 3cbf e8bb
00000360: e4dd d5bb 8783 41bb 78e3 57be 3148 0abe
00000370: 96e5 64bd 25ce bb3e 0dff cc3c 737a 653d
00000380: 3d1f f1bc
-0.063735574 -0.0064818026 -1.8870064e-07 -0.010879794 0.004119599 -0.0011519889 0.013434682 -0.026975308
-0.013813464 0.035906114 -0.09599325 -0.0053217257 0.09058139 -0.042613257 6.209376e-10 -0.16963504
-0.04925679 -0.05874362 0.2558851 -0.1624083 -0.09380256 -0.23454463 -0.10467523 -0.061502237
-0.17587997 0.22538213 0.19781685 -0.03481547 0.26466998 -0.020877806 0.10785911 0.015283143
-0.027966294 0.15351255 -0.04508838 0.2807246 0.22387123 0.07534501 0.0865678 0.17654993
0.31090084 0.12543091 -0.0018418385 0.32030922 -0.08387132 -0.048941392 -0.15236445 -0.0387916
0.12402549 0.14683679 -0.057508565 -0.14530933 0.103058785 0.093406536 0.23225556 -0.029160116
0.07785977 -0.0011245252 0.13970251 -0.103713416 0.2004529 -0.22070685 0.041186348 0.15275899
0.09857514 0.3859149 0.0861175 0.038427632 0.31978056 0.07896143 0.35487142 0.289109
-0.0041274903 0.04081966 0.008220641 -0.18286029 0.22600564 -0.050445862 0.08462757 -0.2098276
-0.009319586 -0.037628118 -0.041198056 -0.34983662 -0.1586905 0.18509975 0.30928764 0.0039802045
0.3842095 -0.020763844 -0.045580592 0.1878475 0.042978015 0.23547061 -0.41792098 -0.13324964
-0.19998738 0.07222105 -0.29009515 -0.23081239 0.17770404 0.10421521 0.0141383475 0.16778396
-0.020413468 0.16894376 -0.00420677 0.06222674 -0.21674708 0.43316048 0.4034756 0.044849753
-0.093838595 0.42681938 0.25747564 -0.1451732 0.19151208 0.06589054 0.06624752 -0.057529476
0.006649194 0.2443083 -0.12169744 0.32577664 -0.3827384 -0.022861402 -0.3008635 4.93895e-40
-0.26111323 -0.27386212 0.26516524 0.09138261 0.0052311616 0.41004512 -0.14570065 0.2771089
-0.14407752 -0.10462267 0.4014318 0.18241483 0.049897633 -0.21384409 0.0026195068 -0.25697598
-0.1079177 0.30286497 0.20401423 -0.00087983086 0.431711 -0.0025068363 0.06458253 0.15521668
-0.017932942 0.103646606 -0.107898876 -0.1113471 -0.14585254 -0.09413276 -0.24492003 -0.15591046
0.031235967 0.012321273 0.0580673 0.0006075508 -0.100966215 -0.03975697 0.22364755 -0.005287248
0.33509803 -0.34424204 -0.24967739 0.026122406 -0.005706023 -0.42896283 -0.117366105 0.2889262
0.16256711 0.0022880519 0.100559644 0.023376215 0.36471528 -0.24871561 0.055928238 -0.24157023
0.18135297 0.33087444 0.32842496 -0.062582105 0.3519793 0.054345217 -0.26390448 0.34819418
-0.013375538 -0.1826968 -0.07236446 -0.16001478 -0.046548937 -0.07840475 -0.153098 0.13807902
-0.09941426 -0.016428906 0.013360709 -0.032132372 0.009292501 0.020700432 0.14469849 0.033385463
-0.11154659 0.121740565 0.26138732 0.015918756 -0.06377343 0.43040845 -0.13837571 -0.007102875
-0.0065266956 -0.002952786 -0.21082866 -0.13504101 -0.055883013 0.36680713 0.025023961 0.05602498
-0.02943384

encoder_layer_list.1.bias f4 [15]
00000000: 733b 8437 332a 673e eaec 3f3e 4d21 9dbe
00000010: 2d33 9a3e 75a2 683d 6458 a33e 27b0 f93d
00000020: b13b 5e3e e3f6 b13e 8a89 e83d 42a0 4a3e
00000030: b226 5b3e e67e 233d 72d9 e8ba
1.576331e-05 0.22574691 0.1874272 -0.3068947 0.3011717 0.056795556 0.31903374 0.121918015
0.21702458 0.34758672 0.113543585 0.19787696 0.2140148 0.03991594 -0.0017764999

encoder_layer_list.2.weight f4 [15, 15]
00000000: e830 e8bc 34a3 01bd 927e 5833 64a5 13bc
00000010: 2009 4c3d b1e1 fcbb 7840 573d bed8 9fbd
00000020: 1fa2 cabb 63bf 2ebc 528a 123a 4bf2 e539
00000030: b793 8134 5939 4eba ce72 cb3c d4f4 0804
00000040: 18b7 e8ba bf2a f0bc 4b70 423d 00dc 09bd
00000050: fe1c 99ba dfdb ec36 e79a b23d af97 13ba
00000060: 5643 1dbb db76 773d 9c60 e6ad f184 22bb
00000070: e97a b8bd d1fd cdba c7b7 4d32 7791 f53a
00000080: 853c 57bd 0e05 fab7 0f6c 8cbd 54cc 95a3
00000090: fc45 e728 b17c 3b3c e1b6 16b7 1ef8 50bd
000000a0: 31b1 1eb3 059d 14bd c00d 5ebd 596a 1f3d
000000b0: a6a0 d03b 0e64 6e24 30f6 9d3e ab3f c43b
000000c0: f13d 76be 679c 5cbe a76f c13d 2616 ac3e
000000d0: 4dd3 5dbd 25b1 e23e 9ac0 9a3e 354a 193e
000000e0: 90db 243e 420a a8bd bc7d 653d 67a6 a73e
000000f0: 67ab b7b4 59fa b83d 1c58 823d 0150 febc
00000100: 3f20 bebc 25cf 99b9 5441 923e 12c1 20bd
00000110: 8924 c83e b385 9d3e d1a3 a93d 797c ac3e
00000120: 2118 b5bc e788 dbbd 7868 373e 13ea 8534
00000130: 1a2d 1c3d 7584 583d 0743 6a3e 0b7e 413e
00000140: 58f5 9ebe 6ed1 c5be 9319 bc3e 2a91 9dbe
00000150: 622a bf3d 9f5c 0cbe 420d 82be 3ea4 e53d
00000160: 98c9 31be d5c9 473e 7bc6 2e3d 4dfb 223d
00000170: aee8 593e 2068 3c3e e04d 473e 94e9 c1bd
00000180: aed2 95bd a4a5 8a3e 192b 393d 415f 913c
00000190: e55f 1abe 7b36 a1bc 98ab 68bd 3e93 d1bd
000001a0: 03f9 833d 2a0d fcbc 2a32 b8bd bed3 c5bd
000001b0: e4a8 39b4 83d6 923d 7f20 9d3d b28e c83d
000001c0: f2dd adbd 86c8 33bd 79fe ebb3 c8ce c4bd
000001d0: 5886 8b24 b01c e4bd a727 3aba 5d93 3ebd
000001e0: 8d05 54bc 3c0a cc3e 08c1 d23e 0b30 16be
000001f0: a211 3c3e 692a a43e 6b2f f33d 1056 b2be
00000200: 4b5f aa3e b4c5 b43e 587d 073e 4518 78bd
00000210: 1e38 2cbe 6864 193e 6516 dd3e 8c1c 20bd
00000220: d0bf 70bb ad64 64be c3a7 4a3e a63f 563e
00000230: 9823 4cbe 4e88 a43d 38a5 ad3e 84a5 fabd
00000240: f88a 253e 3453 2ebe 295d dabc 4ee2 253e
00000250: 6a3e 853d e23a 71be d151 943d e2a5 1b3d
00000260: 49b4 d33d 22dc 6c3e 170f 5f3e 12e8 45bd
00000270: 380c c7bd 725d d13d 30cc 21be 0c75 1f3e
00000280: dd22 1dbe bb8c 86bd 3e15 e43d 9865 733d
00000290: a8f7 c2bd 8abd d23a e6a8 32be c60d 893e
000002a0: 0244 633e 9f3c 80bc d12b 34bd 7c64 11bb
000002b0: b8d0 963e dc4d 88be 12e9 e03c 7d27 fcbd
000002c0: a1c4 c9be db5f dd3e df60 8a3d 4182 70bd
000002d0: d1f5 b43a afae d6bd ec07 2abc 7dbd dd3d
000002e0: 1678 2c3e f810 8e3e 0462 853e 3236 413d
000002f0: 8011 003e ed3d 543e 58ff 9b3d b6a6 8d3e
00000300: c40f df3d 0801 6e3d ae17 693e 358b 79bd
00000310: ebc0 3f3e ce30 003e dea9 fd3d 6839 cc3e
00000320: 5472 9bbd 4cd1 a23e 7579 a6bd e1ed ccbd
00000330: 9d8a 803e 0b86 ccbd f668 d13b 82ec b03d
00000340: 3c9a 16be 6335 4d3e 039c 693d d4a9 bcbd
00000350: edd3 303e 5d69 393c c128 bb3e b51a 42be
00000360: 2087 8dbe dffd 363e 37fe a43a f844 a63d
00000370: a104 02be f139 04be d8b6 713e 3eb2 98bd
00000380: ba1d bc3d
-0.028343633 -0.031649783 5.0406534e-08 -0.0090116 0.04981339 -0.007717334 0.052551717 -0.07805012
-0.006183877 -0.010665747 0.00055900693 0.00043858806 2.41356e-07 -0.0007866822 0.024835017 1.6099143e-36
-0.0017754762 -0.029317258 0.047470372 -0.033657074 -0.0011681614 7.0589444e-06 0.087209515 -0.00056302076
-0.0023996434 0.060416084 -2.6190876e-11 -0.0024798478 -0.09007818 -0.0015715902 1.1974357e-08 0.0018735369
-0.05254795 -2.9804676e-05 -0.06856548 -1.6241149e-17 2.5676503e-14 0.011443303 -8.9832765e-06 -0.051017873
-3.6948396e-08 -0.036282558 -0.05421233 0.03891978 0.006366807 5.1692773e-17 0.3085189 0.005989035
-0.24047066 -0.21544038 0.09445124 0.33610648 -0.05415659 0.44275776 0.30225068 0.14969714
0.16099381 -0.082050815 0.056028113 0.32744142 -3.4211118e-07 0.09032125 0.06364462 -0.031044008
-0.023208736 -0.0002933677 0.28565466 -0.039246626 0.39090374 0.30766067 0.082831986 0.33688715
-0.022106232 -0.107194714 0.17910945 2.4943492e-07 0.03812895 0.052860696 0.22877131 0.18895738
-0.31046557 -0.38636345 0.36738262 -0.30774814 0.09334256 -0.13707207 -0.2540074 0.11212967
-0.17362058 0.19510587 0.042669754 0.03979044 0.21280167 0.18399096 0.194633 -0.094683796
-0.073155746 0.270795 0.045207117 0.017745616 -0.15075643 -0.019679299 -0.05680427 -0.10233162
0.064439796 -0.030767996 -0.08993943 -0.09659527 -1.729091e-07 0.07169821 0.07672214 0.09792842
-0.08489598 -0.043892406 -1.09893286e-07 -0.09609753 6.050923e-17 -0.11138284 -0.00071012456 -0.046527255
-0.012940777 0.39851558 0.41162896 -0.14666764 0.18366101 0.32063606 0.11874279 -0.34831285
0.33275828 0.35307086 0.13231409 -0.06057002 -0.16818282 0.14979708 0.43181148 -0.039089724
-0.0036735423 -0.2230403 0.19790559 0.20922717 -0.19935453 0.080338106 0.33915114 -0.12238601
0.16166294 -0.17023927 -0.02665575 0.1619961 0.06506045 -0.23557618 0.07242168 0.037999995
0.10337121 0.23130849 0.217831 -0.048317023 -0.097191274 0.102229014 -0.15800548 0.15571994
-0.1534533 -0.06569811 0.11136864 0.05942306 -0.09519893 0.0016078216 -0.17447242 0.2676832
0.22193912 -0.015653906 -0.0439871 -0.0022185137 0.29456115 -0.26621902 0.027454887 -0.12312219
-0.39407828 0.43237194 0.06756758 -0.05871797 0.0013806169 -0.10482537 -0.010377865 0.10827158
0.16842684 0.2774732 0.26051342 0.047170825 0.12506676 0.20726748 0.07617062 0.27666253
0.10891679 0.058106452 0.2276294 -0.060923774 0.18725936 0.12518618 0.12385915 0.39887547
-0.07590166 0.31800306 -0.08128635 -0.10006309 0.25105754 -0.09986504 0.006390686 0.0863886
-0.14707273 0.20039897 0.05703355 -0.0921208 0.17268343 0.0113166245 0.3655453 -0.189555
-0.27642155 0.17870282 0.0012587969 0.081186235 -0.12697078 -0.12912728 0.23604906 -0.07455872
0.091853574

encoder_layer_list.2.bias f4 [15]
00000000: aaf3 90bd 13ef 7dbd 2026 8ebb 9dc0 e63c
00000010: 8f02 b83e ad3d bb3e 8d8e e8bd 1ea5 1bba
00000020: 4ffb 203d 3b6f cb3d 6690 8ebd 5615 b93e
00000030: 82d3 33be a2c6 7f3e c982 a03d
-0.07077725 -0.061995577 -0.004338041 0.028168017 0.35939452 0.36570492 -0.113553144 -0.0005937385
0.039302167 0.09933325 -0.069611356 0.3614909 -0.17561153 0.24978116 0.07837445

decoder_layer_list.0.weight f4 [15, 15]
00000000: 2ee2 babd 72f3 c33c a806 af87 9a91 a0be
00000010: 790f 983d e0d5 b93e 9417 263e 7b17 763c
00000020: 6801 6fbe ccd0 c13d 3429 063e acdf a83e
00000030: 4816 cc3d b7c7 bb3e 4511 0b3e c0af 8abc
00000040: 952f cabd c827 d0bd 723b 933e d4d3 e63d
00000050: 751e c1be c628 233e ae17 d73d 7145 553e
00000060: d20b 6cbe b6f0 033c 16fb 4abd ff70 9c3e
00000070: 1887 9c3e 21df b1bd 9442 353d 4b2a b83d
00000080: 9d59 5bbc 8e03 133e c053 02ba 5c7a 38be
00000090: 40b9 1cbe c0c6 6d3d c02f 9b3e df1d abbe
000000a0: bc8c 99bb bae2 4bbe de3a 863e bf71 afbd
000000b0: 31f7 0d3d e5da 52bd 99fa 2f3d 5e99 e7bc
000000c0: 1e51 65be 5a2d 813e 2b2e 36bd 858b cc3c
000000d0: 4744 86b8 edcc 563e 7a7c b0bb c8f3 a33d
000000e0: 8624 803e b15c 573e d29f d73e 62b1 653e
000000f0: c75d 253b 9bb4 89bd 6c18 7b3d e8ce 89bd
00000100: 1a43 623e e8f7 63be 0500 c4bd 54e5 6a3d
00000110: ef92 473e ff47 27be 040a ccbd e829 87be
00000120: 02b8 b5bd 9f60 af3e facc 28be a1ba 2833
00000130: 82da 2939 8251 9f3d c215 d5bb 9bf4 32be
00000140: 51a1 273e 3dfb f83b 3884 c7bd 2b37 2a3e
00000150: 397c 4d3d f506 2d3e 07eb ff3d 39cf dd3d
00000160: eb3f 6e3e 49cd a13d b0b0 d63a 69ab d13a
00000170: c1c5 703c 263e 6fbc eb36 323e fbae b13d
00000180: 1e29 f93d 9d40 03bc 7553 8a3e 7e07 06be
00000190: 2a61 f9bc 2aa1 c4be 0006 85bc 234a 953e
000001a0: 610d 2cbd d19f 60bd db32 aa3d 4ff6 8838
000001b0: a35b b23e 9d47 363e b7c7 91be 7ad5 2abe
000001c0: 0912 95a3 22ec 793e 55fd 06be b4b9 ffbd
000001d0: bd81 6ebe 8c49 08bd c1e0 39be 3a60 ecbd
000001e0: bf78 903d dfe2 8bb9 47c6 383b 443c 32bc
000001f0: 95ea 723e 06c9 6b3c 9764 f33d 778f 573d
00000200: b14a 323c cfde 713e 134d 583e f405 043e
00000210: 1c50 a23c 7536 203c f882 db3d e609 51bb
00000220: 7a18 51bd 5e48 81bc de01 23be 0ce8 0e3e
00000230: 2ba8 433e cb5b 813e 5461 0500 d174 f23d
00000240: 1bbf 843d 783a 743e cd90 ad3d bb14 f3bc
00000250: e15a 6d3b 0d39 923e bfcd 012d 3c5f 6e3d
00000260: 75d9 cdbc b30c 773a 22c3 833e 09da 5abd
00000270: 73b7 4d3e dd78 51bc bd67 ee3d 1077 0dbe
00000280: 564c b63d e915 b5bd d57d 393e a859 623e
00000290: 52ed 5b3c 6756 7d3b 3a8c 0a36 120e 8a3d
000002a0: 9993 1eb3 ad51 123c 5b62 27bd fa8e f1bc
000002b0: c6e3 0839 2952 0309 f94d aabb c2d3 0400
000002c0: 05ab f6bc fc34 40ba d149 81bc 5d9a c6bc
000002d0: ea7a 8ebd 628a 933d 1848 983a 8b26 5d3e
000002e0: c7a0 9b3e c922 6ebe f34d c73c f473 f0bc
000002f0: 0fee be3e a359 10be 7951 76bd 58dd 28bd
00000300: 93a9 533e 279f c9bd 5984 833d cd43 863d
00000310: bb2f 902f f11d f234 120e 3c3d bac5 623d
00000320: 818a edbd 9521 483a a071 ac39 d8ad ad3c
00000330: e1bc 4dbe cef5 30be 7851 49be 8e1a e43d
00000340: 2f55 d83c d90b 99bd 4c28 4637 a401 443d
00000350: e042 663d afa0 95be 051a 713c 3180 cd3e
00000360: 46f0 323e 311c 0daa acf7 893d 0f23 f13c
00000370: b4b7 523c e4b2 db3d 649b 41bc d73b abbc
00000380: 655f 893e
-0.091251716 0.023919795 -2.6334986e-34 -0.31361085 0.07424826 0.36295986 0.16219932 0.015020247
-0.2334038 0.09463653 0.13101655 0.32983148 0.09965187 0.36675808 0.13580807 -0.016929507
-0.09872357 -0.10163838 0.2875629 0.11270872 -0.3771855 0.15933523 0.105025634 0.20827271
-0.23051384 0.008052995 -0.04955586 0.3055496 0.30571818 -0.086851366 0.044252947 0.08992442
-0.013388065 0.14356825 -0.0004971586 -0.18015426 -0.15305042 0.05805087 0.30309868 -0.33421227
-0.0046859663 -0.19910708 0.26216787 -0.08566617 0.03465957 -0.051478285 0.042963598 -0.028271373
-0.22394225 0.25229913 -0.044477623 0.024968872 -6.4023356e-05 0.2097661 -0.0053859325 0.08005482
0.25027865 0.21031453 0.4211412 0.22430947 0.0025232898 -0.06723901 0.061302587 -0.06728917
0.2209591 -0.22262537 -0.09570316 0.05734761 0.19489644 -0.16336058 -0.09962848 -0.2639916
-0.08872987 0.34253404 -0.16484442 3.9285286e-08 0.00016198496 0.07779218 -0.006502838 -0.17476122
0.16370131 0.0075983093 -0.097420156 0.16622607 0.050167296 0.16897185 0.12496 0.1083054
0.2326657 0.07900483 0.0016379561 0.0015996519 0.014695586 -0.01460222 0.17403762 0.08675953
0.121660456 -0.0080110105 0.27016798 -0.13088796 -0.03044184 -0.38404208 -0.016238213 0.29158124
-0.042004947 -0.054839913 0.08310481 6.530864e-05 0.34835538 0.17800756 -0.28472683 -0.16682997
-1.616225e-17 0.24406484 -0.13182576 -0.12486592 -0.23291679 -0.033273265 -0.18152143 -0.11541791
0.070542805 -0.00026681178 0.0028194354 -0.010878626 0.23722298 0.014391189 0.1188442 0.052627053
0.010882066 0.23620151 0.21123151 0.12892896 0.01981359 0.009778609 0.1071834 -0.003189677
-0.051048733 -0.015781578 -0.15918681 0.13955706 0.1910712 0.25265345 4.94092e-40 0.11838687
0.06481763 0.23850429 0.08474884 -0.029672971 0.0036217498 0.2855915 7.378486e-12 0.05819629
-0.025128106 0.00094241946 0.25734812 -0.05343059 0.20089512 -0.012785164 0.1164088 -0.1381495
0.08901279 -0.0884207 0.18114407 0.22104514 0.013423281 0.0038656236 2.0645225e-06 0.06740965
-3.692148e-08 0.008930606 -0.040865283 -0.029487122 0.00013054823 1.5807183e-33 -0.0051972833 4.43306e-40
-0.030110845 -0.0007332114 -0.015782269 -0.024243528 -0.06957038 0.07204129 0.0011618165 0.21596734
0.303961 -0.23255457 0.024329161 -0.029352166 0.37291 -0.14096694 -0.060136292 -0.041226715
0.20670156 -0.09844809 0.06421728 0.06555901 2.6227362e-10 4.5097798e-07 0.045911856 0.055364348
-0.11598683 0.00076343986 0.00032891054 0.02120106 -0.20091583 -0.17281267 -0.19659984 0.111378774
0.026407806 -0.07472963 1.1811102e-05 0.047853127 0.05621612 -0.29224154 0.014715676 0.40136865
0.1747447 -1.2533097e-13 0.06736693 0.029435663 0.012861181 0.1072748 -0.011816833 -0.020902557
0.26830593

decoder_layer_list.0.bias f4 [15]
00000000: aa03 f23d de21 173e 480c 593e 7ba0 5e3e
00000010: 90bf 423e 99b7 83bd e0e4 11bd d817 8d3e
00000020: 2e1a aa3e 780d 66be a1a5 44be 9c73 a9bd
00000030: 0110 433d c31f 7c3d 7ff3 553e
0.11817105 0.14759013 0.21196091 0.21740906 0.19018388 -0.06431503 -0.035618663 0.27557254
0.332231 -0.22466075 -0.19203807 -0.08274004 0.047622684 0.061553728 0.20893668

decoder_layer_list.1.weight f4 [15, 15]
00000000: a99c 50bb 6150 d63c cc60 9a33 53ec 1939
00000010: 728b 4b35 2930 a1bd c9d6 8d38 b447 cfbc
00000020: 0104 e4bd 2eab 69ac e02c c2bd 6e32 623d
00000030: cc53 9cbd 30de b53d b52c 11bb 533b b1bd
00000040: 8cd0 1ebc c8f0 c73d e274 83bd 9c82 0a3e
00000050: 459e 08be 8f9f 293e fd02 913d 90da 043e
00000060: d7dd 05be d17f ffbd fa65 86bc 8a1b 253e
00000070: 3bae fe3d 75fd 47be cd93 3cbe 198a de3d
00000080: 4a32 f33d 5596 453e c602 d43d 9eed b0bd
00000090: 62f2 653e bdc8 41bc 0eba b43d dcef 9d3d
000000a0: 1483 343e cc6f 893d 99c9 c93d 9365 08be
000000b0: 7994 dbbd 4a6b 0b3e baf9 b9bd e8a6 b5bd
000000c0: 3f19 9a3e c508 a7bc f0f3 853d 77b1 babe
000000d0: 6842 84be a0e4 213e 56e5 bcbb a397 39be
000000e0: dd1d a93d f472 4bbe ba8b a2ba 54c1 5c3e
000000f0: 7cf5 d13e fd31 1bbe ede3 68bd 41b9 913d
00000100: f11b c93d a425 1e3e 1492 8bbe 91f1 573b
00000110: b4be e13d 6427 d8bd 1c0d 44be fffd 8dab
00000120: 7c82 afbd e5fc e1bc 4209 603e c8b6 b1be
00000130: 42ef 973e ca26 1a3e 8b97 f03d 5f46 533e
00000140: 1b70 afbc ebf2 4b3e 6f64 6e3d 8e41 fe3d
00000150: 0224 82be d02c a03c 1e7b d53a 0d97 b3bd
00000160: b5e0 c83d de75 0ebe e38d ae3d a9ec a1be
00000170: 79e4 38be 2754 b83e cbb0 72bd 9e30 033e
00000180: 6af5 89be 4ef8 8cbd b996 4ebd c8bc 6a3e
00000190: 8930 31bc 8788 833d baf2 86be c451 e83c
000001a0: 19f7 783e 2951 282a 5dbe bcbd cd21 2a85
000001b0: b9fb fcbc 2251 733d 9c38 47bd c162 973d
000001c0: 33f3 32bc 7e50 9fbd 7081 9c3a e5ee 3f3d
000001d0: 1cac 67bb 61c2 a6bc 01a5 86bd f529 023d
000001e0: c858 cf3b 298a 41bb 2c43 e836 3353 d13c
000001f0: c27a 2c3d 9354 2e3c cccd 23bd 0845 293d
00000200: b13f 8dbd 6a89 c6bd 4c3e f23c b9e6 7cbb
00000210: 2b6b adbd f80c 393c aae2 aebd 233a c73d
00000220: 20e8 4b3e f801 7f3e 51fd 0dbd 882c 543e
00000230: fae4 0e3e b005 963e 82e3 093e 3f06 383d
00000240: a690 bfbd 36d5 3d3e 623b 1101 b7cf 9e3e
00000250: cf3b 023d 243a 71be 25c6 193e 65f0 1f3e
00000260: f2e0 76be 5b5f 1d3c e41a 7f3c cdc6 873e
00000270: 63e9 d8bb 5d1b 02be 337c f03d a1c4 ab3e
00000280: 57ab a93d 6324 eebc 5a24 17be d12a 3dbe
00000290: cc1d 673e c027 08be c80f 813e 2e74 c4bd
000002a0: a2ef 1dbe 7474 813e cd28 42be 62bb 2b3e
000002b0: 237e 983e 7555 33be afa9 a4bd 50af 06be
000002c0: 26cb f83b 572d dbbd 27a2 e73d bdd8 4fbe
000002d0: 1444 793e 2dd1 7cbe e453 24be 165b ba3e
000002e0: 156b a73b a495 fa3d c54f a0bd dfe6 483d
000002f0: 5c89 803e 30ed 1dbe 0e8c a1be 9590 f3bc
00000300: 811c a5be c0af 903d a941 0c3e d2ef ae3d
00000310: 9f63 a63c e2b2 0ebc b9d8 4dbd ce35 c5bd
00000320: 41d7 8b3b f74e 053e 166e 233b 4906 43bd
00000330: f5d3 51bd 5c15 8ebc ec03 89bd 2426 573d
00000340: a41c 413d ab4a 5dbc faad 99be 9cc0 933e
00000350: 5823 2b3e c5ca 3c3e a8ec 603e d1c0 36bb
00000360: 1d8b 933e 70fd 8c3e 1b55 233e 6b6c 0cbe
00000370: 5502 6c3d f1b3 973a 1709 013e c0d0 863c
00000380: 70fe b2bd
-0.0031831658 0.026161375 7.188791e-08 0.00014679255 7.582631e-07 -0.07870514 6.763411e-05 -0.025302745
-0.11133576 -3.3206315e-12 -0.094812155 0.055223875 -0.076331705 0.088802695 -0.0022151892 -0.08653893
-0.009693276 0.09762722 -0.06418778 0.13526386 -0.13341625 0.16564773 0.07080648 0.12974
-0.13072906 -0.12475551 -0.016406048 0.16123787 0.124355756 -0.1953028 -0.18415757 0.10866184
0.11874826 0.19295628 0.103520915 -0.08639072 0.22455743 -0.011827645 0.088245496 0.07711765
0.17628127 0.06710777 0.09852905 -0.13319997 -0.10721678 0.13615146 -0.09080835 -0.088697255
0.30097386 -0.020389924 0.06540668 -0.3646352 -0.25831914 0.1580987 -0.0057646437 -0.18124251
0.08257649 -0.1986807 -0.0012401261 0.21558124 0.41007602 -0.15155788 -0.056857992 0.071154125
0.098197825 0.15444046 -0.27259886 0.0032950381 0.11022702 -0.10554388 -0.19145626 -1.0089151e-12
-0.0856981 -0.02758641 0.21878532 -0.34709764 0.29674727 0.1505386 0.117476545 0.20632313
-0.02141576 0.19916885 0.05820125 0.12414847 -0.25418097 0.019552618 0.0016287302 -0.08769045
0.098084845 -0.1391215 0.085231565 -0.3162587 -0.18055905 0.36001703 -0.059250634 0.12811515
-0.2694505 -0.06883298 -0.05043671 0.22923577 -0.010814794 0.06422525 -0.2635706 0.028359301
0.2431301 1.4949556e-13 -0.092159964 -7.99957e-36 -0.03088175 0.059403546 -0.04863797 0.07391883
-0.010922241 -0.077790245 0.0011940431 0.046858687 -0.0035350388 -0.020356359 -0.06574441 0.031778295
0.006327722 -0.0029531813 6.9219586e-06 0.025552368 0.04210926 0.010640281 -0.039991185 0.0413256
-0.06896914 -0.096941784 0.029570721 -0.003858967 -0.08467706 0.011294596 -0.085393265 0.097278856
0.19912767 0.24903095 -0.03466541 0.20720112 0.13954535 0.29301214 0.13465694 0.04492783
-0.093537614 0.18538365 2.66749e-38 0.3101785 0.03179532 -0.23557335 0.15016992 0.15619047
-0.24109247 0.009605254 0.015570376 0.2651886 -0.0066196187 -0.12705751 0.11742439 0.33548453
0.082846336 -0.029070085 -0.14759961 -0.18473364 0.2256996 -0.13296413 0.25207353 -0.09592472
-0.15423444 0.2528416 -0.18960877 0.167707 0.29783735 -0.17513068 -0.08040177 -0.13152814
0.0075925766 -0.10702007 0.11310225 -0.20297523 0.24342376 -0.24689169 -0.16047627 0.36397618
0.0051092007 0.12235573 -0.07827715 0.0490483 0.25104797 -0.15422511 -0.31552166 -0.029732028
-0.3224831 0.07064772 0.13696922 0.08541836 0.020311175 -0.008709641 -0.05025551 -0.09629403
0.0042676036 0.13018404 0.0024937443 -0.047613416 -0.05122753 -0.01734417 -0.06690201 0.052526608
0.047146454 -0.013506572 -0.30015546 0.28857887 0.16712701 0.18436725 0.21965277 -0.0027885924
0.28817073 0.27537107 0.15950434 -0.13713233 0.05761941 0.0011574012 0.12601124 0.016456962
-0.08739936

decoder_layer_list.1.bias f4 [15]
00000000: 3ca7 b2bc 7f59 3b3e 2d78 8a3d bee9 113e
00000010: f457 283e c01f 7b3d 2272 5f3e 6fb2 58bc
00000020: 2aa7 b4bd a201 ac3d 21a9 38bc d4c2 433e
00000030: cfcb 6e3e 8b78 acbd 8b90 dd3d
-0.02180826 0.18295859 0.06761203 0.14249322 0.16439801 0.061309576 0.21820882 -0.013226136
-0.088209465 0.08398749 -0.011270792 0.1911729 0.23319934 -0.08421429 0.10818585

decoder_layer_list.2.weight f4 [15, 15]
00000000: b222 bfbd 008c 573a c9b4 4bbd 6c82 843e
00000010: ed9c 953e c653 24be ea4b eb3d b5c6 9d37
00000020: 5158 69ba 5a08 1bbe e51b 923d 8e8b 6fbe
00000030: 0a65 963e de3e 8137 4c76 41be e5a1 c0bd
00000040: 6525 a6be b9c7 a5bd ead2 9b3d a920 e93d
00000050: 5c4c 9fbe acda 483e ed00 8cba 892e 98bc
00000060: fdc2 d4bd 8ddd 003e 1df9 1cbe 6881 de3d
00000070: bb5a 553a 8542 63be 36f3 d8bd 0026 3f3d
00000080: 98b3 873e 8bca b1be 3366 96bc 403c 6c3e
00000090: 78d7 aebe 25e4 043d c07d 663c eb6f 7dbd
000000a0: eb20 a4bd 7536 4e3e 7a34 9cbc 564f 6039
000000b0: a5ef 843e 8e37 95bc 2cba 643d a993 e43d
000000c0: 99d3 72be 40c6 b2be 1291 213e 42ca 923d
000000d0: 760b 94bd 1ef1 cabd e365 563e 2c31 16be
000000e0: 62a7 b1bd 70ef 78be 9e68 8a3b 5257 ca3d
000000f0: 29d8 bebd d76f 28be 3966 1f3e ac77 313c
00000100: 2862 87be 2132 483d ee95 91be 1757 87bd
00000110: f31e d3bc de66 7e3e b79e 2cbe 65a7 8c3e
00000120: ab8c 54be 383f e0bd e430 5c3e e2b4 c93d
00000130: bc4b 31be d45a 35bd b568 30be bdb1 8fbd
00000140: 14ff e3bd 2a75 3ebc 8539 6b3c 0496 c43d
00000150: fe0a 273e 3f44 4a3e 96f3 40be 304c 4fbe
00000160: 747b 65bd e2c3 18be 6bed 36bb bd05 85bd
00000170: d7a7 e3bc 15aa 23bd 5066 20be 809a 2ebe
00000180: 75d8 74be 25e2 de3d 5d4f 9f3d 6fe3 993c
00000190: 1011 2b3e 978b 0fbe 4563 e83d 7a6d d2b9
000001a0: c254 213d 175c 3d00 da4e 4abe 9aa7 95bd
000001b0: 6ccd debd 8982 ad3d 7dca 5abe 5a8e 67be
000001c0: 2e31 11bd 5917 0500 2ac7 a83d c33f 873e
000001d0: d82a 533d e4ab 85be bd1a 093c 014e 1ebd
000001e0: 8a03 0c06 134e 0a3e 8002 cfbd 75f5 f2bd
000001f0: 3eb6 133d 066b de3b 8637 cabd d894 ed3c
00000200: 0675 9dbc 0d65 51be c0d6 b13e c7ee a7bd
00000210: a31b 7ebe b4c9 813b 2a3c 083e efc6 543d
00000220: 3267 8dbe d110 9f3e e3de b2be 5da5 9fbd
00000230: 7b4f a9bc 9a07 ebbd 2b2f 143d b4ed 503d
00000240: 2cb3 febb 20b1 6c3e d642 5abe 0e7b f03d
00000250: 1062 c2bd 0718 3abe 0590 d584 505b 193c
00000260: d78f 03bd d42a 3dbd b1ad 27bd a99d df3d
00000270: b659 25bd 5e94 3f3d 8bc0 2cbd 6b06 f1bb
00000280: ee7c 3d3d c0cf 88be 49d9 2dbd 18a8 b03c
00000290: fe5b acbd 0b57 a1bb 69cc f2bd f792 17bd
000002a0: 2672 83bd 353b 443d 7c62 0c3e daf8 55be
000002b0: ca5f 4d3d ed14 953d 13c0 933b db31 0d3e
000002c0: 2bfc 5abe 1bb0 0f3d 82e4 b8bd ec0b 58bd
000002d0: bfea 5bbb f44f e13c cacd a33d d8c0 f6bd
000002e0: b80a f53d 069d 053c 06f6 e2bc 5845 7a3d
000002f0: 04aa 4d3d 02c9 05be 335e f13d d28d 173e
00000300: 5cd4 c53c 1e69 58bd d1e7 d03d d2bf 2fbc
00000310: 6997 8cbe 6430 983d 0606 efbd 5cf7 f5bd
00000320: 7dc9 46be c692 58be 164a c2ba 5cd8 17ad
00000330: aeb3 0c3e ae04 353e 161a bbbd 5bd3 1a3e
00000340: 09ae 87b8 77da b1bd 58fe c1bd 8f78 b33d
00000350: 4c45 143e 2092 9abd f70e 5c3d 3b82 5b3d
00000360: 6594 a13c 2a2c 5eb7 2c06 6b3d fed8 b23c
00000370: b3cb 923d 7bcf 1fbd 3359 9b3c 7b13 cdbc
00000380: 61d3 e4bd
-0.093327895 0.0008222461 -0.049732957 0.25880754 0.29221287 -0.16047582 0.11489089 1.8808389e-05
-0.0008901405 -0.15139905 0.07134227 -0.2339308 0.29373962 1.5407273e-05 -0.18892783 -0.09405879
-0.32450405 -0.08094735 0.07608588 0.113831826 -0.31112945 0.19614667 -0.0010681428 -0.018576877
-0.103887536 0.12584515 -0.15329404 0.10864526 0.0008138825 -0.22193344 -0.10593264 0.0466671
0.26504207 -0.3472484 -0.01835928 0.23069859 -0.34148765 0.032444138 0.014068067 -0.06187431
-0.08014091 0.20137961 -0.019067992 0.0002139186 0.25964084 -0.018214967 0.05584161 0.111609764
-0.2371353 -0.34916878 0.15777996 0.07167484 -0.072287485 -0.09909271 0.20937304 -0.14667195
-0.08674504 -0.24310088 0.004223897 0.09879936 -0.09318573 -0.16448914 0.15566339 0.010831755
-0.26442075 0.04887593 -0.284347 -0.06608408 -0.025771594 0.24843928 -0.1685742 0.27471462
-0.20756786 -0.10949558 0.21503025 0.09848954 -0.17314047 -0.044276074 -0.17227443 -0.07016323
-0.11132637 -0.011624614 0.014356975 0.09598926 0.16312787 0.19752596 -0.1884292 -0.20243907
-0.056025937 -0.14918473 -0.0027912508 -0.06495235 -0.027789993 -0.039957125 -0.15664029 -0.17051125
-0.23910697 0.108829774 0.07778809 0.018785207 0.16705728 -0.14018093 0.11347059 -0.00040135888
0.039387472 5.635001e-39 -0.19756642 -0.07307358 -0.10879025 0.08472163 -0.21366306 -0.22612897
-0.035447292 4.67553e-40 0.082411125 0.26415834 0.05155453 -0.26107705 0.008368191 -0.03864861
2.6333674e-35 0.13506345 -0.10107899 -0.118632235 0.03606247 0.0067876605 -0.098738715 0.029001638
-0.01922084 -0.20448704 0.34734154 -0.0819984 -0.2481523 0.0039608125 0.13304201 0.05194753
-0.27617794 0.31067517 -0.34935674 -0.077952124 -0.020667782 -0.11476059 0.036177795 0.05100794
-0.007772824 0.23114443 -0.21314558 0.11742221 -0.0949136 -0.18173228 -5.020832e-36 0.0093601495
-0.0321196 -0.046183422 -0.04093713 0.10918743 -0.04036876 0.046772353 -0.04217581 -0.0073555014
0.04626172 -0.26721 -0.042443547 0.021564528 -0.084159836 -0.0049237064 -0.118553944 -0.03700539
-0.064182565 0.047908027 0.13709444 -0.2089571 0.05014018 0.07279382 0.004508981 0.1378855
-0.21385257 0.035080057 -0.090279594 -0.052745745 -0.0033556668 0.027503945 0.079982355 -0.12048501
0.11964935 0.008155113 -0.027705204 0.061101288 0.050210968 -0.1306496 0.11785545 0.14800194
0.024149112 -0.052834623 0.102004655 -0.010726886 -0.27459267 0.07431105 -0.11671071 -0.12010071
-0.19412799 -0.2114974 -0.0014823105 -8.631398e-12 0.13740417 0.17677566 -0.09135835 0.15119688
-6.469718e-05 -0.08684247 -0.0947234 0.08763229 0.1447956 -0.075474024 0.05372521 0.053590994
0.01972408 -1.3242514e-05 0.057378933 0.021831986 0.07167759 -0.03901623 0.018963432 -0.025033703
-0.1117313

decoder_layer_list.2.bias f4 [15]
00000000: e4ab 5abd ae04 823e b3eb 7abe 7f83 a6bd
00000010: 6ef5 76bd a198 db3d c8a2 40be 4cde 533c
00000020: 9599 36be a6d4 72be d248 213e ca1d 6d3d
00000030: 099a 2fbe fb6c 113e bf74 41be
-0.053386584 0.25394195 -0.24503975 -0.0813055 -0.060292654 0.10722471 -0.18812096 0.012931418
-0.17832024 -0.23713931 0.15750435 0.057889737 -0.17148603 0.14201729 -0.18892191
