result/FairOD_weights/base_rate/cluster/seed_126/biasRate_2.pt (torch, 10146 bytes, 12 tensors)

encoder_layer_list.0.weight f4 [15, 15]
00000000: fc51 833e da7f a73e 80a2 43be 61a0 673e
00000010: 3a50 b13d 4b2e cc3e 45f7 ce3e d28d 013e
00000020: 41d5 043e 350a 593e f650 3cbc 0144 5b3d
00000030: 24aa 663b fbff 843e 2ab2 473e 93a6 19bd
00000040: 5440 d0bd 75c8 da3e ac41 243e 099c 553e
00000050: 9f9c 19be cfd8 22be 95d5 25bb fa01 143e
00000060: 83e1 9e3e c99e 0e3d e403 3bbd a0ef 9fbd
00000070: bcdb cabd 0777 523d 1f49 9a3d b3a7 63be
00000080: 9545 793e 08fe 51be 142e 97bc 0df4 1f3e
00000090: 5975 f5bb 3297 fbbd ef56 b13d 758a 21bd
000000a0: f106 a63d 33d9 4dbe 2d65 01bd 726b 41bd
000000b0: 4f35 18bb 23b2 12be 27a1 0bbe bd6d d73e
000000c0: c0e1 c1bc 1b29 9c3e ca69 703d 76ae 313e
000000d0: a7a0 e3bd c9ac 53bd 58ce 33be 7372 da3d
000000e0: d446 c73d 6e81 babd def9 8f3d d332 4c3e
000000f0: c6b8 af3d 25a0 aabd 64d2 89be 5e4b 2f3e
00000100: b295 423e 3dfa 91be fa4b d93d eefa 9e3d
00000110: e597 ebbd a611 36bd 3ead e73d f1d9 0e3e
00000120: 9bad 53be 1737 82be 7365 033e 583b 863e
00000130: 62ef 9a3e 4ba8 ccbe ba9d 6f3c 90f6 55be
00000140: 0e77 b03e 6a8d 913d b906 6b3e deb9 5d3d
00000150: bee6 b93e 3bb6 323e 08dd 4c3d 37c2 993d
00000160: 9519 983d 16bc 3c3e 5a17 63be 86b6 c6bd
00000170: fdc1 29bd 8312 3c3c 2841 98bd 3a52 7c3e
00000180: cda6 14bd a925 a73c d4b9 4c3e cf38 443e
00000190: 9824 00bd 73f5 c23d d974 4fbe 48d2 cebd
000001a0: c4a8 37be 2b12 383e d5e6 8bbe 7996 88bc
000001b0: a81a ba3e 6365 383e a4ed 8e3e 8bf8 bcbd
000001c0: 7848 913e 0628 0a3e 505f c13d d1f2 893e
000001d0: cc50 2fbd ee92 b13e 6a27 fb3d b2c3 903e
000001e0: 87b6 e03b f56d 94be 3f2f c33e 4007 de3e
000001f0: 5233 c93e 67d0 503e 7c93 173e 0246 14be
00000200: 5219 58be 784e 793d 2ebc 7a3a 0641 d6bd
00000210: bfe6 3c3e 5bdf d13d f213 31be db4d 3bbe
00000220: b4c8 77be 955a d0bd 3753 03be 6fa1 7bbe
00000230: 6c94 64bd cda1 013e 5191 c0bd 9f0b 263e
00000240: 68e5 5ebd a1d3 243e f30d afbd 9e58 b2bd
00000250: 615a 693e 52f0 223e c8af 94bc fc79 ddbd
00000260: 18b4 a33e 7b2a a73e 1e8a 533d 6dbb 883d
00000270: dbf6 513e 8e6d c43e cab6 9a3e 88c3 823d
00000280: 2ac7 b63e d1c9 e23d 5250 a83e 7522 303e
00000290: 7c4f 8e3d c3d4 253d 2660 d43e d55e a0be
000002a0: f213 debc 1d13 9ebe 7b74 77bd 98f2 9a3e
000002b0: 6e0a 803e e144 b53e bd26 e13e 5975 3d3e
000002c0: 5aea 503e 711b ae3d 1f68 af3e 6714 d93e
000002d0: e13b 343e 51d3 a43e 2994 42bd 59e9 163e
000002e0: e6ba 7abe b870 633d 8dc9 61bd 61b0 be3b
000002f0: 46be d5bd 83af 49be c341 ad3c f916 d63d
00000300: ffa3 8e3e b514 77bd 7302 1dbc 1de0 603e
00000310: 6cd7 8d3c c92d a3bd 1292 78be 8bdb 58be
00000320: 8627 44bc 3d56 67bd 7eb5 233e ef90 863d
00000330: 3c8e 4cbe 6d0e 523d ef44 45be db4b 85be
00000340: d668 00bb b239 84be fd33 61be 1f6f 92bd
00000350: db16 c53d f5de dcbd 5092 7cbe 5598 0bbe
00000360: d814 653d 18cb 003e 0c57 a6bd e8ed 05bd
00000370: 451d 583e b108 3bbe 45bf 33be 6f3d c43c
00000380: 6cd6 1fbe
0.25648487 0.3271473 -0.19104958 0.22619773 0.0865788 0.3987907 0.40423027 0.12651756
0.12971975 0.211953 -0.011493912 0.05353165 0.0035196627 0.25976548 0.19501558 -0.037512373
-0.101685196 0.42731062 0.16040677 0.20860304 -0.15001152 -0.15903018 -0.0025304307 0.14453879
0.31031427 0.034819398 -0.045658007 -0.07809377 -0.09905192 0.051383045 0.07533478 -0.22231941
0.2434295 -0.20507061 -0.018454589 0.15620442 -0.0074907956 -0.122846976 0.086591594 -0.039438684
0.08106793 -0.20102386 -0.03159063 -0.04722161 -0.0023225134 -0.14325766 -0.13635693 0.4207591
-0.023667216 0.3050011 0.05869464 0.17351708 -0.111146264 -0.051678453 -0.17559183 0.10666361
0.09730306 -0.09106718 0.0703008 0.19941263 0.085801646 -0.083313264 -0.26918328 0.17118594
0.19002417 -0.2851123 0.106101945 0.07762705 -0.11503581 -0.044450425 0.1131234 0.13950326
-0.20671694 -0.25432655 0.12831669 0.2621715 0.3026076 -0.39972147 0.014625007 -0.20894837
0.34465832 0.07107051 0.22951783 0.054132335 0.36308855 0.17452328 0.05001548 0.07507747
0.074267544 0.18431124 -0.22176877 -0.09702782 -0.041444767 0.011479023 -0.074343026 0.24640742
-0.036291886 0.0204037 0.19992763 0.19162296 -0.0312849 0.09519472 -0.20259418 -0.10098702
-0.17935473 0.1797568 -0.27324548 -0.016673313 0.36348462 0.18007426 0.2791568 -0.09227093
0.28375602 0.1349183 0.094420075 0.26943067 -0.042801663 0.3468241 0.12263377 0.28274304
0.0068576965 -0.2899014 0.38121983 0.43364906 0.39296967 0.20391999 0.14802355 -0.14479831
-0.21103409 0.06086585 0.0009564784 -0.10461621 0.18447398 0.1024768 -0.17292765 -0.18291418
-0.24197656 -0.10173527 -0.12824713 -0.24573301 -0.05580561 0.12659378 -0.09402717 0.1621537
-0.054417998 0.16096355 -0.085475825 -0.08708309 0.22788383 0.15911987 -0.018150225 -0.10814282
0.31973338 0.32649598 0.05164539 0.06676374 0.20504324 0.38364834 0.30217582 0.06384951
0.35698825 0.1107365 0.3287378 0.17200644 0.06948754 0.04048611 0.41479605 -0.3132235
-0.02710912 -0.30873957 -0.06041382 0.3026321 0.25007957 0.35404113 0.43974867 0.18501796
0.20401898 0.08501328 0.34259126 0.42398378 0.17600967 0.32192472 -0.047504578 0.14737453
-0.24485359 0.05552742 -0.055123854 0.005819366 -0.104366824 -0.19695859 0.021149522 0.104536004
0.27859494 -0.060322482 -0.0095831035 0.21960492 0.017314635 -0.07967717 -0.24274471 -0.21177499
-0.011972314 -0.056478728 0.15987203 0.06570613 -0.19976133 0.05128329 -0.19264577 -0.26034436
-0.0019593737 -0.25825268 -0.21992488 -0.07150101 0.096235 -0.10784713 -0.24665189 -0.13632329
0.05592808 0.12577474 -0.081220716 -0.03269759 0.21104915 -0.18265034 -0.17553432 0.023955075
-0.15609139

encoder_layer_list.0.bias f4 [15]
00000000: 43ab bb3e 2699 213e d20b e9bd c5dd 313d
00000010: 82e6 00be 8b45 473e b708 69be 5781 933e
00000020: 9c82 3a3e bf84 29be c142 3f3e a678 a43e
00000030: c62f f1bd 7bb2 e9bc 8159 21be
0.366541 0.15781078 -0.11379208 0.043424387 -0.12587932 0.19460122 -0.2275723 0.28809616
0.18213886 -0.16554545 0.18677808 0.32123297 -0.1177669 -0.028527489 -0.157568

encoder_layer_list.1.weight f4 [15, 15]
00000000: 5668 1a3e 6573 6dbe fbcf 39bb 3309 9cbe
00000010: 4a0b 3abe d943 b83e c851 73be 822c 6abd
00000020: b338 a5be 249f abbd ba55 4e3e dceb bd3c
00000030: 2984 e53d 52e2 26be 934d bd3d 9ee4 5d3e
00000040: cc18 753e d974 8a3d b0a3 9b3d 8b46 ff3d
00000050: c83d 4fbe 376d 47bd 893b e43d dab4 53be
00000060: 7ab7 11be 7795 3ebe 8547 55be 2df0 3dbe
00000070: b7c9 823d 9f7f 3e3e 0763 bc3d d13b 1cbe
00000080: 6391 023e 49a4 8c3d 9706 1a3e f571 963e
00000090: 5c4e 7a3e d6ec 673e c6a4 873e ffbe 83be
000000a0: 7a1a 453e 9691 19bd 0601 26bd 3f5c 7ebe
000000b0: 94ed fb3d 27e0 1d3e b3d8 903e 72d7 49be
000000c0: 68b7 0b3d f772 49be 1fa0 72bd f9fd eb3d
000000d0: 15c9 993e 9e6a 9b3e 7cde 7bbe 09dd 603e
000000e0: 2772 733e a853 943e 84e5 2abe 7351 cdbd
000000f0: 740a bc3e 1ef8 d3be ddc1 003d 9fa6 babe
00000100: 1c6c 173e dc61 5e3e 5351 113e 084e 0a3d
00000110: dd7b b8be 7e52 0c3e 4f14 893e 0fc1 c13e
00000120: e717 9b3d 430c f5bd c27a 543b ce4f 76be
00000130: 5cb3 f6bc 8a43 043e a919 66be 0b36 bfbd
00000140: d9d9 d2bd 8ed1 3f3d 94bd ae3d 17e1 133e
00000150: 9669 6a3e a6d1 073e 56a0 883b 69c7 6b3e
00000160: d375 80bc bc6d 403d 4ad6 56be f6a5 73be
00000170: 7db0 98bd 2afe 64bd 7ce3 113e 16d4 2d3e
00000180: a7c7 3dbe 4851 ab3d 1b22 8fbd c95e 373e
00000190: 1421 9fbd 6bc4 23be 53ee 36be 3520 5cbe
000001a0: 0c02 043e c5b7 393d 41c6 0cbe 3737 373d
000001b0: de17 4fbd 5c3d 173e effe ad3d ee0c b9bc
000001c0: 8720 2b3e 5237 15be 7f64 013d 6c10 38be
000001d0: 5e00 d33e f643 3d3e ac78 933c 8d64 363e
000001e0: 1c9b 983e 4184 703e 20a9 47be 7271 413e
000001f0: b708 8a3e 1264 b9be 2764 78be f962 b63b
00000200: ce14 d63e 9d15 c5bd adfb 793e 6a4f 7dbe
00000210: 5fa0 9abe 496e 963d a6d6 71be e80d abbd
00000220: 365d 903e cd90 2dbd 6fdf 753e 635a a9bd
00000230: d906 6cbd 61d3 183b 7e4c 843e 5950 8e3e
00000240: 3916 0b3e f579 af3e fe8d 0b3d 87a3 c1bd
00000250: ed09 2c3e 9f60 553d a586 a4bc 3d5c 9b3e
00000260: 2ac5 1fbe d82e b93e 57ad 98bd 7ae8 163b
00000270: f666 39bd 9562 b63e 82d2 eb3d a7fb 513e
00000280: be6e 803e d3fc 7d3d d132 3e3e b186 023e
00000290: d339 6a3e 5fc6 4a3e e79c 923d 9df2 11be
000002a0: e984 dabd e6b3 8cbe ee6f d53e a408 2c3e
000002b0: a833 763e f3e8 06be e865 b4bc 57d9 babd
000002c0: 75d5 e63e 08be 463e 2489 10be f1f0 0d3d
000002d0: 9402 043e c55e 0f3e c082 51bc 9215 9fbd
000002e0: 462d 20be 50fa 59be ecfe 67be 201b 903e
000002f0: d61d b43e 5967 52be a2ee 2d3d 31d6 a13e
00000300: 3eab 9f3e 55f2 c73d 402d 203e d29d 62be
00000310: f503 66be a147 b73d c051 c0bc 49a9 02be
00000320: 280f 203e 9182 663e 98da 8dbd c757 97bd
00000330: 11b4 7b3e b14e 51bd 6dbf c93d 388f 2dbd
00000340: 48a6 41bd b38b 6c3e 5734 a93d 9fed c53e
00000350: e468 3e3e fd2a 423e eabe 233d 34dc 8dbc
00000360: 1f62 2c3d a953 e83d edbe a83e 7170 66be
00000370: f7a6 a13e a9a3 79be ec31 79bd 4748 a9bc
00000380: 1f9f 083e
0.15078864 -0.23188551 -0.0028352726 -0.30475768 -0.18168369 0.35989264 -0.23761666 -0.057171352
-0.3226982 -0.08379963 0.2014989 0.023183756 0.11206848 -0.16297272 0.09243312 0.21669242
0.2393524 0.06760568 0.0759958 0.12464627 -0.20238411 -0.04868814 0.11144168 -0.20674458
-0.14230147 -0.18611704 -0.20828064 -0.18548651 0.0638613 0.18603371 0.091985755 -0.15257193
0.12750773 0.068672724 0.15041576 0.29383817 0.24443954 0.2264894 0.264929 -0.25731656
0.19248381 -0.037492357 -0.04052832 -0.24839877 0.12301174 0.15417539 0.28290328 -0.19711092
0.034110457 -0.19672762 -0.059234735 0.11523051 0.30036226 0.3035478 -0.2459659 0.21959318
0.23774014 0.28970075 -0.16689116 -0.10025301 0.36726725 -0.41400236 0.031434882 -0.36455247
0.14787334 0.21717018 0.14191179 0.033765823 -0.36032 0.13703343 0.26773307 0.37842605
0.075729184 -0.11965229 0.0032421802 -0.2405388 -0.030114822 0.12916389 -0.22470726 -0.0933648
-0.102954574 0.046830706 0.08532253 0.14441334 0.2289184 0.13263568 0.004169504 0.23025288
-0.015681183 0.04697965 -0.20980182 -0.23793778 -0.074555375 -0.055906452 0.14246935 0.16975436
-0.18533193 0.083651125 -0.06988927 0.17907251 -0.07769981 -0.15992896 -0.17864351 -0.21496661
0.12891406 0.045341272 -0.13747503 0.04473039 -0.05055987 0.147695 0.0849589 -0.022589173
0.16711627 -0.14571884 0.03158998 -0.17975014 0.41211218 0.18482956 0.018001877 0.17811795
0.2980584 0.23487951 -0.1949811 0.18890932 0.26959774 -0.3620916 -0.24256955 0.0055659977
0.41812748 -0.09623263 0.24412413 -0.24737325 -0.30200478 0.07345254 -0.23617038 -0.08352262
0.28196114 -0.04237442 0.24011014 -0.08269193 -0.057623718 0.002331935 0.2583961 0.27795675
0.13582696 0.34272733 0.03407096 -0.094550185 0.16800661 0.0520941 -0.020083735 0.3034381
-0.15602556 0.3616855 -0.07454937 0.002302675 -0.045264207 0.35622087 0.115147606 0.20506154
0.2508449 0.06200869 0.18574072 0.12746693 0.2287362 0.19802235 0.07158833 -0.14252706
-0.10669882 -0.27481002 0.41686958 0.16800171 0.24043143 -0.131748 -0.022021249 -0.091234855
0.4508473 0.19408429 -0.14114815 0.034653608 0.12891608 0.14000995 -0.012787521 -0.07767786
-0.1564227 -0.21286893 -0.22655839 0.28145695 0.35179013 -0.20547237 0.042463906 0.31608728
0.31185335 0.09763018 0.15642262 -0.22130516 -0.22462447 0.08949209 -0.023476481 -0.1275989
0.15630782 0.22510745 -0.06926459 -0.07389789 0.24580409 -0.051100437 0.09850965 -0.042372912
-0.04727772 0.23100166 0.08261936 0.38657853 0.185947 0.18961711 0.03997699 -0.017316915
0.042085763 0.11344082 0.32958165 -0.2250383 0.31572697 -0.24378838 -0.060838625 -0.020664347
0.1334195

encoder_layer_list.1.bias f4 [15]
00000000: 22df ad3e dc68 1bbe df52 7e3d 7cc8 133e
00000010: a2c5 143e 873c 3cbe 563b 063e 49ec e63d
00000020: 4926 293e 5791 1d3e 5428 743e 0780 d23d
00000030: c836 b43e 12f6 76be 9ef0 2abe
0.339593 -0.1517672 0.06209075 0.14431947 0.14528516 -0.18382464 0.13108572 0.112755366
0.16518511 0.15387474 0.23843509 0.102783255 0.35198045 -0.24117306 -0.1669335

encoder_layer_list.2.weight f4 [15, 15]
00000000: 65f1 1bbe a153 533e e227 193e fa7e 693d
00000010: bb8b aebd 8470 90bd 0948 6e3d 54fe 0ebe
00000020: 18d1 b43d bfa9 b13e 8334 043d 2bfc d63d
00000030: 93bb c9bd 9ac2 25be 32a9 a03d c780 aebe
00000040: fbce d03c a2c0 133e 605b 8d3e f88b a4be
00000050: 2f42 173d 353c 233d 0e6f 94be e37c 2a3c
00000060: 3198 ba3e 9220 d23e a35f 0fbe 8ae2 213e
00000070: 76e9 12be 6eb1 cf3e 7f4c 5ebc 3471 ccbd
00000080: ef69 373e 2c0f 5fbd 6d0a 593e b1c0 7f3e
00000090: e1df 3f3e 066e 8e3c d20e 19be b4e3 30be
000000a0: 897f 0c3e 75a4 933e dffa db3d 8aaa 25be
000000b0: 2726 d4be e635 bf3c 9c6a 363e e990 0f3d
000000c0: 5cc4 c83d 3e41 873e 0958 13be a046 ddbd
000000d0: b232 bd3c fa64 9cbe 6960 b63d bc1c d73d
000000e0: f0ba 8d3e 234c 8d3d 9386 c53d 7839 2bbe
000000f0: 0998 823e 1044 a43d a469 843e 1422 6fbc
00000100: c1b0 4f3c ccfc 7b3c c196 b4bd f54b ae3e
00000110: 6f3b 82be 6ff1 d63d 10c9 bf3e d841 4f3e
00000120: bcf7 143e 1502 dbbb bd86 debd 9c23 ca3d
00000130: 8425 82bd 003b 16be 085e 44be ca8c 573e
00000140: 3aeb 8cbc 4aff 003e b7dd e7bd b0e3 7dbe
00000150: 4ac4 6b3e 8021 4abe d03a a33d 0036 fbbd
00000160: f171 20be a725 363d bff6 543e 8d16 4d3e
00000170: 5818 8fbd d6a6 2c3e 8079 813c d6b0 6fbc
00000180: f506 053e d32f e63d 3bb4 a9be 022a 043e
00000190: 0abb 583d e7ee 663e 7365 ad39 77e1 7cbe
000001a0: 2fa6 28be 3796 b5be 67a9 21be 3747 af3e
000001b0: 4a72 b93e d697 0ebe bcda 753d 70ff b6bd
000001c0: f553 8cbe 653b ce3d db8d 9d3e f920 993d
000001d0: cca8 45be d0f1 653e 7dbd fe3c 7272 8e3d
000001e0: 83a6 a5bd 3465 b6bd fa51 923d 7886 913e
000001f0: 222e b93e ea04 d93c 4dcf 12bc 14b1 2d3e
00000200: 4383 4e3e 8542 223e ce09 173e 579a ce3b
00000210: 1d64 cbbd e185 ef3d 25e5 a63e c13f 75be
00000220: a836 68be 5586 d93d cbc6 90be 9f58 0abe
00000230: 58ca 0a3e 7f1e 75be 2b4a 6abe 8ce1 bb3b
00000240: d2bd b53d 6426 933d 888c 90bc bbab 2e3e
00000250: e686 513e ee35 4b3d 0599 2abd d84f 0f3e
00000260: 966e 483e c1be 79be 1574 11be 8876 1ebc
00000270: 6836 1abe 190e 6f3e 9b65 66be 8d7a 433c
00000280: e2d8 8c3b f803 abbd 79e8 023e d162 063e
00000290: c6e9 47bd 2a92 c63e 5904 1d3e c8a7 a23e
000002a0: c18b 61bd e9ff b53e c656 3f3e 259e 8d3d
000002b0: 0406 883e 1c6a aebe dcec 11be 828d 213d
000002c0: 54c8 d93e 3adb 283e f213 67bc 1a9e b5be
000002d0: 32fc 1e3e fac0 f0bd bcaf 343e 898d b63e
000002e0: df45 883d 8506 cc3d dcc7 3bbe 34da 18be
000002f0: a87c c93d ba3d f73d 7d23 9c3d 8d89 423e
00000300: 59dd b83e 6e68 823e f752 653e 5626 1ebe
00000310: 8cdd 263e 1025 8dbd e124 cd3b 6253 5d3e
00000320: 3d24 2d3e eb38 f3bc e8da dc3c 7ce8 333e
00000330: cdf4 2ebe a166 193d 3560 13be 27a3 a6bd
00000340: 607c 4b3e 5e3b 4bbe aa90 8cbd 920d ad3d
00000350: 3849 f13c cc6d 143e c5ed c2be fc3d 893d
00000360: ca9a d03a deb1 8cbe 70ed 5d3e 793d 483e
00000370: fcfa 753e 4877 5fbe 2dbb c93e d0fd 153e
00000380: 13dc a73e
-0.15228803 0.2063737 0.1495662 0.05700586 -0.08522745 -0.07052711 0.058174167 -0.13964206
0.08828944 0.34699818 0.03227664 0.10497316 -0.0985023 -0.16187516 0.078447714 -0.34082624
0.025489321 0.14428952 0.27608776 -0.32138038 0.036928352 0.03985234 -0.28990978 0.010405752
0.36444238 0.41040474 -0.14001326 0.15809074 -0.14346871 0.40565056 -0.013568043 -0.09982529
0.17911504 -0.05445783 0.21195383 0.2497585 0.18737747 0.017386448 -0.1494706 -0.17274362
0.13720526 0.28836408 0.10741209 -0.16178337 -0.41435358 0.02334113 0.17814106 0.035050306
0.098030776 0.26416963 -0.14389051 -0.10804486 0.023095462 -0.3054579 0.089051075 0.105035275
0.27681684 0.068992876 0.096448086 -0.16721141 0.2550662 0.080207944 0.25861847 -0.014595527
0.012676419 0.015380096 -0.088178165 0.34042326 -0.2543597 0.104952686 0.37458086 0.20239961
0.14547628 -0.006683598 -0.10865543 0.09870073 -0.06354812 -0.14670944 -0.19176495 0.210498
-0.017202009 0.12597385 -0.113215856 -0.24793887 0.23024097 -0.19739342 0.07970202 -0.12266159
-0.15668465 0.0444695 0.20797251 0.20028134 -0.06987065 0.16860518 0.015805006 -0.014629563
0.12990935 0.112395905 -0.33145317 0.1290665 0.05291275 0.22552072 0.00033072717 -0.24695383
-0.16469644 -0.35466167 -0.15787278 0.3423402 0.36220008 -0.13925108 0.060023054 -0.089354396
-0.27407804 0.10069922 0.3077229 0.07476992 -0.19302672 0.22455525 0.031096214 0.069554225
-0.080884 -0.08906022 0.07144542 0.28422904 0.3616801 0.026491601 -0.008960557 0.16962081
0.2016726 0.15845688 0.14749834 0.00630502 -0.099312045 0.11695457 0.32596698 -0.23950101
-0.226771 0.10621325 -0.28276667 -0.13510369 0.1355375 -0.23937415 -0.22879855 0.0057336744
0.08874096 0.07185057 -0.017645136 0.17057697 0.20461616 0.04961198 -0.041649837 0.13995302
0.19573435 -0.24389173 -0.14204438 -0.009671815 -0.15059817 0.23345222 -0.22499697 0.011931074
0.0042983154 -0.08350366 0.12783994 0.13123633 -0.048806928 0.3878339 0.1533369 0.31768632
-0.05506492 0.35546806 0.18685445 0.06914929 0.2656709 -0.3406533 -0.14250511 0.039441593
0.4253565 0.16489878 -0.014103876 -0.35472184 0.15525892 -0.11755557 0.17645162 0.35654858
0.06653952 0.09962181 -0.18337959 -0.14926988 0.098382294 0.1207232 0.07623956 0.18997784
0.36106375 0.254703 0.2239493 -0.15444311 0.16295451 -0.06891835 0.0062605 0.2161384
0.16908355 -0.029690227 0.026959851 0.17569155 -0.17085572 0.03745139 -0.14392169 -0.081365876
0.19871664 -0.19846866 -0.0686353 0.08449854 0.029453859 0.14495009 -0.3807203 0.06701276
0.0015915271 -0.27479452 0.21672606 0.195547 0.24021524 -0.21822846 0.39400616 0.14647603
0.3278509

encoder_layer_list.2.bias f4 [15]
00000000: 8662 60bd c561 ea3d 6938 9e3e c15f 80bd
00000010: acbf 33bd f830 84be 006e 35bd ecb0 9cbd
00000020: 8165 fdbd 6282 45be 20a0 bbbc b2af c63e
00000030: 969d d23d b4cc 5fbe 7989 9c3e
-0.05478146 0.11444429 0.30902413 -0.062682636 -0.043883964 -0.2581861 -0.044294357 -0.07650933
-0.12372876 -0.19288018 -0.022903502 0.3880592 0.102839634 -0.21855432 0.30573633

decoder_layer_list.0.weight f4 [15, 15]
00000000: 444d debd b042 50be cd24 2fbd 22d9 45be
00000010: b73e 933c 59c2 363d 8db2 27bd 2c73 53bd
00000020: 2b1f e5bc c8d0 4dbe 94f2 e73c 449a 543e
00000030: 3863 f4bc 37b1 013d 1b68 4ebe a57d 37be
00000040: 9878 96be e711 ba3d cffa 9d3d 6d8d b53d
00000050: 2dbe 1d3c 6c14 c83e 1c8c babe 1d3a 833e
00000060: 51f3 0abd db0e f33d bc6f 823e db52 bc3e
00000070: 6a20 e9bc 6f3a ebbc cdfb 153c ca7c a9be
00000080: dc1b 8bbe f724 a0be 142e 2c3e 2cb7 063e
00000090: e6d9 e03b 1cab dfbc f34d 453e 8b30 bdbd
000000a0: 9c1b 53bd de0a 2c3e 207b 6a3d 3e5e 37be
000000b0: 9623 2f3d 9d25 19be bd8e a23e 6db8 7dbe
000000c0: 6dcc 493b db2a c73d 179d 25be 1edc 83be
000000d0: bd4c 633e 854b 943e dab4 9ebd 843e 673e
000000e0: 3069 bcbe 9d7d d43e ab9e 25be 5107 623e
000000f0: eeae c6bd a46f 163c 3d00 273e efc9 123e
00000100: 245d b03d 060e fe3d d1a3 bebd c040 463e
00000110: 331a 083e 9b9a 303e 7941 2ebe 4d6c 023d
00000120: 4847 353e 09d0 833e 3b0c db3a 1be0 bebd
00000130: 2920 4ebc 0350 273d 840a d83e 9253 a53e
00000140: 3824 273e 64e4 c83e 052a a5be 2f7e 833e
00000150: 0e47 55bd eb8e b7bd e1f1 c43e 97fd 9e3e
00000160: 7ae8 1cbe 1f0d b1be 8924 043e 4940 76be
00000170: 6850 acbd b440 3c3e 5bb4 843e db1b 28be
00000180: 0771 06be d40e 80bd e1a0 053e f6a5 93bd
00000190: bfb5 4b3e 8087 203b 3ffa e8bd 9756 7b3e
000001a0: 4ff8 64be 7954 5abd b9d2 7abe 9128 d73d
000001b0: 16a1 bd3d 9d7e 803e d06c a13d 615b 4cbe
000001c0: 1714 833e 9039 52be 5b15 a7bc 3476 f93c
000001d0: df1d febd 365f e7bd a44d 2c3e ee4c 7ebe
000001e0: 85dd d83d 69ea f2bd c493 3dbe 04ce 23bd
000001f0: 9bf9 ecbd 8dfa a2bd f6a2 c53d 9166 9dbd
00000200: b675 51bb 297c 31bc dd5f 2b3c 918b 37be
00000210: d239 9ebd 10db d7bd edc5 7abe 7262 993e
00000220: dde0 b93e 42c2 83be 4e6f 733d 9909 3bbd
00000230: 9746 573e fe27 a6be 2a7b 1f3d dafc c23d
00000240: 8e6b f9bd 4d9b 1e3e 566a 30be c74f 913e
00000250: 5451 243e 1561 743e ad1d 083e 0aa3 4d3e
00000260: 874d afbd ddc1 7bbe d916 383e 7d7a 363e
00000270: 517d adbe b9ba d23c 8819 b03e 6f4f 993c
00000280: 0c55 0a3e b08c 32be 8965 2c3e 335d b2bd
00000290: afd2 a83e 0691 4cbe 0b67 1b3e 3e68 d03c
000002a0: 152d 0a3e 5a4f 783e 2919 efbd 3824 c8bd
000002b0: 10b1 c5bd e995 b93e e063 953d 758c 47be
000002c0: 982b ad3e 6195 52bd 67c7 07be 3e8f 5cbe
000002d0: 83d0 94be 4b43 7fbe 358f a43e 0a43 5b3d
000002e0: 8cd2 823e 7350 6c3e defd bb3c 6c1d 5cbe
000002f0: 6be9 8e3e 8129 4d3e 9393 dfbd a2f4 c43e
00000300: 4218 f23d 1d62 a9bc bd08 96bd 810c 89bb
00000310: 72a1 fbbd adb1 fc3d 05ff f2bd b12b abbd
00000320: f87c 7c3e e3cf 203d 31e5 4dbd 35ab 1f3e
00000330: 5298 6ebe e588 c4bc 5a13 913d 3086 d73d
00000340: 0973 05bd 6bcb 5ebe 7578 f83c 6f3c cc3d
00000350: ef1c 9abd 82e6 7ebd abb2 71be 9d0a 6b3e
00000360: f9d8 0fbd 8038 05be af0d 76be c94a fbbd
00000370: f946 e33d 6256 fa3d 7d07 6fbd da74 9ebb
00000380: 7903 a63d
-0.10854581 -0.2033794 -0.042759705 -0.19321111 0.01797424 0.044618938 -0.040941764 -0.05162351
-0.027968964 -0.20099175 0.028313912 0.20761973 -0.029832467 0.031663146 -0.201569 -0.17919023
-0.2938888 0.09085446 0.077138536 0.088648655 0.009627861 0.3907808 -0.3643502 0.25630274
-0.03392345 0.11868068 0.25475872 0.36781964 -0.028457839 -0.028714387 0.009154272 -0.3310302
-0.27169693 -0.31278202 0.16814452 0.13155812 0.006861913 -0.027303271 0.19268017 -0.092377745
-0.051540002 0.1680102 0.057246327 -0.17907044 0.042758547 -0.14955755 0.31749526 -0.24777384
0.0030792013 0.09724971 -0.16173206 -0.25753874 0.22197242 0.28963867 -0.077493384 0.22582442
-0.36799002 0.41502085 -0.16173808 0.22073103 -0.09701334 0.009181891 0.16308685 0.14334844
0.08611515 0.124050185 -0.09308589 0.19360638 0.13291244 0.17246477 -0.17017163 0.031841565
0.17702973 0.25744656 0.0016712019 -0.093200885 -0.01258091 0.04084779 0.42195523 0.32290322
0.1632241 0.39236748 -0.3225862 0.25682208 -0.052069716 -0.08962806 0.3846579 0.3105285
-0.15323058 -0.34580323 0.12904562 -0.2404796 -0.08413774 0.18384057 0.2591885 -0.16416876
-0.13129054 -0.06252828 0.13049652 -0.07209389 0.1989355 0.0024494827 -0.11375856 0.2454475
-0.22360347 -0.053303216 -0.24494447 0.10505784 0.0925924 0.25096598 0.078820825 -0.19956733
0.25601265 -0.20529771 -0.020395925 0.030451871 -0.12408041 -0.11297457 0.16826493 -0.24834034
0.105891265 -0.118611164 -0.185134 -0.039991394 -0.11571046 -0.07957945 0.09650223 -0.076855786
-0.003196103 -0.010832825 0.010459867 -0.17924334 -0.07725872 -0.1053983 -0.24489565 0.2995792
0.3630437 -0.25734144 0.05943232 -0.04566345 0.21023022 -0.32452387 0.038935818 0.09520884
-0.121787176 0.1548893 -0.17228064 0.28381178 0.16046649 0.23865159 0.1329257 0.20081726
-0.08559709 -0.24585672 0.17977466 0.17820163 -0.3388467 0.025723802 0.3439448 0.018714635
0.13509005 -0.1743648 0.16835608 -0.087091826 0.3297324 -0.19977197 0.15176027 0.025440332
0.1349376 0.2424902 -0.11674721 -0.09772533 -0.096529126 0.36247185 0.0729444 -0.19487174
0.33822322 -0.05141199 -0.1325966 -0.21539018 -0.29065332 -0.24928014 0.32140508 0.05353073
0.2555126 0.23077564 0.022948202 -0.21495599 0.2791246 0.20035364 -0.109168194 0.3846789
0.11821033 -0.020676667 -0.073258854 -0.004182399 -0.122866526 0.123385765 -0.11865047 -0.08357943
0.24657047 0.039260756 -0.050267402 0.15592654 -0.23300293 -0.023991058 0.07083769 0.10523641
-0.03258041 -0.21757285 0.030330876 0.09972464 -0.0752505 -0.062231548 -0.23603313 0.22953267
-0.03511903 -0.13009834 -0.24028657 -0.122701235 0.11097521 0.122235075 -0.05835675 -0.004835707
0.08106131

decoder_layer_list.0.bias f4 [15]
00000000: fe38 5ebe a635 283e 1964 8cbe d788 c23d
00000010: 63bb 4ebe 18b4 a63e e7a7 a0be f117 31be
00000020: 97fb e1bc 2f55 683e 89f2 3b3d e8f2 ddbd
00000030: 1dc7 b13e 0fe5 abbe 3d78 00be
-0.21701428 0.16426715 -0.27420118 0.094987564 -0.2018867 0.32559276 -0.313781 -0.17294289
-0.027585788 0.22688745 0.045885596 -0.10837346 0.34722224 -0.33573195 -0.12545867

decoder_layer_list.1.weight f4 [15, 15]
00000000: 20a8 1f3e 121d 18be 4206 383e 2cd3 08be
00000010: 8e6d 0a3e 5462 413e 6189 f6bd b47a 0dbe
00000020: 418d 09be 8e87 10be 2cac 3b3e d814 3dbe
00000030: 8705 46be 6ef6 dabd 52b1 673d 223d 11be
00000040: 047f 1bbe d90d f3bd 01ff 903e ddc3 49bd
00000050: 4067 a3be 67e8 1abe a854 6abe 28dd 05bd
00000060: 66b3 883e 2dbe 003c 028b aabe b570 c3be
00000070: 089c 9dbc 6894 48be 2d54 39bd a8ff 8cbe
00000080: 32aa 1cbe 45eb ce3e 231e fbbd 4dc4 b13d
00000090: 09bb aabd d4c3 723d beaf 51be 162c 2b3e
000000a0: 7970 6f3e 1c7c 56be 906a 06be 76d2 6e3d
000000b0: 3ef8 963a 51c0 d9bd 8f92 f6bd 2c46 b23d
000000c0: a2ae a43d 1bee 7bbe c2ac 8cbd 6c3c 71be
000000d0: 1b7a 6d3e 5d8a 1cbe a4fa 52be e7c2 0d3e
000000e0: ca81 2ebe ebfc 0f3e 3914 ebbd b415 8e3d
000000f0: 7602 9cbc e88b 48be d4bb 213e f273 2abe
00000100: dc2a cf3d d191 01be 6690 1cbe 1c33 11be
00000110: 174b fe3d bab1 7dbe f4a6 4dbd 9c18 813e
00000120: a7ae 05be 11a7 2c3e a2ac 013b 8834 d43c
00000130: 5305 59be 5fd8 b5bd 78fc 573e 19f9 f73d
00000140: b22d 52bd cbd4 fb3d aa6b 79be a98a 0ebe
00000150: 0df3 0ebe 49e2 8a3e 0b8b 98bd 9457 e8bd
00000160: b331 82be 17ec 6c3e d36d d63d 2ca9 16be
00000170: cea0 163c 0b19 b73e 2875 023e d484 783c
00000180: b546 edbc e043 313c 840c bfbd f1e6 b73e
00000190: 8263 a13d 8a26 05bc 2bc5 0ebe f66d 933d
000001a0: dc40 75be bb69 2b3e 896a 33bd c17b 613e
000001b0: 2b71 00be 40e8 613d c530 b83d a2f4 e93d
000001c0: 5530 07bd 0e87 81be e761 063b de87 f8bd
000001d0: a005 e83d 5aca 2dbe d380 14be a970 00be
000001e0: 5ff4 233e 5e12 2a3c f4b0 44bd b7c1 46be
000001f0: 9a1d 69be 7b4b b13e 4a36 4bbd e9ce 2a3e
00000200: 0b38 c03d b1a3 7ebe d8e3 763d ff06 8b3e
00000210: 7199 a53e e31e 40bd ff82 563d ba2d bbbd
00000220: 3891 8fbe b2af 273b 1401 143e 1663 ffbd
00000230: 9cc2 35be 91e6 81be 87f9 4c3e 33e2 9e3c
00000240: 4a29 943e d7f2 4b3d 22d9 303e 6ce7 6ebe
00000250: 2ed1 003e e6bf 12be d470 b73d cd6e 9bbd
00000260: 3e23 cf3e 315c ea3d 68df 843e eb3a a63d
00000270: 6588 c13e 141e 383d 620a 103e 6bcf a53e
00000280: 1414 973e 8087 d23c 535d debd fd04 65bc
00000290: c8a7 50be c049 f73d f08a 8f3e 98bb a03c
000002a0: 3174 e4bd 9c77 8e3d d277 643e 1ad4 d0be
000002b0: 9333 0abd 504d 3e3e 46c8 a2bd 3dbd a5be
000002c0: a29a 41bc d2fb 6b3e 7d99 a2be aa72 883d
000002d0: 56ed b53c 221e e0bd 3550 583e cf8d 4cbe
000002e0: 4628 bfbd 099b 933d 315d 6a3e 2dca 21be
000002f0: 407f 253e daf4 2b3e 866d 12be 2dbb 5bbd
00000300: a33b 72be afc3 813e 349c 983c 5139 4dbe
00000310: 0101 00be 43d6 dcbc 5f98 31bd d36e 25be
00000320: c01b 11bd d4c8 5dbe 9d69 31be 587b b63c
00000330: 22e2 0ebe 3c2c 5fbe 0dfc 63bd cb27 7d3d
00000340: ce3d 2bbe 05a6 3a3e 2981 5dbe bcb3 68bd
00000350: 6ecb 52bd 6f52 98bd 6835 723e 6739 693e
00000360: 334e 913d 75c6 63be cce7 483c 732f 11be
00000370: 8f0c 59be b8eb ab3e 629d 483c d09e 473d
00000380: 286b 4b3e
0.15591478 -0.1485484 0.17971137 -0.13361806 0.13518354 0.18885165 -0.12037922 -0.13816339
-0.1343279 -0.1411421 0.18327397 -0.18464983 -0.19338046 -0.10691534 0.05656559 -0.14183477
-0.15185171 -0.118678756 0.28319553 -0.049259055 -0.3191471 -0.15127717 -0.22883856 -0.032681614
0.2669937 0.007857841 -0.3330918 -0.38171926 -0.01923944 -0.19587862 -0.045246292 -0.275388
-0.152993 0.4041387 -0.122616075 0.086800195 -0.083364554 0.059268788 -0.20477197 0.16716036
0.23382749 -0.20945781 -0.13126588 0.05830618 0.0011518074 -0.106323846 -0.120396726 0.087047905
0.08041121 -0.24602549 -0.068688884 -0.23558205 0.23191111 -0.15287156 -0.20603424 0.1384388
-0.17041698 0.14061324 -0.114784665 0.06937733 -0.019044142 -0.1958462 0.15794307 -0.16645792
0.10115597 -0.12653281 -0.15289459 -0.14179653 0.12416666 -0.24774829 -0.050208047 0.25214088
-0.13054906 0.16860606 0.0019786735 0.025903955 -0.21193437 -0.0887916 0.21092403 0.121080585
-0.05131311 0.122964464 -0.24357477 -0.13920082 -0.13959904 0.27125767 -0.07448395 -0.11344829
-0.25428542 0.23136936 0.10470166 -0.14712971 0.009193612 0.35761294 0.12740004 0.015168387
-0.02896438 0.010819405 -0.09328559 0.35918382 0.07880308 -0.008126864 -0.13942401 0.07198708
-0.23950523 0.16739552 -0.04380277 0.22019865 -0.1254317 0.05515313 0.08993677 0.11423613
-0.033005077 -0.2529835 0.0020505132 -0.121352896 0.11329198 -0.16971722 -0.14502268 -0.12542976
0.16011189 0.010380356 -0.04802032 -0.19409834 -0.22765198 0.346279 -0.04961232 0.16680492
0.09385689 -0.24867131 0.060275882 0.27153775 0.3234363 -0.046904456 0.05237102 -0.09139581
-0.2804048 0.00255869 0.14453536 -0.12470071 -0.17750019 -0.2537122 0.20017062 0.01939497
0.2893775 0.049792137 0.1727033 -0.23330468 0.12579796 -0.14331016 0.08957067 -0.07589493
0.40456575 0.11443365 0.25951695 0.081167065 0.37799373 0.04495056 0.1406646 0.3238481
0.29507506 0.025699377 -0.10857644 -0.01397824 -0.20376503 0.120746136 0.28035688 0.019620702
-0.11154974 0.069564074 0.22311333 -0.4078682 -0.03374059 0.1858418 -0.079483554 -0.3237094
-0.0118166525 0.2304528 -0.31757727 0.066624954 0.022207897 -0.109432474 0.21124347 -0.1997597
-0.093338534 0.07207305 0.22887112 -0.1579978 0.16161823 0.16792622 -0.14299592 -0.0536453
-0.23655562 0.25344607 0.018629171 -0.20041396 -0.12500383 -0.026957637 -0.043358203 -0.16155557
-0.035426855 -0.21658641 -0.17325445 0.022275612 -0.1395345 -0.21794218 -0.055660296 0.061805528
-0.16722795 0.18227394 -0.21631302 -0.056812033 -0.051463537 -0.07437598 0.23653185 0.22775804
0.070949934 -0.22243674 0.012262296 -0.14178257 -0.21196197 0.33578277 0.012244554 0.04873544
0.19865096

decoder_layer_list.1.bias f4 [15]
00000000: 1821 4b3d 6151 adbd 51f1 dc3d 0c51 c1bc
00000010: 6e06 3a3e 7844 813e 88a8 2f3e 7cbf 9ebd
00000020: 7e02 043e 2353 923e 64fe 53bd dc44 903e
00000030: 42f5 33be 903b c8bd 8703 843e
0.049592108 -0.084627874 0.10788215 -0.023598216 0.18166515 0.2524755 0.17154133 -0.077513665
0.12891576 0.28579053 -0.051756278 0.28177536 -0.17574027 -0.09776986 0.2578394

decoder_layer_list.2.weight f4 [15, 15]
00000000: 557a 03be 2f01 a0bd ed7a 1cbd 15c8 95bd
00000010: 0b9a 073e 0512 a6be 6a26 09be 6951 753e
00000020: 81eb c93e 2045 35be dfb3 2bbe 5e4a 3e3e
00000030: 1e93 80be e05a 0abe ea97 a63e d63b 7d3e
00000040: 156c 09be 53ff a8be a08d bdbd 0d7c 50be
00000050: 54ee b2be 56ec e9bd dc7e 503e e243 b33e
00000060: 3de8 a2bd 1e80 3fbe 0687 9f3e e592 583e
00000070: 8943 16be 8724 22bd 212c e1bc e073 6c3d
00000080: f001 0b3e af6d e6bd 4919 01bd 0b3b 2dbc
00000090: 9237 803e a8d5 febc bf67 6fbd ed86 853e
000000a0: 44d6 cc3d 8fe6 bfbe c1f2 92bd 4fa1 2fbe
000000b0: 4926 aebe 6870 813e 4285 41bd 0800 083b
000000c0: 7d0a 253e c2c9 69bd ad03 803e 353d 6a3e
000000d0: 1bc6 693e 3b27 27bc f8b6 c03e 5751 a13e
000000e0: ff90 a9be ddff babd 8de8 5cbe a7b7 8bbe
000000f0: f0b1 513d af77 863e 7f34 b23e e208 513d
00000100: 7983 cc3d d847 173c dd13 a53e 85bf 1c3d
00000110: c157 85be a941 d7bc 9e9b 013e 6c63 2abd
00000120: 1fea 5bbe 0a8d 8a3c f339 61be e677 2cbe
00000130: 92f2 cdbd a127 50be d26c 063e 8d0f 49bd
00000140: 6c57 09be f0aa a53c 82ed 39be a09d ca3a
00000150: e25e 4e3d 01d3 2e3e dce1 57be 55a9 203e
00000160: 3929 c23c 5e87 703e 298a ddbb 977a 2abe
00000170: 4952 cd3d fc87 1c3d eeb5 a33d 9e40 bfbd
00000180: 13c5 22be fb23 eb3c 3f7a d13c f07a 3cbe
00000190: 3608 2d3e 8720 26bd 11d3 be3d e9ef b4bc
000001a0: f93d d3bd 5e63 63be 1118 94be bc6c d63d
000001b0: 04a1 bfbc d41c 5abe 0349 d3bd 5f03 8cbd
000001c0: b87f 8f3d 2b46 fc3d ca4d 0c3e 7a46 853b
000001d0: 0986 24be a886 623e 0ae6 72bb 339f bb3c
000001e0: 9248 d03d 20ec c6bd 62ad 303d 2cb6 8dbd
000001f0: 30a2 d7bc f42d 013e d516 48be 2c2c 5a3d
00000200: 0621 4ebe ce96 9cbd 7af2 64bd c4a2 debb
00000210: 5688 813e f7a5 803e 9b37 b13d a113 043e
00000220: 1639 a7bd a4ac 4dbe 89b4 293e 37a6 f53d
00000230: daf1 143d e0bb dd3c 64e6 55be 7a6c ae3c
00000240: d213 a2be 23e6 163e 48d1 36be a729 543e
00000250: f6b1 0a3b b297 123c d4f9 aebd 42c3 263e
00000260: ecdc 31be 74f0 64be 90a3 44bc 0a0f fc3d
00000270: ed8f 003e 8995 2a3e 1c2a 4abd 01eb 11bd
00000280: a4c1 1ebd 4af3 5f3e 9b24 363e 1bfc 4f3e
00000290: bb9c 2cbe 3401 423d 294b 8dbd 5a6f 3abe
000002a0: efbb 823d 4a81 5dbe d812 38ba 913d 55be
000002b0: c523 403e 12ba 313d 0fd3 653e a3bc 763e
000002c0: 75f1 a4bd 431c 1fbe 655b 4abe 8bcc 1cbd
000002d0: e214 5f3e fa14 74bd ee6e 13bd 7e96 333e
000002e0: 3554 08be a1e3 6ebe 3dd2 1e3e 7616 65be
000002f0: fafd 38bd 2ec7 373e eaae 053c c927 a7bc
00000300: 5506 e83d 97fb 67be 4fa0 783e b6f9 dfbd
00000310: c9b8 03be fbfb 9dbc 8efc c13c 3c9d 513e
00000320: 2336 1f3e 461f 60bd a726 913d f801 5ebd
00000330: 8413 60bd 7827 74bd 9c60 b3bd f3b0 31be
00000340: c661 21be a09c 903d 523f e63d f26e 42be
00000350: af70 6b3e bbd6 703d 1b40 073e 5acb 1dbe
00000360: 983e 1dbe 509f f53d 3ee6 363e 8c82 c3bd
00000370: 69d5 1f3e 2ce0 ccbd 05aa 15be e7ea 803e
00000380: 2245 04be
-0.12839635 -0.07812726 -0.03820317 -0.07313553 0.13242356 -0.32435623 -0.1339356 0.23956837
0.39437488 -0.1770215 -0.16767834 0.18583056 -0.25112242 -0.13511229 0.32537776 0.24729857
-0.13420136 -0.33007297 -0.092555285 -0.20359822 -0.34947455 -0.11422031 0.20360893 0.35012728
-0.07954452 -0.18701217 0.31157702 0.21149786 -0.146742 -0.039585616 -0.027486863 0.057727695
0.13574958 -0.11251389 -0.031518254 -0.010573159 0.25042397 -0.031107739 -0.05844855 0.26079503
0.100018054 -0.3748059 -0.07175208 -0.17151378 -0.34013584 0.25281072 -0.047246225 0.0020751972
0.16117282 -0.057077177 0.25002804 0.22874911 0.22829477 -0.010202224 0.37639594 0.3150737
-0.33118436 -0.09130833 -0.21573086 -0.27288553 0.051195085 0.26263186 0.34805676 0.051033862
0.09986014 0.0092334375 0.32241717 0.038268585 -0.26043513 -0.026276426 0.1265702 -0.041598722
-0.21476029 0.016912956 -0.21994762 -0.16842613 -0.10056032 -0.20327617 0.13127449 -0.049087096
-0.13412255 0.02022311 -0.18157008 0.0015458353 0.050383456 0.17072679 -0.21082252 0.15689595
0.023701297 0.23489138 -0.0067608547 -0.16648327 0.1002546 0.038215622 0.07993685 -0.093384966
-0.1589549 0.02870368 0.025570987 -0.18406272 0.16897663 -0.040558364 0.093176015 -0.022087054
-0.10314555 -0.22205874 -0.2892461 0.10469958 -0.023392208 -0.2130006 -0.1031666 -0.068365805
0.07006782 0.12318071 0.13701549 0.0040672394 -0.16066755 0.2212168 -0.0037063383 0.02290306
0.10170092 -0.09713006 0.0431341 -0.06919512 -0.026322454 0.12615186 -0.1953996 0.05326478
-0.20129785 -0.07645951 -0.055895306 -0.0067943055 0.2529933 0.2512662 0.08653184 0.12898113
-0.08165185 -0.20085388 0.16572775 0.119945936 0.03636346 0.027067125 -0.20888668 0.02129196
-0.31655747 0.14736228 -0.17853272 0.20719014 0.0021163202 0.0089473 -0.08543745 0.16285422
-0.17369431 -0.2235735 -0.012001887 0.12307556 0.12554903 0.16658606 -0.049356565 -0.035624508
-0.03875889 0.21870151 0.17787401 0.20311014 -0.16856663 0.04736443 -0.06899101 -0.1820654
0.06383502 -0.21631351 -0.0007021851 -0.20824267 0.18763645 0.04339034 0.22443794 0.24095397
-0.08053867 -0.15538125 -0.19761427 -0.038281005 0.2178531 -0.059590317 -0.035994463 0.17537877
-0.13313372 -0.23329021 0.15509887 -0.2237185 -0.045164086 0.17947075 0.008159379 -0.020404713
0.11329333 -0.22654568 0.24279903 -0.109363005 -0.12863459 -0.019285193 0.023679998 0.20470136
0.15547995 -0.054717325 0.070874505 -0.054201096 -0.05470611 -0.059607953 -0.08758661 -0.17352657
-0.15759954 0.07061124 0.11242546 -0.18987635 0.22992204 0.058798533 0.13208048 -0.15409604
-0.15355909 0.11993277 0.17861268 -0.09546384 0.15608753 -0.10003695 -0.14615639 0.25179216
-0.12916997

decoder_layer_list.2.bias f4 [15]
00000000: b8a0 01be 2a77 dc3d c314 223d e871 22be
00000010: 2fab 5bbe 8671 54bd d70e 0abd 73e1 8fbe
00000020: 9e74 fbbc 1655 093b cff3 883d 2653 703e
00000030: 3fc6 1dbe c420 523d 129e 0bbc
-0.12658966 0.10764916 0.03957058 -0.15863764 -0.2145202 -0.051866077 -0.03370556 -0.28101692
-0.030695256 0.0020955256 0.06687128 0.23469219 -0.15407656 0.05130078 -0.008521574
