result/FairOD_weights/variance_shift/scatter/seed_127/biasRate_3.pt (torch, 3432 bytes, 4 tensors)

encoder_layer_list.0.weight f4 [10, 15]
000000 1e ad 19 bf 6e 56 b1 be eb 73 ea 3e 75 f1 02 3f
       -0.6002978 -0.34636253 0.45791563 0.51149684
000010 81 a8 37 3e 64 a8 23 3f 54 50 f5 3c d9 af 04 3d
       0.17935373 0.6392882 0.02994553 0.032394264
000020 7c 97 5e bd ee 46 0c be 45 7f 13 3e 95 4d 8c 3f
       -0.054343686 -0.13698933 0.14404018 1.0961176
000030 26 07 1e 3f fd 3f ab be ea 6f 84 be 71 65 87 3e
       0.6172966 -0.33447257 -0.25866634 0.2644458
000040 5e 5c 20 3f b7 0a c1 be 91 7f 0b bf ab 34 9a be
       0.6264094 -0.37703487 -0.54491526 -0.30118307
000050 f2 d2 84 3e f1 4f 8a bd 29 cb 80 3e cd 2c d9 3d
       0.25942189 -0.06753529 0.25155 0.10604248
000060 88 6b c0 3e 4f 57 82 bf ba dc c7 3e aa 71 8f 3f
       0.3758204 -1.0182894 0.39035589 1.1206563
000070 60 47 2c 3f ab ca 21 3f dd 46 90 3d cf c3 76 3c
       0.6729641 0.6319987 0.07044766 0.015061333
000080 49 cf 80 3c 61 48 96 bb 71 e5 45 bd fe e0 21 3d
       0.015723841 -0.004586265 -0.048314516 0.03952121
000090 ce 29 ab 3e b4 f3 0f 3c a3 a9 29 bd a8 7c f3 3e
       0.33430332 0.008786131 -0.041421544 0.47556043
0000a0 47 bb 7f 3e 1d aa 67 3f 36 aa 95 bf dd 8d 8e 3f
       0.24973784 0.9049395 -1.1692569 1.1137043
0000b0 b7 ca 83 3e 03 48 f8 bd 55 99 47 3d e9 de bd 3d
       0.25740597 -0.1212311 0.048730213 0.09271032
0000c0 31 30 40 be 2a 93 14 3e c2 72 08 be 1e 45 46 3e
       -0.18768384 0.14509264 -0.13325027 0.19362304
0000d0 25 32 10 bd 6f ef 49 be 05 5d 81 be 03 3b 5e be
       -0.03520407 -0.19720243 -0.2526628 -0.21702199
0000e0 60 89 62 be d3 cf 61 bd 32 e6 1e 3e 81 70 da 3d
       -0.22122717 -0.055129837 0.155175 0.1066599
0000f0 2d 9e 0b bf 2e 2f 20 bf 2c 2a 79 3e 4d ce c0 3e
       -0.5453823 -0.6257199 0.24332494 0.37657395
000100 80 38 d0 3e 26 88 0b be 4a 93 2b 3e 70 ae 3f 3e
       0.40668106 -0.13626155 0.16755405 0.18718886
000110 0d 02 69 3d 4f 3d 04 3f 5a d6 20 3f 48 73 92 be
       0.05688672 0.5165605 0.62827075 -0.28603578
000120 58 b3 ee 3e a8 c6 b1 be 3a 6d b9 3f 45 93 ac be
       0.46621203 -0.34721875 1.4486458 -0.33706108
000130 09 a9 07 be 82 c3 2c 3f f9 c9 a6 3e 83 72 1e 3f
       -0.13248076 0.6748582 0.32575968 0.6189348
000140 c9 58 66 3e b0 38 ee 3e c3 50 cd 3e 12 8a 86 3e
       0.22494806 0.46527624 0.4010068 0.26277214
000150 53 d6 31 3f e1 13 57 bf cb 31 4f bf 80 be cb bd
       0.6946766 -0.8401471 -0.80935353 -0.09948444
000160 b5 1a f6 3e 28 0c 6b bf 53 a6 1c 3f 25 4b f5 3e
       0.4806725 -0.91815424 0.6119129 0.47908893
000170 b1 aa c9 be 7e 47 7e be 52 c2 fc be 83 36 f2 3e
       -0.3938804 -0.2483196 -0.49367005 0.47307214
000180 0d d9 12 3f 07 72 c6 3e 9c 3b 2a 3d a9 90 ad 3e
       0.57362443 0.3875887 0.041560754 0.3389943
000190 53 1e 5b 3f 3d 89 71 3c 47 2b 0e be 76 03 4f bf
       0.85593146 0.014742193 -0.13883696 -0.80864656
0001a0 02 81 b7 be f2 6b 01 3e f4 af 18 3c 98 1d 10 be
       -0.35840613 0.12638834 0.009319294 -0.14073789
0001b0 b2 75 88 bd 69 d1 30 be a1 fd c3 bd 86 a9 57 be
       -0.066630736 -0.17267384 -0.0956986 -0.21060762
0001c0 a0 c1 65 be e6 00 f5 bc be 1b 7a be d4 62 83 bd
       -0.22437143 -0.029907655 -0.24424645 -0.06415334
0001d0 ac 65 21 be c7 a5 d3 bd 36 dd 6a 3e a9 0e 76 be
       -0.15761441 -0.10334354 0.22935948 -0.2402903
0001e0 19 72 49 3d 5c b8 c5 bd 5f 1b 2f be ca 70 fb 3c
       0.049181078 -0.096543044 -0.17100285 0.03069343
0001f0 78 a2 b0 bd c3 0b 3e be 10 94 7a bd b2 8c 0d bd
       -0.086247385 -0.18559174 -0.06117636 -0.034558006
000200 f5 d9 62 3e b2 e3 08 be 76 78 62 3d f5 15 8d bd
       0.22153457 -0.13368109 0.05529066 -0.068889536
000210 b0 af 53 3c 4e 25 cb bd 55 c5 75 be e0 30 5e be
       0.012920305 -0.09919225 -0.24001057 -0.21698332
000220 cd ef 3a be a8 dd 44 3e 50 3b 90 bd b3 dd 05 be
       -0.18255539 0.1922518 -0.07042563 -0.13072853
000230 58 19 3c 3e 28 e4 5c be 45 42 78 be cc 0a 18 be
       0.18369043 -0.2157141 -0.2424403 -0.14847869
000240 de 34 44 3e b6 8b 0d 3e 60 9c 79 3e d2 6e 93 bd
       0.19160792 0.13822827 0.24376059 -0.07198872
000250 08 09 5a be 05 54 b3 bd
       -0.21292508 -0.0875626

encoder_layer_list.0.bias f4 [10]
000000 ad ee 33 3e c0 c2 82 3e 8f 1a 45 be ee 66 e0 bd
       0.17571516 0.25539207 -0.19248413 -0.10957132
000010 5b 78 9c bd a2 23 0d 3f 67 ef 08 3f 73 9d cb bd
       -0.076401435 0.55132496 0.534903 -0.099421404
000020 56 2b ec 3c 1d 71 25 be
       0.028829258 -0.1615643

decoder_layer_list.0.weight f4 [15, 10]
000000 a7 5b 0d bf d4 b8 cc 3e 7d 79 35 3d c0 fc 25 3d
       -0.55217975 0.39984763 0.044305313 0.040524244
000010 25 ab 9e be 25 f1 c1 be 5d 07 0e 3f 1a 7d 5a 3b
       -0.30989948 -0.3787929 0.55479985 0.0033338726
000020 9f 9e 80 3e c3 be 85 be cb 24 31 bf b6 b1 e3 3e
       0.25121018 -0.26122102 -0.69196767 0.4447152
000030 dc cf 30 bd 37 64 16 3d d9 6a da be 9d 31 2c be
       -0.04316698 0.036716666 -0.42659643 -0.16815801
000040 ff 0f 03 3f 17 54 88 be 49 12 3d 3e af 47 79 be
       0.51196283 -0.26626655 0.18464006 -0.24343751
000050 8b ad 12 3e 1e a5 fa be d1 77 ed 3a e7 d7 8b 3e
       0.14324014 -0.489541 0.0018117373 0.27313158
000060 59 5f 01 3f 45 bf 09 3f f1 88 12 bf dd 61 b3 bd
       0.50536114 0.5380748 -0.57240206 -0.087589
000070 73 67 88 3e e2 f1 54 be 62 27 be 3e 68 68 06 bf
       0.26641425 -0.20795396 0.37139422 -0.5250306
000080 b8 56 18 3d f2 71 6a be 11 5e c3 3e d2 65 0a 3f
       0.037192076 -0.22895029 0.38157704 0.54061615
000090 74 b7 d7 be b1 73 9e be f3 01 92 be 15 d0 2d 3e
       -0.4213215 -0.3094764 -0.28517112 0.16973908
0000a0 b5 02 11 3f 59 ec ed be 6c b7 06 3c 65 a5 ec bd
       0.56644756 -0.4646938 0.008222442 -0.11554984
0000b0 66 ed ea 3e 33 cf c2 3e 19 57 f6 be 9a aa 00 bc
       0.45884246 0.38048705 -0.48113325 -0.007853175
0000c0 30 c3 5a be fc 1e ad 3d 0d 00 c0 3e fc db f1 3c
       -0.2136352 0.084531754 0.3750004 0.029523842
0000d0 77 dd 76 bd 17 4d 80 3e 8f d8 4d be 40 a0 6e 3d
       -0.0602698 0.25058815 -0.20102142 0.058258295
0000e0 e1 66 35 3e 40 98 84 be 3f ca 94 3d b6 43 4e 3e
       0.17715026 -0.25897408 0.07265138 0.20143017
0000f0 75 8c 9e bd 12 b6 e6 bd 59 a5 bd 3d 30 d5 8c 3e
       -0.07741634 -0.11265196 0.09260053 0.275064
000100 ac d1 af 3d 5f ad 3e 3e f4 f2 94 3e 5a 58 25 3c
       0.085849136 0.18620823 0.2909161 0.010091865
000110 81 55 9c 3e 5b 80 54 3e e9 68 cf bc a6 62 8e 3c
       0.30533984 0.20752089 -0.02531858 0.017381024
000120 58 70 25 bb 68 87 9b 3e 40 d1 4e 3d ef da 46 3d
       -0.0025243964 0.30376744 0.050492525 0.048548635
000130 da 16 76 3d dd aa e8 3d eb a6 0a be 0a b7 01 bd
       0.060080387 0.113607146 -0.13540237 -0.0316687
000140 99 5f bf bd c5 44 38 3d 5a 47 01 bd 75 62 dd 3d
       -0.09344406 0.04498746 -0.031562187 0.10809795
000150 bc dc 37 bc a1 74 db 3d 00 dd e8 bc 5e b1 0e 3d
       -0.011222061 0.107156046 -0.028425694 0.03483712
000160 0c dd 5a be b4 01 0e be 25 b5 b3 be 6d dd 0d 3d
       -0.21373385 -0.13867837 -0.3509914 0.034634996
000170 69 0a 34 3e 9d 6f df 3d f4 4a 7e 3e 6e a1 6e 3e
       0.17582096 0.109099604 0.2483328 0.23303768
000180 97 08 a4 3d 70 a8 4f 3e 8d f2 65 3e 40 1d 95 3e
       0.08009451 0.20279098 0.22455807 0.29123878
000190 11 a8 09 3e b3 02 58 bf 48 c7 8c 3e f1 90 2c 3d
       0.13443018 -0.8437912 0.2749579 0.042130414
0001a0 0a 63 ff 3e 15 67 2c bf 3b 32 42 3f a3 d0 e9 bd
       0.49880248 -0.6734479 0.75857896 -0.114167474
0001b0 e3 4f 94 3c 1b e1 c3 bd b0 b4 6f 3f cb 98 a3 3d
       0.0181045 -0.0956442 0.9363508 0.07988127
0001c0 e4 7e 5b 3f fb aa 53 be 3b 41 8d be 8e 96 5f bf
       0.85740495 -0.20670693 -0.2758883 -0.87339103
0001d0 51 be ad be e0 91 1d 3e 0c e5 8a be 3c 04 3a be
       -0.33934262 0.15387678 -0.27127874 -0.18165678
0001e0 13 37 be 3e aa ed 64 3f d3 4f aa bf 25 13 30 3d
       0.37151393 0.89425147 -1.330561 0.042987008
0001f0 63 50 95 3e f3 9c 1d be f2 05 91 be 89 d5 0e 3d
       0.29162893 -0.15391903 -0.28324848 0.03487161
000200 20 52 6f bc fa 48 85 3e 47 72 bc be f1 62 05 3f
       -0.0146069825 0.2603224 -0.36805937 0.521041
000210 a0 42 88 3f ec bf 0c be 97 8f a4 be 38 2f 47 3e
       1.0645332 -0.13745087 -0.321408 0.19451606
000220 bb 7c 83 bf 63 35 98 3d 51 cb 8f be 7c 46 88 3d
       -1.027244 0.07432058 -0.28084806 0.06654069
000230 8d 95 b8 be 5d 82 f0 3e a8 70 92 3e 64 9d 8a 3e
       -0.36051598 0.4697446 0.28601575 0.27073205
000240 bb 26 90 3f 72 8b 7c bf f4 60 20 bf 0b 01 62 be
       1.126182 -0.98650277 -0.6264794 -0.2207071
000250 21 34 39 be 1f 70 59 3e
       -0.18086292 0.21234177

decoder_layer_list.0.bias f4 [15]
000000 27 38 6f 3d f1 b6 52 bd e8 6f 73 bc 6a bf 11 be
       0.05840316 -0.051443998 -0.0148582235 -0.14233175
000010 de ca 86 be b9 26 af be 8a 20 a5 be 2a 7b 0f 3e
       -0.2632665 -0.3420923 -0.32251388 0.14011827
000020 61 d5 a4 bd b9 39 b4 be e5 c2 62 bd 18 94 8f be
       -0.08048511 -0.3520029 -0.055361647 -0.28042674
000030 6d 9d b1 be 4b 37 00 3e 89 ae 89 bc
       -0.3469042 0.12521093 -0.016806858
