result/FairOD_weights/sample_size_bias/scatter/seed_123/biasRate_0.2.pt (torch, 4216 bytes, 4 tensors)

encoder_layer_list.0.weight f4 [15, 15]
-0.15669015 0.0045744693 0.22973096 0.15621415 0.24327302 -0.5070274 0.7445355 0.1660355
0.18220001 -0.38707885 -0.71627015 0.23819461 0.9852897 -0.81085783 1.0931422 0.36415055
0.26569903 -0.11675161 -0.48872384 -0.16576102 0.54088855 0.69398624 0.521705 -0.09686947
-0.47900614 -0.2175712 -0.14387561 0.06658909 0.83240795 -0.5047971 -1.5093615e-32 -6.384082e-25
-5.610883e-17 -4.1577353e-11 2.5712791e-36 3.243719e-31 4.528728e-35 1.09416806e-35 4.910706e-38 1.4092929e-35
-2.857813e-31 3.1880337e-36 2.4577713e-19 1.2396485e-35 6.036226e-34 -0.37497947 -0.22421764 0.4046042
0.110497974 0.39019102 0.29580697 0.50444233 0.10214114 -0.23898806 0.1018022 0.76786894
0.7989971 -0.016059557 0.04364492 -0.05005756 -0.033622943 0.15251783 0.0113818385 -0.06634244
0.17434794 -0.7393236 -0.12043708 0.24104701 -0.14398636 0.11860877 -0.6414717 0.26415676
0.18827605 0.92035484 0.11058466 0.20390278 0.49617672 -0.3593375 -0.24873309 -0.4561493
0.06375382 0.22326227 -0.099301696 0.28579417 -0.09954766 0.41626573 0.17886569 -0.5931424
0.3575275 0.5618815 0.5418053 0.21318386 -0.50112844 -0.36717552 -0.37511072 0.76358974
-0.19250365 0.2044971 0.4363241 0.33656335 -0.36890864 0.72038823 1.0864301 -0.09603765
-0.22630176 0.43607864 0.43501872 0.30243403 0.21208274 0.27852935 -0.3892291 0.43125552
0.48068488 0.4586443 0.310424 -0.41683754 -0.66168314 -0.45760775 -0.77535 -0.94238955
-0.4043551 -0.23575795 0.30277485 0.3374454 0.43077397 -0.379832 0.012747408 0.17793287
0.4018398 -0.28987193 0.7622844 0.4653533 0.69131356 0.20141058 -0.90155935 -0.24409442
-0.4315769 0.45735228 0.3067051 0.36184853 0.5818834 0.02601713 0.3190962 0.2636204
-0.06039385 0.18452407 -0.84709936 -0.050800927 0.26086786 0.8897196 0.24294765 0.3163566
-0.29180866 -0.24365631 -0.21563333 -0.7372971 0.058968075 0.2841158 0.10376679 0.60677695
1.01438 -0.8488728 0.88538843 0.644822 0.41623613 -0.0721917 -0.4466336 0.2601132
0.27348956 0.24956836 0.03269086 0.054893516 0.19707236 0.33820462 0.41603208 -0.5321234
0.5286111 -0.7298901 0.61915624 0.09234988 0.5169119 0.14029263 -0.29813436 -0.36011934
-0.16619655 -0.37796122 -0.034900952 0.7273681 0.27714974 0.05118503 0.70060927 0.8903176
-0.5628349 -0.48310593 0.54945064 0.11666105 0.07259156 0.09658788 -0.17418718 -0.22042051
0.14118521 -0.09163513 0.11694669 -0.24861558 -0.010658989 -0.12426557 -0.023922238 -0.18680763
-0.15492545 -0.06758103 -1.9445554e-27 1.3493018e-35 -5.126718e-33 1.2641038e-35 3.117566e-32 -4.0813136e-34
-1.4489402e-36 1.7445974e-21 -8.076484e-36 -2.160065e-36 3.6493285e-37 -3.550713e-20 -1.2205963e-27 1.4805395e-32
-2.0147498e-34
00000000: 6273 20be 6ee5 953b 983e 6b3e 9af6 1f3e
00000010: 901c 793e 8ccc 01bf e199 3e3f 3605 2a3e
00000020: a492 3a3e 332f c6be 7b5d 37bf 4ae9 733e
00000030: f23b 7c3f 6194 4fbf 15ec 8b3f f171 ba3e
00000040: b409 883e 781b efbd 033a fabe 42bd 29be
00000050: ac77 0a3f 15a9 313f 758e 053f 8063 c6bd
00000060: 4b40 f5be fcca 5ebe 2154 13be dc5f 883d
00000070: b018 553f 623a 01bf b6bd 9c8a e993 4597
00000080: cf60 81a4 f0db 36ae 80bd 5a04 8787 d20c
00000090: dac9 7006 2db4 6805 a0ae 8501 9adc 9505
000000a0: 907b b98c 9d9a 8704 ca14 9120 71d2 8305
000000b0: 8896 4808 4ffd bfbe 4f99 65be 4828 cf3e
000000c0: c34c e23d 1ec7 c73e 0374 973e 2223 013f
000000d0: 602f d13d 49b9 74be ac7d d03d 0f93 443f
000000e0: 138b 4c3f 558f 83bc 04c5 323d 2809 4dbd
000000f0: 36b8 09bd a22d 1c3e e47a 3a3c 8cde 87bd
00000100: 4488 323e 5044 3dbf b7a7 f6bd 07d5 763e
00000110: 2971 13be 28e9 f23d 7d37 24bf 8e3f 873e
00000120: 70cb 403e 609c 6b3f 367a e23d e4cb 503e
00000130: e00a fe3e 16fb b7be e3b3 7ebe 678c e9be
00000140: 5d91 823d dd9e 643e b05e cbbd 9d53 923e
00000150: a5df cbbd c820 d53e 9128 373e 2ed8 17bf
00000160: d80d b73e 77d7 0f3f c1b3 0a3f df4c 5a3e
00000170: f449 00bf 6efe bbbe 830e c0be 9e7a 433f
00000180: ad1f 45be b067 513e df65 df3e 0852 ac3e
00000190: 98e1 bcbe 5d6b 383f 2410 8b3f 63af c4bd
000001a0: a6bb 67be b345 df3e c6ba de3e a2d8 9a3e
000001b0: 382c 593e 669b 8e3e 0949 c7be 86cd dc3e
000001c0: 541c f63e 6dd3 ea3e e5ef 9e3e bb6b d5be
000001d0: 1164 29bf 904b eabe 567d 46bf 7140 71bf
000001e0: a207 cfbe 886a 71be 4e05 9b3e a5c5 ac3e
000001f0: 688e dc3e 5779 c2be 81da 503c 0934 363e
00000200: f2bd cd3e 186a 94be 1225 433f ca42 ee3e
00000210: edf9 303f 933e 4e3e 98cc 66bf e3f3 79be
00000220: a6f7 dcbe 142a ea3e 7308 9d3e 3644 b93e
00000230: 4ff6 143f e021 d53c 9460 a33e 41f9 863e
00000240: 8b5f 77bd e1f3 3c3e 81db 58bf a214 50bd
00000250: 7990 853e aac4 633f 45c7 783e 7ef9 a13e
00000260: f267 95be 0a81 79be fcce 5cbe 81bf 3cbf
00000270: 8288 713d a077 913e af83 d43d bc55 1b3f
00000280: 34d7 813f ba4f 59bf d1a8 623f 0e13 253f
00000290: e71c d53e 3ed9 93bd 29ad e4be 8f2d 853e
000002a0: d306 8c3e d98e 7f3e dae6 053d 06d8 603d
000002b0: 56cd 493e 2829 ad3e 2802 d53e 3d39 08bf
000002c0: 0f53 073f 14da 3abf 0681 1e3f ef21 bd3d
000002d0: 5754 043f dfa8 0f3e 11a5 98be 9061 b8be
000002e0: 6e2f 2abe 2284 c1be 4df4 0ebd cc34 3a3f
000002f0: 92e6 8d3e 65a7 513d 215b 333f dbeb 633f
00000300: f315 10bf a959 f7be cca8 0c3f fdeb ee3d
00000310: e2aa 943d decf c53d 205e 32be eab5 61be
00000320: db92 103e 33ab bbbd bf81 ef3d 1595 7ebe
00000330: 0aa3 2ebc f27e febd 92f8 c3bc 804a 3fbe
00000340: c7a4 1ebe ec67 8abd 4510 1a93 7d7b 8f05
00000350: 9ef4 d489 2e6c 8605 8fdf 210b fa9f 0788
00000360: 3f86 f683 6cd1 031d 90c4 2b85 0dc2 3784
00000370: 455c f802 7cad 279f 4569 c192 7ebf 990a
00000380: 31e7 8587

encoder_layer_list.0.bias f4 [15]
0.18479078 0.30853117 3.578297e-31 0.0079868985 0.2972131 0.4017313 0.31099832 0.7500876
0.2632272 0.17868514 0.05936825 0.20095034 0.21900946 0.0762265 -2.970805e-11
00000000: cb39 3d3e ccf7 9d3e a83e e80c 7bdb 023c
00000010: 512c 983e baaf cd3e 2c3b 9f3e be05 403f
00000020: b7c5 863e 3df9 363e 1f2c 733d edc5 4d3e
00000030: 0444 603e a41c 9c3d 4aa8 02ae

decoder_layer_list.0.weight f4 [15, 15]
-0.25710964 0.30126616 5.5603146e-14 -0.08801601 -0.042715132 0.19766426 0.5191318 0.22633888
-0.6539065 -0.3011336 0.30250126 -0.3906039 0.19994816 -0.0698596 -6.361486e-24 -0.0066358405
0.41292387 2.7641606e-31 -0.42884365 0.042887453 0.45518476 0.1342336 0.12311035 -0.22495432
-0.50937897 0.20238942 -0.37252718 0.395632 -0.05266033 -5.2048136e-12 0.0934308 -0.4512076
1.2703203e-12 0.5061154 0.082945004 -0.4017948 -0.30325958 0.0604745 0.20432805 0.39298415
-0.24891153 0.21074212 -0.372562 0.079358466 5.463269e-18 0.16678391 -0.12303572 2.0701423e-21
0.45585942 -0.16415246 -0.3140598 -0.25191593 -0.08034728 0.42011866 0.40253115 -0.24588676
0.23336293 -0.46253988 0.1669789 -3.4620787e-37 0.1667463 -0.46787152 2.5800933e-36 0.43036652
0.15884286 -0.3916184 -0.44701397 -0.00019252565 0.29262233 0.16304263 -0.15457945 0.2657976
-0.36127755 -0.010397121 -1.6750563e-36 -0.34315947 0.51130515 -7.759436e-36 0.26948336 -1.1294096
0.0017344173 0.68381864 -0.48250556 -0.35350424 0.63405836 -0.5130658 0.034604 -0.43420196
-0.017696433 -3.3112877e-26 0.41903228 0.57300824 -5.4840747e-31 0.3423829 -0.25440496 0.1986904
-0.3392751 0.09119829 -0.13246693 -0.19082941 -0.05367776 -0.10855191 -0.18156973 0.0635404
9.671682e-37 -0.01844235 0.29934117 -3.2477708e-17 -0.019704033 0.07796453 -0.49706593 -0.08770598
0.10801269 -0.057868417 0.14408135 0.07517928 0.027754437 0.4594316 0.033072934 -8.115474e-35
-0.01049859 -0.17953537 7.634201e-26 -0.33751085 -0.22366007 0.12979206 0.18840978 0.123703815
0.1993721 0.12706254 -0.006869123 0.2674059 0.020193193 0.027360478 -3.9323702e-34 -0.2586214
-0.50026953 -4.020645e-39 0.029427722 0.06564297 -0.23461093 0.1443705 0.104288325 -0.22420934
-0.16246769 0.33312854 0.29032448 -0.034091868 -0.13091518 -2.4876278e-25 -0.67484033 -0.26410517
6.3307684e-26 0.5878266 -1.0862943 0.3277843 -0.4929577 -0.58854926 0.73211706 0.048200175
0.716447 -0.6430029 0.5104488 -0.068288274 1.073981e-26 0.15660113 -0.32634458 4.7983757e-34
0.6070703 0.3409054 0.058667265 0.41464573 -0.9213473 0.3533678 -1.0520931 -0.7368791
0.49068788 0.6435367 -0.012032021 -8.868693e-16 0.6364424 -0.12110831 -3.079659e-24 -0.05931146
0.10840883 -0.84781814 0.83483565 -0.69952905 0.45063287 -0.22669782 0.6405014 -0.7402333
-0.6604149 -0.023903573 6.6013633e-37 -0.74542004 0.71674186 6.831927e-32 -0.035482235 1.2593733
0.09930973 -0.26440498 -0.9815225 0.06510227 0.09370682 0.44322544 0.5729833 -0.5080798
-0.008891516 1.1943905e-34 0.8159395 -0.51981795 3.2990033e-30 -0.11965867 0.08508187 0.51357514
-0.26994714 -1.0300528 -0.86021 0.6784125 0.17442225 0.04014698 0.32819062 0.07596263
-5.861422e-26
00000000: e0a3 83be 8f3f 9a3e 106a 7a29 bd41 b4bd
00000010: 10f6 2ebd 8068 4a3e d2e5 043f 61c5 673e
00000020: 6b66 27bf 2f2e 9abe 72e1 9a3e 3cfd c7be
00000030: 36bf 4c3e 8d12 8fbd 1b19 f698 7771 d9bb
00000040: c26a d33e 7f67 b30c 6591 dbbe c1aa 2f3d
00000050: fa0d e93e 8874 093e 4721 fc3d 6d5a 66be
00000060: a966 02bf 2c3f 4f3e e2bb bebe 4790 ca3e
00000070: 5cb2 57bd cb20 b7ac a658 bf3d af04 e7be
00000080: 1dc8 b22b c790 013f 12df a93d 0cb8 cdbe
00000090: d744 9bbe 1cb4 773d 5f3b 513e 3835 c93e
000000a0: aae2 7ebe c8cc 573e 72c0 bebe b186 a23d
000000b0: 1e8f c922 67c9 2a3e 27fa fbbd 606a 1c1d
000000c0: 6866 e93e 9517 28be 72cc a0be 20fb 80be
000000d0: 1d8d a4bd cb19 d73e 9018 ce3e bdc9 7bbe
000000e0: b1f6 6e3e 07d2 ecbe 84fc 2a3e eb9d eb82
000000f0: 8bbf 2a3e db8c efbe 757d 5b04 0059 dc3e
00000100: b4a7 223e 3582 c8be 04df e4be b6e0 49b9
00000110: 98d2 953e a6f4 263e 134a 1ebe 9f16 883e
00000120: 5ff9 b8be b058 2abc 7f7f 0e84 99b2 afbe
00000130: e5e4 023f 6306 2585 b9f9 893e 7e90 90bf
00000140: 6355 e33a bd0e 2f3f f80a f7be 82fe b4be
00000150: a651 223f 4858 03bf edbc 0d3d b84f debe
00000160: 1cf8 90bc 8ff7 2395 668b d63e abb0 123f
00000170: e9f7 318d d04c af3e 5e41 82be 7f75 4b3e
00000180: 77b5 adbe 2bc6 ba3d 69a5 07be c968 43be
00000190: 36dd 5bbd 7750 debd 6aed 39be 7821 823d
000001a0: 1e8e a403 6914 97bc 3f43 993e e9c6 15a4
000001b0: 5a6a a1bc deab 9f3d 6d7f febe 319f b3bd
000001c0: c235 dd3d 6f07 6dbd 108a 133e 98f7 993d
000001d0: 465d e33c 9e3a eb3e 7c77 073d 0ebf d786
000001e0: 4702 2cbc 1fd8 37be 7f03 bd15 39ce acbe
000001f0: 2507 65be 36e8 043e 7eee 403e 6d58 fd3d
00000200: 3328 4c3e af1c 023e 6116 e1bb 6de9 883e
00000210: 326c a53c 1523 e03c e8ac 0288 066a 84be
00000220: aa11 00bf ecc7 2b80 6812 f13c d26f 863d
00000230: d93d 70be dcd5 133e 1e95 d53d 2297 65be
00000240: ee5d 26be d38f aa3e 69a5 943e eaa3 0bbd
00000250: a10e 06be 09fa 9996 56c2 2cbf cb38 87be
00000260: 03be 9c15 ce7b 163f b10b 8bbf 58d3 a73e
00000270: f464 fcbe 2aab 16bf 066c 3b3f 8c6d 453d
00000280: 1269 373f d79b 24bf c6ac 023f b9da 8bbd
00000290: 4eb9 5414 0c5c 203e a316 a7be 1174 1f08
000002a0: f668 1b3f 278b ae3e 164d 703d 724c d43e
000002b0: 6bdd 6bbf a0ec b43e fdaa 86bf 1ca4 3cbf
000002c0: 713b fb3e d2be 243f f421 45bc 679f 7fa6
000002d0: e4ed 223f a207 f8bd ee46 6e98 93f0 72bd
000002e0: 7305 de3d 9c0a 59bf cab7 553f 5614 33bf
000002f0: 5ab9 e63e 7923 68be e6f7 233f ee7f 3dbf
00000300: f310 29bf 6dd1 c3bc fca1 6003 d9d3 3ebf
00000310: 657c 373f f15d b10b d255 11bd 2533 a13f
00000320: e662 cb3d 1760 87be 0f45 7bbf 5754 853d
00000330: 5ce9 bf3d 72ee e23e 09af 123f 8511 02bf
00000340: b9ad 11bc 01c3 1e07 69e1 503f ca12 05bf
00000350: cfd2 850e 9b0f f5bd 673f ae3d a979 033f
00000360: 8336 8abe c5d8 83bf b936 5cbf 71ac 2d3f
00000370: bf9b 323e 2971 243d 9a08 a83e 4c92 9b3d
00000380: 2d1f 9195

decoder_layer_list.0.bias f4 [15]
0.04588365 -0.121712364 0.13677718 -0.124898136 0.19409491 0.009571418 -0.06105048 -0.38348046
-0.25075582 0.15492828 -0.22967306 -0.21657257 -0.120859206 -0.25872543 -0.12476074
00000000: 7ff0 3b3d 5544 f9bd 510f 0c3e 98ca ffbd
00000010: d1c0 463e 70d1 1c3c 1110 7abd 8d57 c4be
00000020: 1163 80be 85a5 1e3e 6a2f 6bbe 33c5 5dbe
00000030: 0885 f7bd a977 84be 8f82 ffbd
