result/FairOD_weights/sample_size_bias/scatter/seed_125/biasRate_0.01.pt (torch, 3520 bytes, 4 tensors)

encoder_layer_list.0.weight f4 [10, 15]
0	0xbeea7fab	-0.45800528
1	0xbeed6cee	-0.4637217
2	0x3ef65e3e	0.48118776
3	0x3ecc0e26	0.39854544
4	0x3ea62136	0.32447213
5	0xbe31b76e	-0.17355129
6	0x3de0d0b8	0.1097731
7	0x3ea08acc	0.31355894
8	0x3e646356	0.22303519
9	0x3db459a5	0.08806161
10	0x3e6fc608	0.23415387
11	0xbe5735b8	-0.21016586
12	0x3eb39576	0.35074967
13	0x3f013e1c	0.50485396
14	0x3e77e73b	0.24209301
15	0x80062484	-5.64112e-40
16	0x80057e85	-5.04564e-40
17	0x1952e993	1.09039155e-23
18	0x80062016	-5.62523e-40
19	0x0006bd8c	6.1901e-40
20	0x84702519	-2.8228899e-36
21	0xa7f0369f	-6.66726e-15
22	0x20187a4a	1.2915363e-19
23	0xa7859b21	-3.7083107e-15
24	0x2509f7e6	1.1966847e-16
25	0x005e55f5	8.663372e-39
26	0x00059b46	5.14879e-40
27	0x98c8605f	-5.17961e-24
28	0x185bcde2	2.840903e-24
29	0x9c732174	-8.0445193e-22
30	0xbe97ff5e	-0.29687017
31	0xbdab6288	-0.08368403
32	0xbdae11f7	-0.0849952
33	0xbe33c941	-0.17557241
34	0x3d8806db	0.066419326
35	0xbcf4128c	-0.029794
36	0xbdc48085	-0.09594826
37	0xbcd7932e	-0.026315298
38	0xbd18d934	-0.037316516
39	0x3e7b6a12	0.24552181
40	0x3f5708c7	0.8399777
41	0xbd381be8	-0.04494849
42	0x3fbe3bc9	1.4861995
43	0x3f3fbd20	0.74897957
44	0xbefcb6b3	-0.49358138
45	0x3eb7652c	0.35819376
46	0x3f056a78	0.52115583
47	0xbd7622a3	-0.060091626
48	0xbecafb4c	-0.3964485
49	0xbe8d9e15	-0.2765967
50	0xbdd2046d	-0.102547504
51	0x3ebff785	0.3749353
52	0x3ede67d7	0.434386
53	0x3e4fbc64	0.20286709
54	0x3d36961e	0.044576757
55	0x3fa9fceb	1.328031
56	0xbee4f422	-0.4471751
57	0xbf0eb028	-0.55737543
58	0xbe1ac8b1	-0.1511562
59	0x3d7cb68d	0.06169753
60	0x3eea05d1	0.45707563
61	0x3e9d97df	0.3077993
62	0xbecffdcc	-0.4062332
63	0xbf007654	-0.50180554
64	0xbec965a4	-0.39335358
65	0xbd04bed3	-0.032408547
66	0x3e135d34	0.14391023
67	0x3e09cf1f	0.13457917
68	0xbc507df8	-0.012725346
69	0x3e863e5d	0.26219454
70	0xbe84b550	-0.2591958
71	0x3f637431	0.8884917
72	0xbe04134d	-0.12897988
73	0x3f863979	1.0486289
74	0x3f9204e8	1.1407747
75	0xbe6b7e5d	-0.22997423
76	0xbef64948	-0.48102784
77	0x3f04d434	0.51886296
78	0x3e19aafb	0.1500663
79	0x3f09652c	0.5367
80	0x3e9267c7	0.285948
81	0x3dea0a65	0.11427764
82	0x3eb66cbc	0.35629833
83	0x3c19114b	0.009342502
84	0x3ef8bf61	0.4858351
85	0x3f4191d1	0.75613123
86	0x3f8769b3	1.0579132
87	0xbf657559	-0.89632183
88	0x3edc0025	0.4296886
89	0xbf4a19a6	-0.78945386
90	0xbeddb4da	-0.4330204
91	0xbed3b064	-0.41345513
92	0x3ebf1881	0.37323382
93	0x3e865b9b	0.26241764
94	0x3ec180d1	0.37793592
95	0x3e1a563e	0.15071961
96	0x3db53c53	0.088493966
97	0x3e847b17	0.2587516
98	0xbe07bb34	-0.13255006
99	0x3f05929c	0.52176833
100	0x3f35a2cd	0.7095154
101	0xbccdd79f	-0.02512723
102	0x3eaf9a10	0.34297228
103	0xbf7ba540	-0.98299026
104	0x3fb27fb1	1.3945218
105	0x3e3ef9a4	0.18649918
106	0x3f179f64	0.59227586
107	0xbe688932	-0.22708586
108	0xbe48b698	-0.19600904
109	0xbe91bc3c	-0.28463924
110	0xbe1183f5	-0.14210494
111	0x3dff35fe	0.1246147
112	0x3ea78822	0.3272105
113	0x3ec963cf	0.3933396
114	0x3e3a885d	0.18216081
115	0x3e0bc179	0.13648023
116	0x3fa11240	1.2583694
117	0x3f4dcced	0.80390817
118	0xbf85f287	-1.0464638
119	0xbec48012	-0.3837896
120	0x81a83920	-6.1795424e-38
121	0x800535a5	-4.78422e-40
122	0xa79a9717	-4.29074e-15
123	0x0af3ea9f	2.3488303e-32
124	0xa88208d6	-1.4436731e-14
125	0x8005fb6d	-5.49372e-40
126	0x07826fe4	1.962599e-34
127	0x1c32c448	5.9148947e-22
128	0x0febc365	2.3248052e-29
129	0x14c0919e	1.9444481e-26
130	0x17ca0b2e	1.3056766e-24
131	0x0331ba26	5.2229313e-37
132	0x8342b179	-5.7215205e-37
133	0x8004811b	-4.13656e-40
134	0x07c36e43	2.9405145e-34
135	0x3edfd1fd	0.43714896
136	0x3eae0e3f	0.33995244
137	0xbed8b8df	-0.42328545
138	0xbec31e04	-0.38108838
139	0xbe0950b1	-0.13409688
140	0x3ec153cb	0.3775924
141	0x3e065222	0.13117269
142	0x3e6424d7	0.22279678
143	0x3e22a447	0.1588298
144	0x3f22c980	0.63588715
145	0x3e94b40c	0.29043615
146	0xbf276a69	-0.65396744
147	0x3d25525e	0.040361755
148	0xbc444559	-0.011979424
149	0x3d1803c5	0.03711297

encoder_layer_list.0.bias f4 [10]
0	0x3e69e4e8	0.22841227
1	0x0005cdf2	5.33057e-40
2	0xbe40447c	-0.18776125
3	0x3e97bba2	0.2963534
4	0xbcfcd1f2	-0.030861828
5	0x3da88fce	0.082305536
6	0x3d37fb15	0.044917185
7	0x3eac61bd	0.33668318
8	0x00056a44	4.97298e-40
9	0x3ec26c0e	0.37973064

decoder_layer_list.0.weight f4 [15, 10]
0	0xbf0c7f9f	-0.54882234
1	0x27d3ddbc	5.880467e-15
2	0xbe1891c2	-0.14899352
3	0x3eeba513	0.4602438
4	0x3e4e06a7	0.20119725
5	0xbe356628	-0.17714751
6	0xbedbf03d	-0.42956725
7	0x3ecc451b	0.39896473
8	0x0c935f00	2.2706112e-31
9	0x3f0bfe22	0.5468465
10	0xbeb7e62a	-0.3591779
11	0x86ec0ec2	-8.879502e-35
12	0xbdf3a45a	-0.11896582
13	0x3e6a1dd0	0.22862935
14	0x3ea9ca10	0.33161974
15	0xbe88eb79	-0.2674215
16	0xbeefde1b	-0.4684914
17	0x3f069bd0	0.525815
18	0xa9fadc2a	-1.11404226e-13
19	0x3f181542	0.59407437
20	0x3e888e8c	0.26671255
21	0x147f7e05	1.2899063e-26
22	0x3ca92670	0.020648211
23	0xbeb27d1f	-0.34861085
24	0xbebd10c3	-0.3692685
25	0x3ef38b4e	0.4756722
26	0x3ef84b7e	0.48495096
27	0xbe9b8bda	-0.30380136
28	0xae3c7e6d	-4.285854e-11
29	0xbec3d54d	-0.38248673
30	0x3ef92021	0.48657325
31	0x85267c19	-7.8280756e-36
32	0xbe051576	-0.12996468
33	0xbee47048	-0.44616914
34	0xbedc92c9	-0.43080738
35	0x3eea4b98	0.45760798
36	0x3ec125d0	0.3772416
37	0xbe51382f	-0.20431589
38	0x08106772	4.3455023e-34
39	0xbe873c3b	-0.2641314
40	0x3eaf1c65	0.3420135
41	0x25775bb6	2.1454908e-16
42	0x3e50f6d2	0.20406654
43	0xbe817031	-0.25280908
44	0xbf034c3c	-0.512882
45	0x3f03de5a	0.51511157
46	0x3eab8005	0.3349611
47	0xbe813a6c	-0.25239885
48	0x8005750e	-5.01169e-40
49	0xbf06ebaa	-0.52703345
50	0xbeaccc50	-0.33749628
51	0x2a273d5d	1.4853869e-13
52	0x3ce9b28a	0.028527517
53	0xbe46e3c5	-0.19422825
54	0xbd2dc5b5	-0.042424876
55	0x3e14afba	0.1452016
56	0x3df3b6db	0.11900111
57	0xbe23eb47	-0.1600772
58	0x989118b0	-3.750655e-24
59	0x3e858718	0.2607963
60	0x3e0081c9	0.12549509
61	0x2e0dcd06	3.2241786e-11
62	0xbd57aca3	-0.052654874
63	0x3e2b4174	0.16724187
64	0x3d3a539a	0.045489885
65	0xbc04bfec	-0.008102398
66	0xbc1ba6b2	-0.0095001925
67	0x3b95061a	0.0045478465
68	0x1b8625c2	2.219284e-22
69	0xbdb548bb	-0.08851763
70	0x3cbdbe00	0.023161888
71	0x2d3e3c27	1.0813606e-11
72	0xbd511f37	-0.05105516
73	0x3de7d2c2	0.11319496
74	0xbc171b78	-0.009222858
75	0x3d78af5d	0.060714114
76	0x3d2312f1	0.039812986
77	0x3d09bb27	0.033625748
78	0x00056c45	4.98017e-40
79	0x38ad4eac	8.2639366e-05
80	0x3e564ba6	0.20927295
81	0x80056405	-4.95058e-40
82	0xbdc148b5	-0.09437696
83	0x3c8abfca	0.016937155
84	0xbd41eead	-0.04734676
85	0xbb0c9a11	-0.0021454135
86	0xbd93f53d	-0.0722451
87	0x3dd3ec75	0.10347835
88	0x800626c2	-5.64917e-40
89	0x3e01e2a6	0.12684116
90	0xbe37692a	-0.1791121
91	0xa55ac100	-1.8973877e-16
92	0x3df3b964	0.11900595
93	0xbe8cedc5	-0.27525154
94	0xbad7e507	-0.0016471454
95	0x3e2ba393	0.16761617
96	0x3e1c5dc7	0.15270148
97	0xbda726eb	-0.0816172
98	0x8ea3088a	-4.0190825e-30
99	0x3eec165b	0.46110806
100	0xbdead7a1	-0.11466909
101	0x2ed9455d	9.880339e-11
102	0x3f079013	0.52954215
103	0x3f89aab1	1.0755216
104	0xbf07316d	-0.5280979
105	0x3e83341f	0.25625703
106	0x3df0c328	0.11755973
107	0xbe245ee1	-0.16051818
108	0x2fbd848d	3.4473083e-10
109	0x3d8a1bf3	0.06743612
110	0xbee0e0af	-0.4392142
111	0x800593c4	-5.12186e-40
112	0xbe4cb53a	-0.19991007
113	0xbf2d511e	-0.677019
114	0x3f14012c	0.5781429
115	0x3f27e1b3	0.65578765
116	0xbe3cd7d5	-0.18441708
117	0x3f738c86	0.95136297
118	0x0005a171	5.17092e-40
119	0xbf6ff7c1	-0.9373742
120	0x3db5e46f	0.08881461
121	0x202a047d	1.4401045e-19
122	0x3fc57cf0	1.5428753
123	0xbf39feb0	-0.7265425
124	0xbded4fcf	-0.11587488
125	0xbf5fd0f5	-0.8742822
126	0x3e8e4010	0.2778325
127	0x3f100557	0.5625815
128	0x0afeb48f	2.4527229e-32
129	0xbd7bc87b	-0.06147049
130	0x3f001470	0.50031185
131	0x8005e796	-5.42255e-40
132	0x3f5994ad	0.84992486
133	0xbe1a8e8f	-0.15093444
134	0x3f86bfc0	1.0527267
135	0x3e809fc0	0.2512188
136	0xbf6a3e22	-0.9150106
137	0xbf90aaee	-1.1302164
138	0x02c8bf52	2.9497171e-37
139	0xbe15de18	-0.14635503
140	0x3dbfafdf	0.093597166
141	0xa000033b	-1.084309e-19
142	0xbf0acbba	-0.5421711
143	0xbe849cff	-0.2590103
144	0x3f67f5a6	0.90609205
145	0xbf4b3bab	-0.7938792
146	0x3f875835	1.0573794
147	0xbf0876a8	-0.53306055
148	0x003874d7	5.184702e-39
149	0xbdaeef18	-0.08541697

decoder_layer_list.0.bias f4 [15]
0	0xbe90ef16	-0.28307408
1	0xbed85078	-0.42248893
2	0xbd848dd7	-0.06472366
3	0xbd75d28d	-0.06001525
4	0x3c4381c3	0.011932793
5	0x3de15ef3	0.11004438
6	0x3e33cb22	0.17557958
7	0xbe4c3838	-0.19943321
8	0xbe1246db	-0.14284842
9	0xbdc02c54	-0.09383455
10	0xbf886311	-1.0655233
11	0xbe81395c	-0.25239074
12	0xbece5c27	-0.40304682
13	0xbe05cb3d	-0.1306581
14	0xbe8b57fd	-0.27215567
