result/FairOD_weights/variance_shift/scatter/seed_124/biasRate_2.5.pt (torch, 3128 bytes, 4 tensors)

encoder_layer_list.0.weight f4 [7, 15]
0	0xbec02a4d	-0.37532273
1	0xbeebab22	-0.46029
2	0x3f350971	0.7071753
3	0x3f262f61	0.64916044
4	0x3ec63cc7	0.38718244
5	0xbd5bb087	-0.053635146
6	0x3f090697	0.5352568
7	0x3ea2565c	0.31706512
8	0x3e9d1d09	0.30686215
9	0x3cf3149b	0.029672911
10	0xbf4ec4d9	-0.80769116
11	0x3f8e9b3e	1.1141126
12	0x3f024e25	0.5090049
13	0x3f64f051	0.89429194
14	0xbf21a4b1	-0.63141924
15	0x3f2c58e8	0.6732316
16	0x3f0c3a8b	0.5477683
17	0xbe84d2e5	-0.2594215
18	0xbdc35ee1	-0.09539581
19	0xbebf56d7	-0.3737094
20	0xbc8590ff	-0.016304491
21	0x3f14c7c2	0.58117306
22	0x3eb431bb	0.3519419
23	0x3eafc2e9	0.34328392
24	0x3db0de8b	0.08636197
25	0x3f4a882e	0.79114044
26	0x3ef95238	0.4869554
27	0xbf817a1d	-1.0115391
28	0x3f708656	0.9395498
29	0xbf63a15b	-0.88918084
30	0x3dc1b292	0.09457888
31	0xbcdcda97	-0.0269597
32	0xbdc40665	-0.09571532
33	0x3e2aa1d2	0.16663292
34	0x3d8f1a38	0.06987423
35	0xbcfc60c4	-0.03080786
36	0x3e864893	0.26227245
37	0x3e13b856	0.14425787
38	0x3d0b3102	0.033982284
39	0x3ccd4240	0.025056005
40	0xbf12c2b5	-0.5732835
41	0xbf48abba	-0.78387034
42	0xbe9bbfe1	-0.3041983
43	0x3f9a8bc8	1.2073908
44	0x3f55e23b	0.83548325
45	0x3f3b950a	0.7327429
46	0x3efbaf0c	0.49156988
47	0xbedfe50e	-0.43729442
48	0xbf03ecd9	-0.51533276
49	0xbf20799b	-0.62685555
50	0xbda78d4e	-0.081812486
51	0x3f2d6b57	0.6774191
52	0x3f076fcf	0.5290498
53	0x3ebb679a	0.3660248
54	0x3dfd3ccf	0.12365114
55	0xbeadeac3	-0.3396817
56	0xbdb4d2cc	-0.08829269
57	0x3fbdde00	1.4833374
58	0xbe112036	-0.14172444
59	0x3e5173c0	0.20454311
60	0x3d774e02	0.06037713
61	0x3c742886	0.01490224
62	0xbdc0f2d4	-0.09421316
63	0xbd991fd6	-0.07476775
64	0x3ea7d784	0.32781613
65	0xbd6095ed	-0.05483048
66	0x3f1d01f9	0.61331135
67	0x3ea73252	0.3265558
68	0x3e8ab197	0.27088615
69	0x3d273d67	0.040830042
70	0xbddc4bb4	-0.10756627
71	0x3f2e6a0b	0.6813056
72	0xbf4ac186	-0.79201543
73	0xbf658915	-0.89662296
74	0x3f9a1035	1.2036196
75	0xbda78df6	-0.08181374
76	0xbd1449c6	-0.03620317
77	0xbda5bb34	-0.08092347
78	0xbd9b22d9	-0.07575006
79	0xbad191bd	-0.0015988868
80	0xbe4b925d	-0.19880052
81	0xbdc943ba	-0.09827371
82	0xbe872083	-0.26391992
83	0xbdb1725e	-0.08664392
84	0xbe1077dd	-0.14108224
85	0x3f823882	1.0173495
86	0x3f3f3e91	0.74704844
87	0x3f008e9c	0.50217605
88	0x3f45648e	0.7710656
89	0x3f7d3e9e	0.9892367
90	0xbe188a8e	-0.14896604
91	0xbf15d088	-0.5852132
92	0x3f0b6a90	0.54459476
93	0x3f0ceab3	0.5504562
94	0x3ed5ee19	0.41783217
95	0xbd9fffdf	-0.078124754
96	0x3f19d0d8	0.60084295
97	0x3eafa2b9	0.34303835
98	0x3ea0a585	0.3137628
99	0x3dda9804	0.10673526
100	0x3fb21a3d	1.3914257
101	0xbf9c570d	-1.2214066
102	0x3e4456f9	0.19173802
103	0xbde5e5ab	-0.11225446
104	0xbccdb6ee	-0.025111642

encoder_layer_list.0.bias f4 [7]
0	0xbe1170cd	-0.14203186
1	0x3e918a23	0.28425702
2	0x3da72111	0.08160604
3	0x3ebdd215	0.37074342
4	0x3ddc2bec	0.10750565
5	0xbf32db80	-0.6986618
6	0x3db2ddc1	0.087337025

decoder_layer_list.0.weight f4 [15, 7]
0	0xbf10625c	-0.56400084
1	0x3f0494ec	0.51789737
2	0x3d4e45cf	0.050359543
3	0x3f0d3f0d	0.5517433
4	0xbd8794a9	-0.066201515
5	0x3d4e1837	0.05031606
6	0xbe8d3ffe	-0.27587885
7	0xbedfd2cc	-0.43715513
8	0x3f05998b	0.5218741
9	0xbe085772	-0.13314608
10	0x3ef0960b	0.46989474
11	0xbd132173	-0.03592057
12	0x3e637f30	0.22216487
13	0xbf1ce85b	-0.61292046
14	0x3f31f51d	0.6951464
15	0xbf0e9238	-0.5569186
16	0xbe782425	-0.24232538
17	0xbebc4339	-0.36770037
18	0xbdd45b92	-0.10369028
19	0x3df352f6	0.11881058
20	0x3efc239c	0.49245918
21	0x3f2c0b61	0.6720486
22	0xbea42e23	-0.3206645
23	0x3e1badbd	0.15202995
24	0xbf134f97	-0.5754332
25	0xbdc18eb8	-0.094510496
26	0x3d6fb323	0.058520447
27	0x3efa4c5a	0.48886377
28	0x3efee527	0.49784204
29	0xbf014f15	-0.50511295
30	0x3dc769d9	0.09736986
31	0xbf0e21a0	-0.5552006
32	0x3ece2874	0.40265238
33	0x3e1acfd1	0.15118338
34	0x3edf6e45	0.43638816
35	0x3c482ffb	0.012218471
36	0x3bb0e1c3	0.0053980066
37	0xbb85d893	-0.0040846555
38	0xbcf37c1e	-0.02972227
39	0xbb6d521a	-0.0036212266
40	0xbd8f1ce4	-0.06987932
41	0xbc6f2603	-0.014596465
42	0x3d8d16ac	0.0688909
43	0x3deb65db	0.11494037
44	0x3de450e0	0.11148238
45	0x3e0bd5c7	0.13655768
46	0x3e8dfad0	0.27730417
47	0xbe901b39	-0.2814577
48	0x3e2bccca	0.1677734
49	0x3dc15dbe	0.09441708
50	0x3da48aa0	0.08034253
51	0x3d96c86f	0.073624484
52	0x3e359ea2	0.17736295
53	0x3e3722eb	0.17884414
54	0xbe2f47cd	-0.17117234
55	0x3e28620f	0.16443656
56	0x3d97f762	0.074202314
57	0x3da011f3	0.078159235
58	0xbd74b22b	-0.059740227
59	0x3dd3dad8	0.103444755
60	0x3df21aa6	0.11821489
61	0xbdab432b	-0.08362421
62	0x3dd75695	0.10514561
63	0x3ab01bd8	0.0013436032
64	0x3c67b569	0.014142373
65	0x3b92e6b7	0.0044830698
66	0x3d12748d	0.035755683
67	0x3c697ba0	0.014250666
68	0xbdc773f6	-0.09738915
69	0x3d2bccc3	0.041943323
70	0xbf2e1905	-0.68006927
71	0x3f0883dd	0.5332621
72	0xbf75f139	-0.960712
73	0xbeb02ee5	-0.34410778
74	0xbe9bb430	-0.3041091
75	0x3fa7333e	1.3062513
76	0x3f61b057	0.881597
77	0x3f38ca65	0.7218383
78	0x3e727451	0.23677184
79	0xbf8f60ef	-1.1201457
80	0xbe9449b8	-0.28962493
81	0x3f02f24b	0.5115096
82	0x3f80ef9f	1.0073127
83	0xbf70e0f9	-0.9409328
84	0x3eafa192	0.34302956
85	0xbf839b63	-1.0281795
86	0xbf128bdb	-0.5724465
87	0x3f8a4135	1.080115
88	0xbf7b564a	-0.9817854
89	0x3f503c44	0.8134196
90	0x3e0cc9e8	0.13748896
91	0x3e9e1d71	0.30881837
92	0x3ef44e8a	0.4771617
93	0x3face482	1.3507235
94	0xbeb31242	-0.34974867
95	0xbf889ae4	-1.0672269
96	0x3f617e28	0.88083124
97	0xbebd7c39	-0.37008837
98	0xbf01714a	-0.5056349
99	0xbf55d5ed	-0.8352955
100	0x3f7d921a	0.9905106
101	0x3ad50bea	0.0016254161
102	0x3f7932d6	0.97343194
103	0x3f93a8a8	1.1535845
104	0xbe331d37	-0.17491613

decoder_layer_list.0.bias f4 [15]
0	0xbf39fe4e	-0.72653663
1	0xbe4c0bed	-0.19926424
2	0xbdf2a4f5	-0.11847869
3	0xbe5ad577	-0.21370493
4	0xbd5f0c09	-0.054454837
5	0x3d25b5de	0.040456645
6	0xbf4a66e1	-0.7906323
7	0xbe653d65	-0.22386701
8	0xbebfd0f6	-0.37464112
9	0xbe9cadbe	-0.30601305
10	0xbeddb70b	-0.43303713
11	0xbe8a27c2	-0.26983458
12	0xbeb26cf3	-0.34848747
13	0xbf14ab10	-0.5807352
14	0xbe7eafaa	-0.24871698
