result/FairOD_weights/base_rate/scatter/seed_123/biasRate_3.pt (torch, 3432 bytes, 4 tensors)

encoder_layer_list.0.weight f4 [10, 15]
00000000: 0fda 1dbe 0614 4cbe 0f05 173f 34c8 cb3e
00000010: 9ee0 fb3e 1caa 2d3f c930 843e 6f2a 113f
00000020: 9d97 d93e 5778 f2bd 943a 1ebf 3bb2 223f
00000030: bd74 7bbf 70b5 843e 65a8 1dbf 93a2 a3be
00000040: bab0 7cbe 1d3b dc3e d7ae 143f 337a 203f
00000050: a312 a1be 9eae ef3d fba6 023f 6478 83be
00000060: bdcf a33e 5bea 08bf 0a83 96be 84bc 423f
00000070: 5dd6 313e d2cc 863e 29c6 b0be a5a7 f0be
00000080: e12d 8b3e bc6e c43e 97cb 943e 99d1 1e3f
00000090: f586 553e d36d 1cbe c62d 973e 30cb 21be
000000a0: a69f c73e bc0f 953f f131 9a3f a945 49bf
000000b0: be14 23bf 0fac f897 7fe2 b197 7ceb 9616
000000c0: 087c 9215 9d52 e616 b660 5f19 c0e9 b9a3
000000d0: 8c62 5b97 9d10 46a4 d56c 8319 a706 ca97
000000e0: c329 6b95 3eb8 c89b 52e2 b697 f9fe 9f97
000000f0: 5c7b bbbe a31e 58be c5fb b73e 13b9 853e
00000100: a7b1 c93e ef25 1d3f 1602 873e 543d 95be
00000110: 47aa 0e3f f50a fa3d e19c 41bf 22f7 38bf
00000120: f4ac 8b3e 9afa 4a3f 31d4 b53e d8e7 ce3e
00000130: 658f e23e 2a5e eabe 5f42 8bbe ed61 e2be
00000140: e25a 373f 3a57 053f e1cc e83e 9130 013f
00000150: 439a a83e 9242 053f 9d32 063f 6b99 703e
00000160: f6c6 1d3f f8e5 483f 5b70 6bbe 2a5d 7fbe
00000170: b1f7 073f c2c2 013f f7bf b33e 45ee 1d3f
00000180: 3c63 b23e 5c03 d13e 396c e03e 1333 883d
00000190: 3f5d 873f 1df0 5abf 7995 0cbf 8e22 7bbf
000001a0: 5a1a 403f 4126 b1be da72 9bbe 57d9 b93e
000001b0: 63b6 df3e 0704 ae3e 282a d9be cc71 db3e
000001c0: 3450 e2bc e913 7cbd 4e93 4a3f 0f93 5a3f
000001d0: 24b0 963e 6ae7 07bf 6767 fa3e fd21 f0be
000001e0: c764 babe 7623 09bf 8693 753e 6bba 743e
000001f0: 37ad b83e 504c 2d3e d844 b2be e2ce a3bc
00000200: 00ce e73d f0a0 05bf 3915 6a3f 268d 193f
00000210: 0d88 913e 4610 863f 8dae 193f 8786 723e
00000220: 5f4b 643e 294a 403e b11b 773e 6d53 4ebd
00000230: fd50 083f 78ae 2f3e 1a7f b13e 5d91 873e
00000240: cd33 57b8 1b3c 5f3f a6c8 81bf 894c 223f
00000250: 0325 283f d09b 9dbf
-0.15415214 -0.19929513 0.58992094 0.3980118 0.49194807 0.6783769 0.2581847 0.56705374
0.42498484 -0.11839359 -0.61808133 0.6355321 -0.98225003 0.25919676 -0.61585075 -0.31959972
-0.24676791 0.4301385 0.58079284 0.6268646 -0.3145953 0.117032275 0.5103604 -0.25677788
0.3199443 -0.534826 -0.2939685 0.760689 0.1736693 0.2632814 -0.34526184 -0.47002903
0.2718344 0.38365734 0.29061577 0.6203857 0.20852263 -0.1527627 0.2952711 -0.15800166
0.3898899 1.1645427 1.2046491 -0.7862192 -0.63703525 -1.6070058e-24 -1.1495533e-24 2.4382419e-25
5.916462e-26 3.721064e-25 1.15483604e-23 -2.0156737e-17 -7.08871e-25 -4.2948478e-17 1.358904e-23 -1.3055623e-24
-4.7490816e-26 -3.3206288e-22 -1.1818606e-24 -1.0339498e-24 -0.36617553 -0.21105437 0.35934272 0.26117763
0.3939335 0.6138601 0.2636878 -0.29148352 0.5572857 0.12209121 -0.75630003 -0.72252095
0.2728039 0.7928864 0.35513452 0.40411258 0.44250026 -0.45774966 -0.27199075 -0.44215336
0.7162305 0.5208622 0.4546881 0.5046473 0.32930192 0.52054703 0.5242098 0.23496024
0.61631715 0.78475904 -0.22992079 -0.24937883 0.5311232 0.506878 0.35107395 0.61691695
0.34841335 0.40822875 0.43832567 0.06650367 1.0575331 -0.85522634 -0.5491558 -0.980996
0.7504021 -0.34599498 -0.30361062 0.3629863 0.43693838 0.33987448 -0.42414975 0.42860258
-0.027626134 -0.061542425 0.7913102 0.85380644 0.2943126 -0.53087485 0.48907015 -0.4690093
-0.36405012 -0.53569734 0.23982057 0.23899238 0.36069652 0.16923642 -0.3481815 -0.01999611
0.11318588 -0.52198696 0.91438633 0.59981 0.2842411 1.0473716 0.6003197 0.2368413
0.22294377 0.1877829 0.24131657 -0.05037253 0.5324858 0.17156398 0.34667283 0.2647809
-5.1308238e-05 0.8720109 -1.0139358 0.63398033 0.65681475 -1.2313175

encoder_layer_list.0.bias f4 [10]
00000000: 8e54 c43e 6410 903e 1659 823e 7a18 6097
00000010: c53b 313e df10 df3e f266 293e ce92 4e3d
00000020: 5231 96be 10d9 5b3e
0.3834576 0.28137505 0.25458592 -7.2409197e-25 0.17307957 0.4356756 0.16543177 0.050432973
-0.29334503 0.21469522

decoder_layer_list.0.weight f4 [15, 10]
00000000: 3f37 81bd ae6e bcbe f150 97be 19cd 70ae
00000010: ebf6 b6be 3507 173f 49cb aebe 2d24 9bbe
00000020: 873b bcbe f32e 8b3e 53ff 16be 85ce 60be
00000030: 2ff3 9abe c59c f88c 5600 f3be 6789 043f
00000040: 5da0 2fbe d1f1 c3be 9830 f8be 2fc9 8d3e
00000050: 4c33 e63e a0bb 383e a7d8 983d 0cb1 9212
00000060: b342 8a3d 155d 30bf d3e1 b23e ef50 c63e
00000070: a4b3 d83e 597a d9bd 6e95 b53e fac7 a73e
00000080: 66e1 713e 849e 9fad b147 d53e c754 31bf
00000090: dfe9 743e 21f8 4d3d 6cf5 8a3e a4cc 87bd
000000a0: d464 a2bd 5624 043f 7d04 3e3e 72c7 b81e
000000b0: 2e40 9c3e 2178 13bf 8c85 793e 5722 123f
000000c0: c821 553e ef45 eebe 4bb6 8c3e 60a1 04bf
000000d0: 3ee7 793e 5a58 9992 61f6 bd3e 7d60 8fbc
000000e0: 6e4b 323e 23a5 fdbe 71ad cb3d 456b 1f3e
000000f0: c41a 27bd 4da0 97bb cd14 a63d 32bc 862c
00000100: 3d97 d53d 08be e03d bcc8 8f3c 6af2 733e
00000110: 895e 88be 0818 5fbd ddf2 503e 669b bc3e
00000120: 9123 2fbe 3242 7c11 2a86 ddbe c5b5 713c
00000130: 07bd 503d 510f 34be 7687 133d 8173 ee3d
00000140: caa2 d23d eb4d edbe 871c da3d b90e 0620
00000150: 185e af3e 5cd3 08bd c5f3 bc3d 5f24 35be
00000160: 4b97 d73d f34c bc3c 4678 76be d993 7b3e
00000170: 6af0 c8bd eab4 2820 c1b9 6739 5585 583d
00000180: f0c6 bebd db13 133f ee13 cabe 6ad1 15be
00000190: 7669 3abf c0e0 1ebf 506a 0b3c bbbd 4612
000001a0: a0c9 75bf 87e4 edbd a52e 2f3f ef0f 153f
000001b0: 824e 7b3f 38a6 193f 553e 013f 3c9a 05bf
000001c0: 4f94 5f3f cecf 1690 1fc2 03bf 0415 993e
000001d0: 5c6e 3bbf d7b9 743e 8127 0d3f 31cc 79bf
000001e0: 9c1b 91bf aa9d 4a3f f799 7e3f 4869 2728
000001f0: 07b0 573e 288c 4fbd 0a0a fdbe 7faa 51bf
00000200: 6a6f a63e b472 eb3e cd47 043e aa40 70be
00000210: 2bae 58bf 265f cb98 360e 383f 9e94 863d
00000220: 1138 84bf e979 9f3e 7f51 9f3f c19f f33e
00000230: ed30 3ebf c235 d33e 8b2c 00bf 321c 6d24
00000240: 4412 963e 5d3d f03e 5ef3 223f ac53 f4be
00000250: 78f0 493f 4cff a0bf
-0.063093655 -0.36803192 -0.2955394 -5.4751845e-11 -0.35735258 0.5899537 -0.3413947 -0.30301037
-0.36764166 0.27184257 -0.14745836 -0.21953781 -0.3026366 -3.8304802e-31 -0.47461194 0.5177216
-0.17151017 -0.3827043 -0.48474574 0.27692553 0.4496101 0.18040323 0.07463198 9.257541e-28
0.06751003 -0.6889203 0.34937915 0.38733622 0.42324555 -0.10619039 0.35465568 0.32769758
0.23621139 -1.8146602e-11 0.4165626 -0.69269985 0.2391734 0.050285462 0.27140367 -0.06630829
-0.07929388 0.51617944 0.185564 1.9564246e-20 0.30517715 -0.5760518 0.2436735 0.5708365
0.20813668 -0.4653773 0.27482828 -0.5180874 0.24404618 -9.677438e-28 0.37102035 -0.017502064
0.17411587 -0.49540052 0.09945191 0.15568264 -0.04079701 -0.0046272636 0.08109436 3.829403e-12
0.10429237 0.109737456 0.017551772 0.23822942 -0.26634625 -0.054466277 0.20405145 0.3683731
-0.17103411 1.9899693e-28 -0.43266422 0.01475281 0.05096152 -0.17583968 0.036017857 0.11643124
0.10284956 -0.4634851 0.106499724 1.1355113e-19 0.34251475 -0.033404693 0.09226183 -0.17689656
0.10526904 0.022985911 -0.24069318 0.24568118 -0.0981148 1.4290013e-19 0.00022099075 0.05286153
-0.09315288 0.5745217 -0.3946833 -0.14630666 -0.7281717 -0.6206169 0.008509234 6.2711645e-28
-0.9601078 -0.11615854 0.6843055 0.5822744 0.9816667 0.60019255 0.50485736 -0.5218847
0.87335676 -2.974237e-29 -0.5146808 0.29898846 -0.7321527 0.23899017 0.55138403 -0.97577196
-1.1336551 0.79146826 0.9945368 9.2931915e-15 0.21063243 -0.050670773 -0.49421722 -0.8190078
0.32506877 0.4598595 0.12918015 -0.23462167 -0.8464076 -5.2570345e-24 0.71896684 0.06571315
-1.032961 0.31147698 1.2446746 0.4758282 -0.74293405 0.4125195 -0.5006797 5.1415065e-17
0.2931081 0.46921816 0.636526 -0.47720087 0.7888255 -1.257791

decoder_layer_list.0.bias f4 [15]
00000000: 15e8 eb3e acb0 f73e 5634 bbbd cf2e afbb
00000010: 6495 fabd 816c eebe 32ae 9bbe 2d71 93be
00000020: ea52 22be 6a8c a73d d86f cfbe 55c0 83be
00000030: 1483 16bf 4020 0dbf 01b1 45be
0.46075502 0.48376977 -0.09140842 -0.005346156 -0.12235525 -0.46567157 -0.30406338 -0.28797284
-0.15851942 0.08181079 -0.40515018 -0.25732675 -0.5879376 -0.55127335 -0.19305803
