result/FairOD_weights/sample_size_bias/scatter/seed_126/biasRate_0.4.pt (torch, 4216 bytes, 4 tensors)

encoder_layer_list.0.weight f4 [15, 15]
000000 b8 fa 35 be 2c 61 c3 be 99 78 80 3e 7b 71 ce 3e
       -0.17771423 -0.38160074 0.2509201 0.40320954
000010 38 9e ae 3e 67 7b eb 3e 7d 99 6b 3e d4 2c 46 bd
       0.34105086 0.45992586 0.2300777 -0.048382595
000020 b7 51 90 3d d9 71 36 3d 7c 7a 4d bf 4a 15 65 3f
       0.07046836 0.044542167 -0.8026502 0.8948561
000030 32 01 6e bf 28 00 bf 3c 2e 4a 8f 3f 3f 0d 7e bd
       -0.92970574 0.023315504 1.1194513 -0.06202435
000040 6a 20 17 bc fb f2 67 be a4 3a 4e 3d 7a 5c 04 3e
       -0.009224037 -0.22651283 0.050348893 0.12925902
000050 76 d3 c6 bd 00 c7 39 3d c0 73 59 be 91 77 6d be
       -0.09708302 0.045355797 -0.21235561 -0.23190142
000060 e8 cb cb 3c 8f f1 0d 3e 89 e2 53 3e ff 3b 51 be
       0.024877504 0.13861679 0.20691885 -0.20433043
000070 8f e3 d6 bd bd 82 81 bc 9d eb 79 be b4 54 5f 3e
       -0.10492622 -0.015809411 -0.24406286 0.21809655
000080 03 6e 3a be 9b 1f fb bd 6e 5f 31 be e3 19 ef bd
       -0.18206029 -0.12261888 -0.1732156 -0.116748594
000090 85 28 98 3c 3f 44 72 3d e5 b5 18 be 14 0e 3a 3e
       0.018574009 0.059147116 -0.14913137 0.18169433
0000a0 5f 07 be bd 95 26 49 3d 32 89 3f 3e db 0f ba 3c
       -0.0927875 0.04910906 0.1870468 0.022712639
0000b0 de 8f a0 bd 3e 7f 9c be 70 90 d0 be 7e 13 a0 3e
       -0.078399405 -0.30565828 -0.40735197 0.3126487
0000c0 63 85 be 3e 97 a0 1b 3e 66 a9 be 3e 4a f8 df 3d
       0.3721114 0.15197979 0.37238616 0.10936029
0000d0 5c 8c 9d be 83 73 22 3e fc 60 ad 3e 5e c9 d0 3e
       -0.30771148 0.15864377 0.33863056 0.4077863
0000e0 cf 80 20 be f2 db 86 3e 61 6c 07 3f 76 e8 ef bb
       -0.15674137 0.2633968 0.5289975 -0.0073214127
0000f0 fa 4d 66 3e 79 11 78 bd f7 0e ee 3d ed c0 03 be
       0.22490683 -0.06056354 0.11623948 -0.12866564
000100 d1 a3 63 3c e0 9d 26 3e b3 2a f0 bd 44 78 72 3d
       0.013894037 0.16271162 -0.11726894 0.059196725
000110 6f fd 3a 3e 74 90 8d bd cb bf 47 bd 4e 98 e0 bd
       0.1826074 -0.06912318 -0.048766892 -0.1096655
000120 36 22 6a 3d 36 9f 7c be 49 48 3c be 99 4f 05 3f
       0.057161532 -0.24670109 -0.1838695 0.5207458
000130 79 4b e7 3e 24 f0 ce bd d3 60 c4 be 83 9b 44 be
       0.4517477 -0.10104397 -0.3835512 -0.19199948
000140 08 23 e4 3e 77 5b b5 3d a4 a3 1c be f6 5c 3d 3d
       0.44557977 0.08855336 -0.15296799 0.046231233
000150 d5 53 98 3e da dc 47 3f 6b 1e 73 3f 04 42 10 3f
       0.2975146 0.7807137 0.9496829 0.5635073
000160 a4 b2 1c bf 80 1e c1 3c 0e d7 ce be 0c 82 91 be
       -0.61210084 0.023574114 -0.4039845 -0.2841953
000170 08 52 3d 3e 01 9c ee 3e a6 27 c6 3e 0f 7f 70 3e
       0.18488324 0.46603397 0.38702124 0.23485969
000180 db dd 8c bc 45 4a b5 3e 87 18 1b 3e 77 dc 97 3c
       -0.017195633 0.35408226 0.15146075 0.018537743
000190 a3 7f 13 3f 7f 03 85 3e 60 c3 d0 3e 81 c1 0c be
       0.57616633 0.2597923 0.4077406 -0.13745691
0001a0 9b 57 ec be 64 0a 43 be a6 c1 e3 be 42 bc c3 3e
       -0.46160588 -0.19046932 -0.4448368 0.38229567
0001b0 c4 0a ae 3e 70 66 2f 3e 80 65 0d bd c7 92 63 be
       0.3399259 0.1712892 -0.034520626 -0.2222396
0001c0 db ee a6 be fb b7 cb bd 58 79 3c be bc e4 07 3f
       -0.32604107 -0.09947201 -0.18405664 0.53083396
0001d0 89 34 bc be 31 85 54 3f a5 a8 5e 3f a2 36 95 3f
       -0.3675883 0.83015734 0.8697608 1.1657298
0001e0 b9 c9 22 3f 2a f8 89 3e f0 a8 bd be bf fa e1 bd
       0.63589054 0.26947147 -0.37042952 -0.11034154
0001f0 3f 79 8c be dd ab 27 3f d2 85 0c 3f 4b 31 7c 3d
       -0.27436253 0.6549662 0.54891694 0.061570447
000200 21 9b 60 3e aa fa e9 3e 50 a7 f9 be 22 64 17 bf
       0.21934177 0.45699054 -0.48760462 -0.59137166
000210 a0 29 e6 3d 51 93 6f 3f 02 4f 9c be 3e 76 e0 bd
       0.11238408 0.9358416 -0.30529028 -0.10960053
000220 fc 2d 74 3e 67 9a db 3d 3a 1d 8f bd c3 21 8f 3d
       0.23845667 0.10722809 -0.069879964 0.069888614
000230 1d 26 0c be 0d 3a 81 be e3 1e 21 be 40 87 f7 3d
       -0.13686414 -0.25239602 -0.15734439 0.12086344
000240 0e 2c c8 3d 8f 81 2b bc d7 4b 3f 3d 7f ea 52 be
       0.09774028 -0.010467901 0.046703186 -0.20597266
000250 76 c7 6f bd bb 4b 70 be 3a fd 20 3f c8 95 05 3f
       -0.05853983 -0.23466389 0.62886393 0.52181673
000260 ea 9a a6 bd f0 30 19 be 8f e4 b0 be 72 40 62 3e
       -0.08135016 -0.14960074 -0.34549376 0.22094896
000270 86 32 23 be 24 b3 07 3f f1 f9 49 3e df ae 58 be
       -0.15937242 0.5300772 0.19724251 -0.21160458
000280 97 23 ee bd ce 6d 8a 3e 18 6e 37 3f 2c 32 3b 3e
       -0.11627882 0.270369 0.71652365 0.18280858
000290 c9 bb 3a 3f 27 aa 06 be 95 da 8b 3d 1f 34 59 be
       0.7294279 -0.13150845 0.068288006 -0.21211289
0002a0 a6 7f 92 3d f7 20 d3 bc 6d 5f 49 3e 0f 79 13 3e
       0.07153253 -0.025772555 0.19665308 0.14401649
0002b0 25 98 78 be a1 93 d8 bc 5d c8 df bd 8f 71 6a bc
       -0.24276789 -0.026437582 -0.10926888 -0.014309301
0002c0 3b e6 3a be 45 92 b9 bd 9a a4 63 3e 44 84 41 be
       -0.18251888 -0.09061102 0.2223076 -0.18898112
0002d0 c3 3e a9 be 73 ce d6 be 22 19 9b 3e 75 07 b1 3e
       -0.33055696 -0.41954383 0.30292612 0.34576002
0002e0 f7 9a 56 3e 8e 67 43 3d 9c 87 14 3e 74 e6 0d 3f
       0.20957552 0.04770618 0.14504856 0.5542977
0002f0 cd 2a 27 3e 10 83 41 3d 84 97 39 bd 76 ce 3c 3f
       0.16324921 0.04724413 -0.045310512 0.73752534
000300 04 55 6c bd 05 0d 66 3f 09 8c 78 bf d9 0c 9d be
       -0.057698265 0.89863616 -0.97088677 -0.30673864
000310 b0 e2 c9 bd e2 bf a8 3e ee 81 cb 3e 6f e4 a6 3e
       -0.0985769 0.32958895 0.39747566 0.32596156
000320 6c 5c ec 3e 14 da d5 3e 0c 2a 71 3e a9 da 04 3f
       0.46164262 0.41767943 0.23551196 0.5189615
000330 ef 0f 85 3e 7f 7b 10 bf d2 11 1f bf 50 4e 47 3f
       0.2598872 -0.5643844 -0.62136567 0.7785387
000340 82 88 90 bf b5 60 a4 bd 82 10 91 3e 64 24 87 3e
       -1.1291659 -0.08026258 0.28332907 0.2639495
000350 01 f8 8c 3e be eb ae 3d fa d4 5d 3e 77 e9 a2 3e
       0.27532962 0.08541058 0.21663275 0.31818745
000360 5d 2a 8a 3e 8c 22 bc 3e 15 5f f1 3e 4a 58 15 3e
       0.26985446 0.36745107 0.47142854 0.14584461
000370 fe ac 7f 3f de c7 18 bf 1a 36 87 bf c9 2a 8a be
       0.9987334 -0.59679973 -1.0563385 -0.26985767
000380 78 03 8d 3e
       0.2754171

encoder_layer_list.0.bias f4 [15]
000000 d2 b6 d8 3e 16 1a 95 ba e7 fd af bd a7 a9 04 be
       0.4232698 -0.0011375572 -0.0859335 -0.12955342
000010 34 37 79 be 84 85 bd bd c5 bf 58 bd 03 9f 8c bd
       -0.24337465 -0.09253982 -0.05291726 -0.068662666
000020 f9 39 b2 3e ec 89 e2 bc 57 af 24 3e 5f 8f 8c 3c
       0.34809855 -0.027653657 0.16082512 0.017158208
000030 58 3b be 3e 20 08 ca 3e 43 6f 1e 3e
       0.3715465 0.39459324 0.1547213

decoder_layer_list.0.weight f4 [15, 15]
000000 e3 1f da be fe c5 71 3e 0d 76 00 3a ee 4c cc be
       -0.42602453 0.23610684 0.00049004034 -0.39902443
000010 63 3f 69 be 3c 67 61 3e 1b 99 d1 be db f0 28 be
       -0.22778086 0.22012037 -0.40937123 -0.16498129
000020 87 78 0b 3f 3d 58 92 3d d3 1e b8 3e 79 ae 05 3e
       0.54480785 0.07145736 0.35961017 0.13054837
000030 67 cc a0 be 7c d6 64 be 2e f0 94 3e d2 3e 4f be
       -0.31405947 -0.22347444 0.29089493 -0.20238808
000040 cb 44 2c be e3 b0 27 be cc 6a ce be 5d 2f ce 3d
       -0.16823117 -0.1637607 -0.40315855 0.100676276
000050 ed d4 e4 3e 98 71 ca be f0 25 b6 be 75 89 0f 3f
       0.446937 -0.3953979 -0.3557582 0.5606912
000060 4e 7f f5 3d 11 16 d7 3e c7 42 78 3e 37 a5 a3 be
       0.11987172 0.42009023 0.24244224 -0.31961986
000070 86 22 3f be a6 8c 44 3e bf 2f 20 3e df ad 57 be
       -0.18665513 0.19194278 0.15643214 -0.2106242
000080 f2 b8 09 3d 7c ac 1c 3d 3b df d0 bd ea cf dd be
       0.033623643 0.03825043 -0.10198828 -0.43322688
000090 a0 b4 81 3e 6e c3 a9 3e 81 02 05 bf d8 af ca bc
       0.25333118 0.33156914 -0.51956946 -0.024742052
0000a0 6a de a0 be 1c f0 33 3e 8d 09 c9 3e 2b d5 bd 3e
       -0.31419688 0.17572063 0.392651 0.37076697
0000b0 1f ce b2 3c ff 82 25 3e c9 5a 93 bd 64 7e 1c bd
       0.021826802 0.16163252 -0.0719505 -0.038206473
0000c0 1d 0c a8 3e b0 54 10 be b5 06 cf be ed 65 a4 3e
       0.32821742 -0.14094806 -0.40434805 0.32109013
0000d0 9e 7d bd 3e cd b8 0e bf 76 93 30 be 90 39 c6 be
       0.370099 -0.55750734 -0.17243752 -0.38715792
0000e0 cf fa ef 39 d5 f7 50 3e bb 42 bd 3e b9 34 20 3e
       0.000457725 0.2040704 0.36964974 0.15645112
0000f0 3e 65 d6 3e 2e 80 db 3d 23 67 f2 bd fe b1 fa 3e
       0.41874117 0.10717808 -0.11836078 0.48963922
000100 d5 ec 71 be cf 52 bd be b1 a6 a2 3e ee c5 52 3e
       -0.236255 -0.3697724 0.317678 0.20583317
000110 18 70 84 be ec 9f 63 be 45 66 d6 be 1e 85 72 3d
       -0.2586677 -0.22228974 -0.418749 0.05920898
000120 da 89 56 3e bc 36 ff 3e 58 50 87 be f4 c0 11 3e
       0.20951024 0.49846447 -0.26428485 0.14233762
000130 aa 2e 36 be 5e c7 65 3e 10 8a bf 3e 25 3b 34 be
       -0.17791238 0.22439334 0.3741002 -0.17600687
000140 fe 54 1d 3e ee 52 f0 bd 45 8d e2 bd e7 13 18 3e
       0.15364453 -0.117345676 -0.11062101 0.14851342
000150 69 da e4 bd 79 96 8c bd 51 da 4a bd 2d 82 c6 bd
       -0.11174471 -0.06864638 -0.04952461 -0.09692798
000160 d8 42 a0 3d d9 c7 6c bd 22 02 ab 3d 0d 13 71 be
       0.078252494 -0.057807777 0.08350016 -0.23542424
000170 37 23 0b 3d 38 77 66 3e c8 86 1b be 4e 18 33 3e
       0.03396913 0.22506416 -0.15188134 0.1748974
000180 a3 6c 57 bc a9 bb fa bd a5 d0 36 3e 26 87 6a 3d
       -0.01314846 -0.122428246 0.17853029 0.057257794
000190 ba c8 31 be 4a 67 61 3d a3 ab 65 bd 84 e7 69 3d
       -0.17361727 0.055030145 -0.05607189 0.057105556
0001a0 21 11 24 bd a6 9a 0c be 7a 5a 3f 3e 75 8c 17 3e
       -0.040055398 -0.13730869 0.18686858 0.14799674
0001b0 26 36 c3 be 1f 1b 6b be 9b 1a d3 be 13 cc 1c 3e
       -0.3812725 -0.22959565 -0.41231236 0.15312223
0001c0 46 1d 16 be 7f 90 5d be d7 0a 32 3e 88 a3 00 3f
       -0.14659604 -0.21637152 0.17386948 0.5024953
0001d0 df 09 20 be 95 f4 a7 3e 86 10 80 3d 92 d6 67 3e
       -0.15628766 0.3280379 0.062531516 0.22640446
0001e0 c5 42 cd bd dd 80 be 3d e6 ab 97 bd b7 f5 f9 3d
       -0.10022501 0.093019225 -0.07405834 0.122050695
0001f0 fd 34 a6 3c 71 cb a0 bd c2 39 00 be 7f 26 f1 bd
       0.020288939 -0.07851303 -0.12522033 -0.11774921
000200 09 89 bb bc 73 17 4a 3e a0 36 a7 3d 7a 32 5f bd
       -0.022892492 0.19735508 0.08164716 -0.054491498
000210 74 92 dc 3c 60 88 34 3e 00 e4 22 3e 2d 14 89 bd
       0.026925303 0.17630148 0.15907288 -0.06693301
000220 3d ea 4c be f8 ef 71 be 29 25 6c 3e c0 97 6a 3e
       -0.2001123 -0.23626697 0.2306105 0.2290945
000230 3f 88 cc 3c 03 75 ea bd 76 d0 cb bd ec bd 0c 3d
       0.024967311 -0.114480995 -0.0995187 0.03436081
000240 ab 80 6c 3c 63 2a 3b be ad 84 d2 bd 97 49 9e bd
       0.014434974 -0.18277888 -0.10279212 -0.0772888
000250 86 c2 8f bc b4 99 03 bd 23 43 66 bf 51 e6 41 3e
       -0.01754881 -0.032129005 -0.8994619 0.18935515
000260 02 ec 72 3d 65 ba e9 3e 42 75 3c be b9 42 44 3f
       0.059307106 0.4565002 -0.18404105 0.7666431
000270 9e 92 df 3e 79 67 10 3f d7 b2 41 bf ed 30 4f be
       0.43666548 0.56407887 -0.7566351 -0.20233507
000280 73 5b 9b be 7a 97 69 be 6b a8 fc bd 0e 47 5b bf
       -0.30343208 -0.2281169 -0.12336811 -0.85655296
000290 1b 37 83 3f 01 52 53 3f 0e 1b 1e be 85 d0 06 3e
       1.0251192 0.82547003 -0.15440008 0.13165481
0002a0 80 64 27 be ff 65 98 3d 2a b6 7f 3f 7f bc b6 3e
       -0.16346931 0.07441329 0.99887335 0.35690686
0002b0 8f 8a e3 be 7b c3 4d bf 75 fd 13 be 4e bd 89 3e
       -0.4444165 -0.80376405 -0.14452155 0.2690224
0002c0 01 97 84 bd dc 45 23 3f dc 58 55 bf a9 99 5f bf
       -0.06474114 0.6377847 -0.83338714 -0.8734384
0002d0 e2 5b 5b bf 25 40 37 3e d6 1b 4c be ef a6 52 3e
       -0.8568708 0.17895563 -0.19932494 0.20571493
0002e0 83 62 d1 bd cc b0 db 3e f6 d6 8f 3e 6e 20 3d 3f
       -0.10223868 0.42908323 0.2809369 0.7387761
0002f0 49 3e c1 bd 26 d8 73 3e 2e 6b de 3e 0a 46 41 3d
       -0.09435708 0.23812923 0.43441147 0.047185935
000300 99 47 0e be c8 47 27 3f 2c 3a a2 bf 93 40 2b be
       -0.138945 0.65343904 -1.2674003 -0.16723852
000310 e3 03 d2 bd 07 5d 02 3e 06 9b e5 3e 64 14 ed 3d
       -0.102546476 0.127308 0.44844836 0.11576155
000320 48 7e 23 bf e7 73 59 be 64 68 32 3f c7 e4 43 3f
       -0.63864565 -0.2123562 0.6969054 0.7652096
000330 a0 6b 19 3e c2 de d2 3c 68 34 b3 bd a1 14 1c 3f
       0.14982462 0.025740985 -0.0875023 0.6096898
000340 c4 1b a6 bf db 44 cf be e0 a7 59 3f 4c b4 c3 bd
       -1.2977223 -0.4048222 0.8502178 -0.09555873
000350 f7 e8 76 3e cd 48 bf bc a5 37 43 3e a6 8e d9 bd
       0.24112307 -0.023350144 0.19064195 -0.10622911
000360 a9 97 19 bf 45 84 84 3f e6 23 0c bf 0f 32 01 3e
       -0.5999704 1.0352865 -0.54742277 0.12616752
000370 f9 de f3 3e ae 4f fc 3d 1e 4f 8a bf 71 73 7c be
       0.47631052 0.12319885 -1.0805395 -0.24653412
000380 ae c5 70 3d
       0.058782272

decoder_layer_list.0.bias f4 [15]
000000 86 c0 e5 3c 90 72 a2 be 24 fc 6b 3d a1 75 28 bd
       0.028045904 -0.3172803 0.057613507 -0.041127805
000010 d9 1f 6e be 2f 80 b5 bd 59 90 a3 3e 34 49 13 be
       -0.23254336 -0.0886234 0.31946066 -0.14383394
000020 bb e9 5a be f6 30 ba bc ad be 54 bd a1 56 9e be
       -0.21378224 -0.022728425 -0.051939655 -0.30925468
000030 3a 90 3d be 9f 87 eb bc 61 cd 28 be
       -0.1851205 -0.028751193 -0.16484596
